net.pkl (torch_old, 801611 bytes, 10 tensors)

weight f4 [256, 3]
000000 17 56 d0 3e af 9d 1f bf 0a f2 ec be 0e 7c fa bd
       0.4069068 -0.6234998 -0.4627841 -0.12230693
000010 33 06 0f 3e 6a 0d a8 3d 6e 62 dc 3e 48 65 a3 be
       0.13967209 0.082056835 0.43043846 -0.3191321
000020 3c 9b e0 3e 1b b2 12 3e 0b 01 74 3e f4 5c b8 bd
       0.43868434 0.14325754 0.23828523 -0.090021044
000030 d4 d9 01 3f 68 0e b4 bd de 10 55 bf f2 95 16 3f
       0.50723004 -0.0879181 -0.8322886 0.5882255
000040 aa d5 c2 be b5 41 84 be fa 88 4c bf 47 3c 06 3f
       -0.38053638 -0.2583138 -0.7989651 0.52435726
000050 0b 6f 10 3f 9f a7 66 3e a9 96 4d 3f 93 58 cb bd
       0.5641944 0.2252488 0.80308014 -0.099290036
000060 0c 0c 8a 3e cd 15 7a be 47 81 7f 3d 96 1b 1e bf
       0.26962316 -0.24422379 0.062379148 -0.6176084
000070 ab ad 69 3e bb 1a bb 3e 59 30 79 bd 12 af 8e be
       0.22820155 0.3654383 -0.060837124 -0.27867943
000080 bd fe 1d 3f 04 0d 2e 3f 7e 3c f9 be 99 17 ae be
       0.61716825 0.6798861 -0.48678964 -0.3400238
000090 41 4e 79 be bb 71 9d be 41 4d 45 be ae fa 87 bb
       -0.24346258 -0.30750832 -0.19267751 -0.0041497564
0000a0 81 6f a4 bd 92 87 99 bd 2e 29 a5 3d f9 9b c0 3d
       -0.0802908 -0.07496561 0.08064495 0.094047494
0000b0 ab 6c 64 bc a0 c4 2a be 26 5a 62 3e de 63 65 3e
       -0.013941924 -0.16676569 0.22104701 0.22401378
0000c0 4f 55 85 be 0b 93 37 bf f4 40 87 3e 05 6a 2c be
       -0.26041648 -0.71708745 0.26416743 -0.16837318
0000d0 9b 9c 56 3d 59 e8 1a 3e 21 8b 40 be 66 d3 db 3e
       0.052395444 0.15127696 -0.18803073 0.42934722
0000e0 f9 a0 16 3f f8 d1 37 3f 72 ad 71 3d cf 07 0f bf
       0.58839375 0.7180476 0.0590033 -0.5587129
0000f0 7f d1 70 3f 24 37 c9 be ee 12 cf be 27 91 8a 3d
       0.94069666 -0.3929988 -0.4044413 0.06765967
000100 4f f9 10 bd 22 94 f4 bc b1 3a 69 bd fd 77 97 3d
       -0.03539401 -0.029855791 -0.056940738 0.07395933
000110 7d b0 15 3d 27 97 4c 3d 54 a5 22 3f d3 b1 1a 3e
       0.036545265 0.049948838 0.6353352 0.15106897
000120 03 bf 35 3e da 6b e9 3e 75 a3 cb 3e 07 5c 15 3f
       0.17748646 0.45590097 0.39773145 0.5834355
000130 94 c6 47 bf 20 37 42 3e 9b 0d 4b bd 19 14 d6 3d
       -0.7803738 0.18966341 -0.049573522 0.10453052
000140 ed 4e df 3c 41 91 be be e0 60 b4 3e 06 99 27 3e
       0.027259314 -0.37220195 0.3523016 0.16366968
000150 08 31 15 3f 79 d7 e1 be 51 eb 1c 3f 53 82 f4 3e
       0.5827794 -0.44109705 0.61296564 0.4775568
000160 1e 51 f2 3e 51 05 c9 be b1 7c 57 bf db ff 03 3f
       0.47327513 -0.3926187 -0.8417464 0.5156228
000170 71 71 11 be 44 cd 2a 3d f0 c8 e4 3c 05 1f 01 3d
       -0.1420343 0.041699663 0.027927846 0.031523723
000180 e1 c1 81 be f2 a6 90 be 55 93 c6 be 75 63 7a 3e
       -0.2534323 -0.2825237 -0.3878428 0.24452002
000190 60 af 18 be be 37 85 bd e5 0a a4 be 3b 97 be be
       -0.1491065 -0.065047726 -0.32039562 -0.37224755
0001a0 20 35 c3 3e 22 b7 0d bf 68 8b 90 be a9 85 fe 3e
       0.3812647 -0.55357563 -0.2823136 0.4971135
0001b0 8d 8f 51 3d cd 9f 13 3d ef 7e 85 3d c4 f3 18 bf
       0.05116229 0.03604107 0.06518351 -0.59746957
0001c0 c5 77 27 3f bd d2 03 3f a7 96 78 be f8 28 56 3e
       0.6541713 0.51493436 -0.2427622 0.20914066
0001d0 53 a6 46 3e 5c 9e 8e 3e 05 b6 42 be e5 04 95 bd
       0.19399385 0.27855194 -0.19014747 -0.07276324
0001e0 a8 3a d2 be 8d 0d 2e 3e 5d 07 62 3e a7 a5 90 3e
       -0.41060376 0.16997357 0.22073121 0.28251383
0001f0 6e 0e 54 bf 49 97 a0 3e 62 46 07 3f 8a 76 44 bf
       -0.8283452 0.3136542 0.5284177 -0.76743376
000200 90 40 fc 3e 82 1b 19 bf 5b b0 17 bf 04 d5 ce 3d
       0.49268007 -0.598076 -0.5925347 0.10099223
000210 0b 41 de bc 92 6a ad ba 87 0f fb bd 59 f5 2b 3e
       -0.027130624 -0.0013230613 -0.12258821 0.16792811
000220 c3 07 25 bd 25 f0 6c bd 14 07 7d be b7 85 e9 3e
       -0.040290605 -0.057846207 -0.24709731 0.4560983
000230 94 95 a5 3e 8e e1 7c 3e 8b 29 20 be a7 64 56 bd
       0.32340682 0.24695417 -0.15640847 -0.052342083
000240 72 ef b9 bd 0a 04 e8 bd d8 45 3f bc 13 8b 39 3e
       -0.09078874 -0.113288954 -0.011674367 0.18119459
000250 44 8d f8 bd 69 94 22 bf 7d dc 29 3e 04 41 a3 bd
       -0.12136319 -0.63507706 0.16588016 -0.07971385
000260 99 fd a1 3d a9 0a 9c 3e d0 d0 c4 bd 6b 95 e9 3b
       0.07909698 0.30476883 -0.0961014 0.0071284077
000270 85 74 8a bd 43 8e 99 be a8 f3 d1 bd e1 e4 ed 3e
       -0.067605056 -0.2999135 -0.10251552 0.46463683
000280 23 c6 22 bf fb c3 88 3e c3 e5 1a 3f ec b1 36 3f
       -0.6358358 0.2671202 0.6050684 0.7136524
000290 f4 78 da be 3f 12 48 3e b4 18 1a bf 44 f9 ea 3e
       -0.42670405 0.1953821 -0.60193944 0.458933
0002a0 4d 80 a6 bc 20 a3 20 3f cc 7d e0 be ba 67 de 3e
       -0.02032485 0.6274891 -0.43845975 0.43438512
0002b0 61 f2 6a be 2b ea a0 3d 01 76 14 bf bf d7 3e bf
       -0.22944023 0.07857164 -0.5799256 -0.7454795
0002c0 c6 b3 c5 3e 56 fd 07 3e 85 08 4a bf 0a 1a 43 3e
       0.3861372 0.13280234 -0.7891925 0.19052902
0002d0 e9 e5 50 bf 53 70 d6 3e ed 0e 67 be 16 9c f5 3e
       -0.81600815 0.41882572 -0.22564287 0.47970647
0002e0 d7 3b de be f2 cc cf be c0 84 a2 3d ba 9c 36 be
       -0.4340503 -0.40586048 0.07935476 -0.17833224
0002f0 2b e9 cd bc c0 de 22 3f 0d 82 23 3f dd 83 39 be
       -0.025135597 0.6362114 0.63870317 -0.18116708
000300 0c d9 31 3e fa d3 de 3d 5d 1e ce 3d 1a 41 87 3c
       0.17367953 0.10880275 0.10064385 0.016510535
000310 b0 4f 3b bc 6a a6 a0 3b a4 fc f7 bd 9b d3 12 3f
       -0.011432573 0.0049026506 -0.12108734 0.57354134
000320 e4 15 50 bf 2b 5f 46 be dd 26 4f 3e 11 a4 cd 3d
       -0.812834 -0.19372241 0.20229669 0.10041059
000330 da 53 44 bf 3f f9 15 be eb 29 9c 3e c8 15 3f 3e
       -0.7669045 -0.14645861 0.3050073 0.18660653
000340 a3 00 b8 3d 63 b7 5e ba 3e f0 96 3e f0 1d 29 bf
       0.089844964 -0.00084959547 0.29480165 -0.66061306
000350 4c 14 c4 be 61 ea 1e be 88 f4 87 3e 36 dd b7 3d
       -0.38296735 -0.15519096 0.2655375 0.089777395
000360 d1 6a 17 3d ff 8a d1 bd 38 af 7a bd 2a b5 d1 be
       0.036967102 -0.102315895 -0.061202258 -0.4095853
000370 1c d2 a7 3e 3b ba 12 3e 79 48 ad 3e c6 9f 94 be
       0.32777488 0.14328854 0.33844355 -0.29028147
000380 b9 b0 8c be 96 66 92 3e 48 a6 15 3e b5 86 79 3d
       -0.2747858 0.28593892 0.14614213 0.060919482
000390 99 f7 72 be 49 2b 96 3d 83 58 0e 3d 0c 7c ce be
       -0.23727264 0.07332475 0.03475238 -0.40329015
0003a0 ae ce eb bd 5a ba 0d be 82 1e a1 3e ec 2d 3f bf
       -0.115140304 -0.13840619 0.31468588 -0.74679446
0003b0 a5 a0 34 be fe 27 4a 3d 3e 14 a6 3c d6 ad b5 3b
       -0.17639406 0.049354546 0.020273324 0.0055444045
0003c0 a8 87 eb 3e bc 9a 0b 3f 5f ca 3a bf c4 11 0d 3d
       0.46001935 0.5453298 -0.72965044 0.03444077
0003d0 a5 d6 04 be 6c 06 8b be 0f 1b 53 bc 15 d6 aa bd
       -0.12972505 -0.27153337 -0.012884869 -0.08341614
0003e0 5e b1 86 bd 00 02 c6 bc 81 60 b5 3d ae 78 02 bf
       -0.06576799 -0.024170876 0.08856297 -0.5096539
0003f0 de 26 09 bf 3f 0f 02 3f da 98 15 3f 96 ae 93 3e
       -0.5357493 0.50804514 0.5843636 0.28844136

bias f4 [256]
000000 0a 39 ea 3e 5b ee 49 bd 46 16 b7 be 83 eb 16 be
       0.45746642 -0.04929958 -0.3575918 -0.14738278
000010 6b 29 ca 3e 07 a1 97 3d 32 47 7a be af da 08 bf
       0.39484724 0.074037604 -0.24441221 -0.53458685
000020 24 5b a0 bd f8 80 b9 bc 5e 84 80 be 77 17 e2 3d
       -0.07829884 -0.022644505 -0.25100988 0.11039632
000030 a3 ac fc 3e c4 2b dd 3d 30 5d b5 bd c3 75 3a be
       0.4935046 0.10799363 -0.08855665 -0.18208985
000040 ca 1d d7 3e 7e 71 2b bd a8 9b 12 bf bf 76 98 bd
       0.42014915 -0.04185628 -0.5726876 -0.07444524
000050 c4 90 76 bd fc e1 03 3c 8f 90 ee bc 0a 80 f6 be
       -0.060196653 0.008049484 -0.029121665 -0.4814456
000060 76 88 26 bf a7 33 0c be 62 09 37 bd c7 d8 b5 bd
       -0.6505197 -0.13691579 -0.044686683 -0.088792376
000070 08 70 eb be 77 90 84 be f1 06 b3 3e 6e 7d 75 bd
       -0.4598391 -0.25891468 0.34966233 -0.059934072
000080 a2 a0 20 3f 32 cc 32 bc 44 c0 11 3e 6c e4 10 3e
       0.62745106 -0.010912942 0.142335 0.14149636
000090 c1 95 c2 bd d0 7c e5 be db ec e3 bd b3 61 80 bb
       -0.095012195 -0.44821787 -0.11129161 -0.0039178967
0000a0 7d 8c 8d bb 8c 0d c5 3d c1 7c 0f be d1 db 12 3f
       -0.004319726 0.096217245 -0.14012434 0.57366663
0000b0 57 22 e5 3d df 27 e2 bc dc 1c ba be f7 e9 a6 bc
       0.111881904 -0.027606903 -0.36350143 -0.020375235
0000c0 66 f9 06 3e 76 e2 e6 3e ef fe d2 bd a7 d9 08 be
       0.13181075 0.4509465 -0.10302531 -0.13364278
0000d0 52 96 9f 3e 37 76 bf bd 18 c6 fc be 48 ec e8 bc
       0.31169373 -0.093487196 -0.49369884 -0.02843298
0000e0 3c 55 93 bc 00 96 41 be b7 d6 d5 3e 17 5c 87 3e
       -0.017984979 -0.18904877 0.41765377 0.26437446
0000f0 f5 c0 ee 3e 82 0e 91 3e fb 58 a1 3d 1f ab 32 bf
       0.4663159 0.2833138 0.078783 -0.6979236
000100 7e f4 78 be b5 f5 3a bb 95 b1 b2 3e a6 8f 8b bd
       -0.24312016 -0.00285278 0.3490111 -0.06814508
000110 8e 91 ba 3e 29 58 28 be 53 69 fa 3e 33 a6 f3 bd
       0.36439174 -0.1643988 0.4890848 -0.11896934
000120 a9 a6 96 3d 93 10 1f bd ba 29 38 3e 81 b4 9b be
       0.07356007 -0.038834166 0.17984667 -0.3041115
000130 e1 e9 a0 3d 52 4f e1 3e 70 31 c3 3e 02 2e 2b bd
       0.07857109 0.4400583 0.38123655 -0.041791923
000140 37 a0 9f bc 0e f1 88 3e b9 2b ec 3d 47 9f bd 3e
       -0.019485576 0.2674641 0.11531777 0.3703558
000150 15 c1 e5 be 01 d6 5b bc 0c 42 c8 bd c5 62 e6 3d
       -0.44873872 -0.013417722 -0.097782224 0.112493075
000160 e7 c9 f9 be 9d cd aa bd e6 5d 14 be 5a c6 f5 be
       -0.48786852 -0.08339999 -0.14488944 -0.48002893
000170 65 f1 0b 3f d1 f3 a0 3d 0f b9 c9 bd 36 52 08 3e
       0.54665214 0.07859004 -0.0984975 0.13312611
000180 fd db 00 3e 36 77 32 bc 5e cb f5 3d 98 be 19 bd
       0.12583919 -0.01089268 0.1200168 -0.03753528
000190 57 ad f8 bd b7 07 97 be fe 99 c8 3d db 32 7e be
       -0.12142437 -0.29498073 0.09794997 -0.24824087
0001a0 b6 09 07 3d f7 d3 64 3e 83 b5 c2 3e 79 09 75 3d
       0.032968245 0.22346483 0.38029107 0.059823487
0001b0 39 e7 fc bc ec 26 8a 3e 06 53 cc 3d 7b b0 4a 3e
       -0.030871974 0.2698282 0.09976773 0.19793884
0001c0 f6 d2 5f 3e 33 e2 b5 3d 5c 0f 0c bf 83 69 da be
       0.21857819 0.08881035 -0.54710937 -0.42658624
0001d0 ea e7 f0 be 3f 3f 20 bd d9 27 cf be 43 b0 2d bf
       -0.47051936 -0.039122816 -0.4046009 -0.6784708
0001e0 ae 03 13 be 10 7f 8f bd e1 b7 68 3e d2 d1 fb bd
       -0.14356872 -0.07006657 0.22726394 -0.122958794
0001f0 ae 51 03 3b 8a 46 e5 be 7f 49 f1 be 79 53 54 3e
       0.0020037699 -0.4478038 -0.47126386 0.20734967
000200 08 9e cd 3e 9b 54 80 3c 15 10 94 3e 90 8a 7c be
       0.4015963 0.015665343 0.2891852 -0.24662232
000210 d5 d1 1c bf 42 ee 44 3a f8 8f 02 be d0 74 e1 3e
       -0.6125768 0.000751231 -0.12750232 0.44034433
000220 6c a3 96 be 85 ed 56 3e ac 97 9b be a2 e3 26 3e
       -0.29421556 0.20989044 -0.30389154 0.16297773
000230 01 c3 e8 bd 1b 1d bc 3e 45 3b 8e 3d 5b a0 35 3e
       -0.11365319 0.36740956 0.069448985 0.17736952
000240 bf fb d7 be a9 69 48 bd a1 6c 9e be 94 ab 70 3e
       -0.42184255 -0.04892889 -0.30942252 0.23502952
000250 8f 18 09 bf 4f c4 6c 3e 7c df cb 3e 76 a1 ed 3e
       -0.535531 0.23121761 0.39818943 0.46412247
000260 09 ad fb 3e e5 90 8f 3d f7 01 80 be 7d bb 01 bf
       0.49155453 0.07010058 -0.250015 -0.5067671
000270 3f 59 ee bd e0 03 39 3e a5 63 dd bd 28 ad ab 3e
       -0.11638116 0.18067884 -0.10810021 0.33530545
000280 7e f9 24 3e 51 c6 37 bf b1 3f fc 3d 6f 3e fa bd
       0.16110799 -0.7178698 0.12316836 -0.122189395
000290 0d a5 7d 3e 7a 7b bc bd 51 ff d0 3e ab e9 d3 3e
       0.24769993 -0.09203239 0.4081979 0.41389212
0002a0 be 07 00 3e 83 0a 93 be bc bf b9 3e c1 27 26 3e
       0.12502953 -0.28718957 0.36279094 0.16226102
0002b0 a9 3c c2 bd 89 4d b8 3b 1b 86 1e 3e 88 ab 49 bd
       -0.09484226 0.0056244773 0.15480845 -0.04923585
0002c0 ba 06 9e 3e 43 19 fb 3e e9 cc c0 bd b2 32 3b 3e
       0.30864507 0.4904271 -0.094140835 0.18281057
0002d0 f0 c8 0d 3e 85 49 43 be cf 10 ab bb d0 0f 98 3e
       0.13846183 -0.19071014 -0.0052205096 0.29699564
0002e0 bb dc 67 3e 9a 24 6c bc 92 ce bb be f0 97 3f bd
       0.22642796 -0.014413023 -0.36681038 -0.04677576
0002f0 3b a4 2f 3c fc ae 99 3e 03 ea 16 3f 53 20 9b be
       0.010720308 0.30016315 0.58950824 -0.302981
000300 b6 4f cf be e3 98 1b 3f 54 26 bf be fb f3 dc 3e
       -0.40490502 0.6078016 -0.3733393 0.43154892
000310 4a 3f cb 3e 9a 0b c4 be c2 b3 55 bc f0 75 02 bf
       0.39696723 -0.382901 -0.013043346 -0.5096121
000320 f7 03 8b be 9d f9 91 3c 58 49 f5 bc b2 72 90 3d
       -0.27151462 0.01781922 -0.0299422 0.070531264
000330 d1 39 7b 3e 3c 3d 0b bf c2 4c ae 3d eb 53 bc 3e
       0.24533774 -0.5439031 0.08510734 0.36782774
000340 a1 a1 98 bc af 59 1f bd c9 6f 03 3f 22 58 d3 be
       -0.018631758 -0.03890389 0.51342446 -0.41278177
000350 e6 2f e8 be 98 ed 80 3e 96 d0 a1 3e 73 a9 1c be
       -0.45349044 0.2518127 0.3160445 -0.15299015
000360 96 a1 aa bd 27 47 1d 3d de 7c 09 be ae b1 93 3e
       -0.08331601 0.038397934 -0.1342654 0.28846496
000370 5b 71 2c 3f c7 09 ee 3e dd 02 6c 3e 67 0b b3 3d
       0.67360467 0.46491835 0.23047967 0.08742409
000380 65 30 d7 be 44 61 52 be 70 d5 d4 3d 68 b7 f3 3e
       -0.4202911 -0.20544916 0.103922725 0.47600865
000390 f6 c0 da bd 10 b3 b0 bd ec 14 9d be 98 1e b7 3d
       -0.10681336 -0.086279035 -0.30680025 0.08941382
0003a0 fd 86 a4 3e 59 cb 35 3f c4 fc d8 bc 2b 30 b9 3d
       0.32134238 0.7101341 -0.026487716 0.090423904
0003b0 d6 f5 c3 3b 78 f7 71 3e 7e b0 d7 be 44 de a3 3e
       0.0059802337 0.23629558 -0.4212684 0.32005513
0003c0 cb 0f 16 be 24 26 a5 3e 70 77 01 3f bf e7 1a 3e
       -0.14654462 0.3225566 0.5057287 0.15127467
0003d0 87 d0 af bd 40 8e 1d 3f 99 97 97 be 19 a6 5b be
       -0.08584695 0.6154518 -0.29607847 -0.2145008
0003e0 6f cc f6 bd 07 48 9b 3e c0 d0 22 be c3 a6 9e 3e
       -0.12050711 0.3032839 -0.15899944 0.30986604
0003f0 b5 67 17 bf e2 2e 1f 3f ef a3 94 3e 1e 03 a0 be
       -0.5914262 0.6218091 0.2903132 -0.31252378

weight f4 [256, 256]
000000 e0 8e e4 3e 89 03 1e 3b 89 7c 80 3e 48 15 1b bd
       0.44640255 0.0024110994 0.25095013 -0.037862092
000010 81 cc 4b 3e 2a d8 23 bd 39 8a 85 bf 30 f9 0f be
       0.19902231 -0.040001072 -1.0432807 -0.14059901
000020 6b bb 1a bd a1 57 af bd e2 34 b8 3d 04 22 15 3f
       -0.037776392 -0.08561636 0.089944616 0.5825503
000030 1f 0e ab 3c cc e4 2b bd e1 6a 29 3d 9d 46 ad bc
       0.020880757 -0.041966245 0.041361693 -0.021151835
000040 4a 25 d6 3c fe 97 81 bd 2e 9b 76 be 30 ca da 3e
       0.026140828 -0.06327818 -0.24082634 0.42732382
000050 fc 4d 22 3f fd 7b 4c bd 86 aa f7 bc 5c bb a6 3d
       0.63400245 -0.049922932 -0.03023268 0.08141205
000060 29 58 7f 3c 4a 6e 05 3f ad e9 86 bd fc ba 54 3d
       0.015584984 0.5212141 -0.06587539 0.051936135
000070 9b 2c 06 3f 60 db 2c 3d 7b f1 69 bf 71 02 3b bd
       0.5241181 0.0422014 -0.91384095 -0.045656625
000080 62 e4 fc bd 52 87 91 3d cd 49 80 bb 93 91 64 be
       -0.12348248 0.071058884 -0.0039150477 -0.22321157
000090 37 9f 36 bc e4 36 4d bf 06 aa 6d bc e2 7e 09 3e
       -0.011146358 -0.8016188 -0.014505869 0.13427308
0000a0 06 ac 30 bd ac 7a c4 3e ae 53 fa 3e 23 e3 18 bf
       -0.043132804 0.3837484 0.48891968 -0.59721583
0000b0 69 40 63 bd 06 84 38 bd f7 32 0c bd 57 aa a2 3d
       -0.05548135 -0.045047782 -0.03422829 0.07942646
0000c0 79 4e 11 bc 2a e7 5f bd 4e a9 9f bd 7f af a0 3d
       -0.008868807 -0.054663815 -0.07795964 0.07845973
0000d0 ac 34 ba bc 9d 90 75 3e 9c a3 88 3e 6a 45 9c 3e
       -0.022730194 0.23980947 0.26687324 0.3052171
0000e0 83 a4 13 3d 5e 3a 34 3d 08 ac a0 be 70 ce b6 3d
       0.036045562 0.044000976 -0.3138125 0.089260936
0000f0 9e ef 63 bf 6b 1d 95 bb 40 32 36 3c aa 8f cc 3e
       -0.890375 -0.004550626 0.011120379 0.39953357
000100 4f 3d 69 3c a0 64 0c bd d8 af ce be 2a 16 54 3d
       0.0142358085 -0.03427565 -0.40368533 0.05177895
000110 86 de 57 be e9 38 56 3d 6e fe ed 3e 71 1b 92 3d
       -0.2108098 0.052300368 0.46483177 0.0713414
000120 a2 64 dd 3d 5d d7 82 bc 47 2e e5 bc c3 0d a9 bb
       0.1081021 -0.015971834 -0.027976168 -0.005159111
000130 26 92 b8 3b 0b 7b 9d bd cc 05 06 3f 2d c1 23 bd
       0.0056326566 -0.07689484 0.52352595 -0.03997915
000140 62 17 a9 3d df 6f 83 bc a6 96 19 bd a9 a0 78 3b
       0.08256413 -0.016044555 -0.037497185 0.0037937558
000150 b4 d4 3b bf ac 7c 5d 3b 7b b3 66 bd 33 da 50 3b
       -0.73371434 0.0033796234 -0.05632351 0.0031868338
000160 6d dd 8d 3e cf e1 a2 3d d7 ab 88 3d 72 47 94 3e
       0.27707997 0.07953226 0.06673401 0.28960758
000170 0f 3d d4 be d5 ac e7 3b 0a 08 20 bd 20 df 01 3c
       -0.41452834 0.0070701637 -0.039070167 0.007926732
000180 bd 1f 52 bc cc dc 8d 3d e4 05 d0 bc 18 25 f5 3c
       -0.01282495 0.06926879 -0.025393434 0.029924914
000190 46 97 bc bc 12 cf 31 3d 6d e7 bd bd e1 a2 13 3d
       -0.023021352 0.04341037 -0.092726566 0.036044005
0001a0 80 c1 93 bd 59 fe 0e 3e 1f f6 0b bc 1f 85 e8 bc
       -0.072146416 0.13964213 -0.008542567 -0.02838379
0001b0 d6 56 e5 3e bf b9 34 3d f7 03 9c bc e0 73 60 bd
       0.44792813 0.044122454 -0.01904486 -0.054798007
0001c0 b8 fa 0c 3f 60 7e 42 bd 97 66 94 3a 00 78 f2 3c
       0.55070066 -0.0474838 0.0011322078 0.029598236
0001d0 b6 e8 a4 be fc cf b4 3d 58 1f 75 bf 92 36 b8 3e
       -0.32208794 0.08828732 -0.9575095 0.35979134
0001e0 fa 47 bc 3c 19 14 30 bd 6c ef 8f bd 50 74 00 bd
       0.02298354 -0.042987917 -0.07028088 -0.031360924
0001f0 1c 9e 91 3d 5f df 62 3e 53 27 7a 3e 78 2a 87 3d
       0.07110235 0.22155522 0.24429063 0.06599897
000200 2a 4f cf bd a8 1b 66 bc 7f 32 17 3e 5b c7 ec bc
       -0.10122521 -0.01404468 0.14765356 -0.028903654
000210 c2 70 da 3e 94 29 86 bd 23 9a 50 3b f3 30 1a 3e
       0.42664152 -0.06550899 0.0031830154 0.15057735
000220 f5 5f 34 3d f6 82 d2 bd a3 42 e3 3d 57 6a eb 3d
       0.044036824 -0.10278885 0.11096694 0.11494892
000230 c4 0e 61 3a 82 94 a5 bd 2e 01 15 3e 9b 28 83 3d
       0.0008585269 -0.08084966 0.14551231 0.06404229
000240 4b c6 d9 3c 5e 37 ab 3d f0 d1 bc 3d d0 1b a1 bd
       0.026583811 0.0836017 0.0921973 -0.07866633
000250 82 de 96 bc 3a 4b 8d bc a0 12 50 be 86 09 57 bd
       -0.018416647 -0.017247785 -0.20319605 -0.052499317
000260 65 92 e8 bd be d3 10 bf 46 51 fa 3c 6f de b3 3e
       -0.113560475 -0.5657309 0.030556332 0.3513064
000270 55 fb 94 3e aa 4e 92 3d b5 5e 83 3e 5f c9 82 bd
       0.29098 0.0714391 0.25658193 -0.06386065
000280 87 81 12 3c 87 5c c2 3e e1 cc 0f 3d 26 f8 c3 3d
       0.008942015 0.37961218 0.035107497 0.09568815
000290 b8 aa 73 3c f2 42 43 3d 90 6f 4f be ed c9 60 bf
       0.0148722455 0.047671266 -0.20257401 -0.87808114
0002a0 79 6d 0b 3c 06 28 15 3e 7a c3 31 3e 95 54 ab bf
       0.008509987 0.14566049 0.17359725 -1.3385187
0002b0 11 03 4c 3d 35 6d 17 bc 61 05 8a bc 7a 42 c5 bc
       0.04980761 -0.009242346 -0.016848268 -0.02407955
0002c0 3c 9d 9e bd f6 cf ef be 06 60 9f bb 5e 01 53 bc
       -0.07744834 -0.4683835 -0.004863742 -0.012878744
0002d0 30 e2 97 bc 89 11 7f 3c 47 9c fe 3c 06 ee b5 be
       -0.018540472 0.015568146 0.031080378 -0.3553316
0002e0 9b e3 55 bd be d8 40 bd 25 7d e2 3d f7 6c de 3d
       -0.052219015 -0.0470817 0.11059026 0.10860627
0002f0 c8 23 35 bd 62 71 b3 bd d3 f2 00 bf 9f 7e 80 be
       -0.044223577 -0.087618604 -0.5037052 -0.25096604
000300 63 f9 8b 3e 2c 7f da be b6 f9 9c bd 8b 9f b4 be
       0.27338704 -0.4267515 -0.07664816 -0.35277972
000310 8b 20 4e bf ed d0 aa 3e 5a 79 db bc 64 a3 f1 be
       -0.80518407 0.33362523 -0.026791263 -0.4719497
000320 2c 8e 8e be 4e 53 3a bd 35 1a f0 bc 69 d5 51 3e
       -0.27842844 -0.0454896 -0.029309371 0.20491566
000330 50 ad 95 bc 65 89 4f bf cb 3e 30 bd 0c 57 cd bd
       -0.018271118 -0.8106902 -0.043028634 -0.100263685
000340 ff 15 2f bd ae 27 d8 3d 14 f0 2c bf 81 60 0d 3f
       -0.042745586 0.10554443 -0.6755383 0.5522538
000350 64 e3 1e 3e 4d fc 22 bd d5 35 43 bd 39 86 16 3c
       0.1551643 -0.039791394 -0.04765876 0.009187275
000360 61 76 4b bd 03 86 3d bd 4a 44 d3 3e 45 1b 4f bd
       -0.04967344 -0.04627038 0.41263038 -0.050563116
000370 0b 32 03 bf ca e7 61 3e f2 0a 12 3d 21 00 cc bc
       -0.51248235 0.22061077 0.03565497 -0.024902405
000380 14 79 62 3c a9 8e 9e 3d 33 96 e6 bd bf 26 26 bf
       0.013822813 0.07742054 -0.11259117 -0.6490287
000390 59 8a ac bc 69 0d 25 3b 8b b8 6e bf 86 67 0f 3e
       -0.021062063 0.0025184995 -0.9325034 0.14004335
0003a0 d4 55 5d 3e aa a7 40 be 39 a6 f9 bb a5 c8 85 bd
       0.21614772 -0.18813959 -0.0076186922 -0.065324105
0003b0 d0 ef ad 3c d8 0e a3 bb 77 cf fc 3e 8f 38 5e be
       0.021232516 -0.0049761347 0.49377033 -0.21701263
0003c0 0a 06 24 bd c3 80 52 bd 21 ee 12 bf d7 98 54 3d
       -0.04004482 -0.051392328 -0.57394606 0.051903572
0003d0 36 6d 9e be e0 86 0f be 1f 46 4a 3d 24 2c 87 bc
       -0.30942696 -0.14016294 0.04938328 -0.01650054
0003e0 15 ae d9 3d 26 2b 0b bd e1 53 5c bc 6d 83 42 3e
       0.10628907 -0.033976696 -0.013447733 0.18995447
0003f0 87 6b 79 3e 44 28 a8 3e d5 eb 21 bd 85 db 3a 3d
       0.24357425 0.3284322 -0.039531548 0.045619506

bias f4 [256]
000000 a0 65 16 3e 8c 1a 56 3d ef 9f 0b bf 10 3a 3b bb
       0.14687204 0.05227141 -0.54540914 -0.0028568543
000010 86 fe 3b be c3 b6 84 3e 96 e3 34 bd 1f 2a b3 3c
       -0.18358812 0.25920686 -0.044162355 0.02187067
000020 e6 fb a1 3c 9c 7b 87 3e eb 87 54 3e 26 32 91 bd
       0.019773435 0.26461494 0.20754974 -0.07089643
000030 43 25 d2 bd 4b ff 77 3d f3 c6 ca 3d f3 7f db be
       -0.10261013 0.0605462 0.09901228 -0.42871055
000040 b1 97 c4 3d cd 3f 13 3e 0c 6b fa 3d ba 69 f0 3d
       0.09599245 0.14379807 0.12227449 0.11738916
000050 91 10 99 bd 8b f0 9d be 4a fa 79 bf b2 ed f7 3d
       -0.07473863 -0.30847582 -0.97647536 0.12105884
000060 88 e4 3e be c0 f1 49 be 3b d4 43 be 64 35 38 3e
       -0.18641865 -0.19721127 -0.19123928 0.17989117
000070 5a 20 6d 3e 9f 62 87 3d c8 31 a2 bd f5 40 87 bd
       0.23156872 0.06610607 -0.07919651 -0.066041864
000080 6a b2 26 be b1 9a 92 3e aa a8 1b bf 6c 53 b0 3e
       -0.16278997 0.28633645 -0.60804236 0.34438646
000090 79 5c 6f 3e 0c 5b a7 be 65 a3 67 bd 8b 18 36 be
       0.2337512 -0.3268665 -0.05655231 -0.177828
0000a0 8f 7e 30 bf 4a c3 ee 3d a9 c0 53 3d c8 47 97 be
       -0.68943113 0.11658342 0.051697407 -0.29546952
0000b0 f8 53 61 3e e8 81 38 bd 25 89 cf 3c 2d f6 72 3b
       0.22004688 -0.045045763 0.02533395 0.0037073002
0000c0 a7 59 0c be 09 06 a8 3d 5a 6f e0 bc 94 0f 03 bd
       -0.13706075 0.08204276 -0.027396847 -0.03199728
0000d0 b9 e7 0f 3e 9b e5 17 bf 7b 7e 6e 3e 48 26 a2 3e
       0.14053239 -0.59334725 0.23290436 0.3166983
0000e0 14 67 a3 bd 2d a3 73 bd bd ca 79 3d 90 f4 09 bd
       -0.07978645 -0.05948179 0.060984362 -0.0336805
0000f0 dd b1 04 bf e6 21 f8 3d 1f c5 01 3d 2b d5 99 3e
       -0.518339 0.121158406 0.03168213 0.30045447
000100 d1 55 cf 3e 6c 4f a9 3e 27 c0 4b 3c 19 47 e2 3d
       0.4049516 0.33068407 0.012435949 0.11048717
000110 7e a4 a4 bd c1 40 05 bc 45 b6 1f bf 2d 52 f4 3d
       -0.08039187 -0.008133114 -0.62387496 0.11929736
000120 f9 f6 53 bf dc 55 16 3d 89 b3 04 bd 84 0f 66 3d
       -0.82798725 0.036702976 -0.03239778 0.05616714
000130 4d fe 16 bf 2a bf 17 be e2 46 2b bf 61 2e 5e 3d
       -0.5898178 -0.14819017 -0.66905034 0.05424345
000140 bd 93 1a be 1c 13 c4 be 88 a9 9a bc c4 4e 27 3d
       -0.1509542 -0.3829583 -0.018879667 0.0408466
000150 7e e8 f9 bd 92 64 17 be aa 17 f1 3d c3 e7 89 3e
       -0.122025475 -0.14784458 0.11772092 0.26934633
000160 82 47 4f bd 01 e5 10 be bb ca a6 be bb be 49 3e
       -0.050605305 -0.14149858 -0.32576546 0.19701664
000170 d0 4a 32 3e ca 35 89 bd e7 74 a6 be 7b d0 aa be
       0.17411351 -0.066997126 -0.32511064 -0.33362183
000180 1c fd 48 3e 0e a8 23 3d eb 5e 07 bf 77 d3 c5 3a
       0.19627804 0.03995519 -0.5287921 0.0015092929
000190 26 ae cb 3c c3 a8 62 3d 87 9f ca bd 8f 5d 0a bd
       0.024863314 0.055336725 -0.09893709 -0.03378063
0001a0 71 93 9b bd 6c af b6 be 6a f9 01 3d b1 8b b5 3d
       -0.075964816 -0.3568071 0.031732 0.08864535
0001b0 63 00 27 3e da 70 18 bd aa dd e9 be 4d 1e 2b bd
       0.16308741 -0.037217 -0.4567693 -0.041776944
0001c0 b5 4b 8e be 98 f2 95 3d be ea 51 3e ac 09 ae be
       -0.27792135 0.07321662 0.20499703 -0.33991754
0001d0 85 5a a0 bd bd 55 0f bd d9 dd a4 3e d3 7d 14 be
       -0.07829765 -0.034993876 0.32200506 -0.14501123
0001e0 e8 20 9f 3e 6b 08 6b 3e 3a be fb 3d 99 28 89 bc
       0.31079793 0.2295243 0.12292142 -0.016742991
0001f0 40 e3 ab bd b9 df a2 3d 77 ef 7a 3d c3 b7 95 3d
       -0.08392954 0.07952828 0.061263528 0.073104404
000200 71 6e 01 bf fe 84 88 3d af 17 8e bd 77 57 03 bf
       -0.50559145 0.06665991 -0.06938111 -0.51305336
000210 2b 96 b7 3c 7f 52 58 bd 3b db 18 be d2 79 11 bf
       0.022410473 -0.05281305 -0.1492738 -0.5682651
000220 b9 1d 17 bd 47 59 08 bc b3 cc cc 3c 3a 83 74 3d
       -0.03689358 -0.008322067 0.024999952 0.05969546
000230 38 c2 86 3e 45 da bf be 86 15 5d bc 95 fa 63 3e
       0.26320052 -0.37471214 -0.013493901 0.22263558
000240 ef 7c cc be b5 e5 a6 be 58 ed 6f bc f2 0d f5 bd
       -0.39939067 -0.32597128 -0.0146439895 -0.119655505
000250 14 9d 26 3e 59 af a8 be 59 99 91 3d b9 28 c6 3d
       0.16270858 -0.3294628 0.07109327 0.09675736
000260 2b cd 6a bc 06 e6 a5 bc 15 12 43 be 88 37 e9 3d
       -0.014331142 -0.020251285 -0.19049866 0.11387545
000270 96 67 36 bd e4 0d b7 bd 7b ad 26 bf 80 f3 a7 3d
       -0.04453238 -0.08938196 -0.6510846 0.08200741
000280 d8 ad 5d 3d 60 57 34 3e dd a0 fa bc ce 50 5a be
       0.05412087 0.17611456 -0.030594284 -0.21319887
000290 58 36 62 bc 29 0e 40 be ef be 25 3d 94 a3 be be
       -0.013806902 -0.18755402 0.04046529 -0.37234175
0002a0 34 93 67 be b6 70 27 3e ed e9 55 be 12 00 1a be
       -0.22614747 0.1635159 -0.20890017 -0.1503909
0002b0 15 cf 9b be 38 d7 35 3e 70 f9 72 3d b8 8b 1f bd
       -0.3043143 0.1775788 0.059319913 -0.038951606
0002c0 21 63 07 3e 8f ae 29 be c2 4c 9c 3d 8b 7d df 3d
       0.13221408 -0.16570495 0.07631828 0.10912617
0002d0 1e 7c 16 bd 3f bd 05 bf 4b 48 10 bf 8a d2 ae 3d
       -0.03673946 -0.5224189 -0.5636031 0.08536251
0002e0 39 d5 75 3d 70 9b 21 3e 2c 27 04 3d 96 73 b9 3d
       0.060017798 0.15781951 0.03226392 0.090552494
0002f0 e4 ad 76 3d 2e c5 d7 be ad f5 22 be e1 70 45 3c
       0.06022443 -0.42142624 -0.1591403 0.012050838
000300 00 ac 37 be 0a f2 75 bc 51 52 80 bd 40 7b b8 be
       -0.17936707 -0.01501132 -0.062657006 -0.36031532
000310 95 d7 67 bc c8 7b 96 3e 34 6c 77 bd 92 27 ab 3c
       -0.01415052 0.29391313 -0.060405925 0.020892892
000320 9b 4b fb 3b e3 80 13 bb 81 11 10 3b 7c 3d 78 be
       0.007668925 -0.0022507242 0.002198309 -0.24242204
000330 11 36 ba 3b 75 3f 31 bd e5 3a 11 3e 4f 71 23 ba
       0.0056827147 -0.043273408 0.14182623 -0.0006234841
000340 07 6a c0 bd 7d a9 da 3d 15 1c 2b 3e d4 8d 10 3e
       -0.09395223 0.106768586 0.16709931 0.14116603
000350 ef fe 46 bd f4 59 85 3e 60 a5 9f bc eb 22 46 3e
       -0.048582967 0.2604519 -0.019488037 0.19349258
000360 a3 1e 54 be c3 1a 41 3d 5f ba 92 3e 64 7c e3 be
       -0.20714812 0.047144663 0.28657815 -0.4443084
000370 84 28 15 bd af c6 70 bc c9 40 ae bb f4 08 15 bd
       -0.03641559 -0.014695807 -0.0053177816 -0.03638549
000380 b9 7e aa bd e7 06 1c 3e 9e 09 11 3e 16 c0 05 bf
       -0.08324952 0.15237008 0.14163825 -0.52246225
000390 2e 68 37 3e e1 59 f4 3d be be 9c bd 31 75 89 bd
       0.17910835 0.119312055 -0.07653569 -0.067118056
0003a0 89 34 33 be f3 53 93 3d 17 57 8b be 7c 4f 7e bd
       -0.1750051 0.071937464 -0.27214882 -0.06208752
0003b0 fc 7d b5 3b 01 1d 70 be bd f8 72 be 24 65 5f bd
       0.0055387 -0.23448564 -0.23727699 -0.054539815
0003c0 5a 23 c3 bd b9 7d b7 bd e9 8e a2 3e e8 62 52 bc
       -0.09528227 -0.089595266 0.31749657 -0.012840964
0003d0 98 9a 8f bd 96 65 ed be e7 2c e6 bc 6f 60 8c 3d
       -0.07011908 -0.46366566 -0.028097583 0.06854331
0003e0 99 f0 01 3c 0e cd ed bd b0 8f 2d 3c 70 49 37 be
       0.007930898 -0.11611377 0.01059334 -0.17899108
0003f0 af 1d b5 3d 13 f7 21 3e 91 6b 6f 3d ed ed 74 bb
       0.08843552 0.15816908 0.058452193 -0.003737326

weight f4 [256, 256]
000000 9f 10 a2 bd 53 e0 e9 3d 3b f0 76 be 4a f7 ca bd
       -0.079133265 0.114197396 -0.24115078 -0.09910448
000010 ab 93 2f be 87 31 19 be e3 49 a2 3d 85 bc 14 3e
       -0.17146175 -0.149603 0.07924249 0.1452504
000020 a6 ee 07 be 16 8d 9a bd ca 31 3e be 9d 2e b0 bd
       -0.13274631 -0.07546441 -0.1857368 -0.08602641
000030 6e 88 f0 bd d5 5a 96 bd 47 cd e7 bd 96 40 4f 3e
       -0.11744772 -0.073415436 -0.113184504 0.20239481
000040 61 15 a9 bd 0a 3a 80 bc 7a 06 a1 3d 2d 3e 45 bd
       -0.08256031 -0.015652675 0.078625634 -0.048155
000050 a1 09 99 bc c9 c8 06 bd 59 a5 94 3e 9c 1f 49 3e
       -0.01868135 -0.032906327 0.290324 0.19640964
000060 7e de c3 bd b7 d3 6e be 5f 2a 1a 3c f6 e9 4a be
       -0.095639214 -0.2332295 0.009409516 -0.19815812
000070 b3 dc 7c 3e 84 64 35 be 7c e1 d6 3d c2 0e 5a bd
       0.24693565 -0.17714125 0.104922265 -0.05323673
000080 6d c9 79 be 89 a7 d3 3d 27 61 2a 3e c1 5a f9 3a
       -0.24393244 0.10334689 0.16638623 0.0019024239
000090 a2 a0 c9 be 34 e9 1c bd 70 bf 76 3e ee bf a8 39
       -0.39380366 -0.038308337 0.24096465 0.00032186456
0000a0 5a 29 95 3d 9d 03 0d be 04 2a 28 bd b0 e3 a7 bd
       0.07283278 -0.1377091 -0.041055694 -0.08197725
0000b0 ea f8 de 3d c4 d9 a2 bd e0 a3 57 3e 4c 61 33 3e
       0.1088732 -0.07951692 0.21058607 0.17517585
0000c0 28 97 38 be f8 bd 7b be 4b 4d bc bd 98 c4 15 be
       -0.18026412 -0.24584186 -0.0919443 -0.14625776
0000d0 e2 d5 21 be a1 ed f9 3d 7f 43 0e be d4 fc 6e be
       -0.15804246 0.12203527 -0.13892935 -0.23338634
0000e0 4d 9d 23 be 84 95 26 be 7a b4 bb 3d d0 d5 a3 be
       -0.15977974 -0.16267973 0.091652825 -0.31999063
0000f0 5f e0 9b 3d 58 1d c6 be 0e ea e3 bd b7 9f ee bd
       0.07611155 -0.38694263 -0.11128627 -0.11651557
000100 fa 2a 2c 3e b1 17 0c bd 39 8a 24 3d 0f a6 5f be
       0.1681327 -0.03420228 0.040170882 -0.2184069
000110 cf e6 a9 bc a3 99 41 3d 62 92 71 3e 14 a1 61 bd
       -0.02073994 0.04726566 0.23590997 -0.055085257
000120 43 19 93 3e df 3d dc bd 15 aa 85 bd e3 8c 29 be
       0.2873021 -0.107539885 -0.06526581 -0.1655765
000130 f4 cd 47 be 90 b3 da 3d da 8e ec 3d ff 09 5d be
       -0.19512159 0.1067878 0.11550684 -0.21585844
000140 81 b2 73 be db 1a 9e bd c4 bf b9 bd db cd a0 be
       -0.23798563 -0.07719966 -0.090697795 -0.31407055
000150 8b 70 26 bd bb a5 b0 3e ed b2 01 3e 74 ab bc be
       -0.040634673 0.34501442 0.12665911 -0.36849558
000160 d6 81 d3 3d de 65 33 be 49 88 18 be 00 8b 61 be
       0.103274986 -0.17519328 -0.14895739 -0.2202568
000170 81 2b 4b be 12 f5 00 be 3f 37 a3 bb 03 00 93 3d
       -0.19840814 -0.12593487 -0.004980951 0.071777366
000180 a0 a2 03 be 8a 66 13 be 59 77 8b 3e c3 0c 60 3e
       -0.12855005 -0.14394584 0.27239493 0.21879868
000190 4a 11 a7 3d 18 a6 37 be 94 7d 26 be 51 ae de bd
       0.081575945 -0.17934453 -0.16258842 -0.10873092
0001a0 e3 7e 9c be c1 e7 ed b9 97 6c c9 be 32 1c db bd
       -0.30565557 -0.00045376833 -0.3934066 -0.10698737
0001b0 3f 71 8b be f6 2e 5c be 9d a5 69 3d 24 fe 37 bd
       -0.27234837 -0.21502289 0.057042707 -0.0449201
0001c0 e4 e4 d9 bd 07 71 1b be ae 35 cd 3d e6 7c c5 bd
       -0.106393605 -0.15179835 0.10020004 -0.09642963
0001d0 4e bd 1c be 4a 5b 87 bd a2 68 31 3d 94 f9 1b be
       -0.15306589 -0.06609209 0.043312676 -0.15231925
0001e0 f0 94 2a bd ae 11 0d 3e c6 c1 48 be eb ec 68 bc
       -0.041645944 0.13776276 -0.19605169 -0.014216642
0001f0 f5 9c 7c be 0a 21 8d bd 14 7f 31 be a8 00 d7 be
       -0.2466925 -0.06891067 -0.17333633 -0.41992688
000200 1e 80 98 3e 2f 4a 07 be e5 08 cd be 05 1a 86 be
       0.29785246 -0.13211893 -0.40045848 -0.26191726
000210 86 f1 6b 3d 55 62 0e 3e 54 f0 67 be f8 5c 5a 3e
       0.05760338 0.13904698 -0.22650272 0.21324527
000220 63 da 15 be 16 e2 2e 3e 99 c7 a2 be 7e 6d 80 bd
       -0.14634089 0.17078432 -0.31792906 -0.06270884
000230 0b 35 df bd ad e2 97 bd 92 1a 03 bc 9c c7 40 be
       -0.10898789 -0.07416282 -0.00800194 -0.18826145
000240 be c4 97 bc 96 63 c6 bd b2 67 17 be 68 f7 21 3d
       -0.018526431 -0.09686963 -0.1478565 0.039542586
000250 06 ef 7b 3c 16 9d 8c bd 95 1c c6 bd de 72 b6 bd
       0.015376812 -0.06865899 -0.0967342 -0.08908628
000260 8b c8 e7 bd 5c 15 65 be 6c 3e 1e bd d0 37 78 3d
       -0.113175474 -0.22371429 -0.03863375 0.060600102
000270 89 e4 dd 3d da fe 0f 3e fa f3 a1 bb ab 4b 13 be
       0.10834605 0.14062062 -0.0049424144 -0.14384334
000280 ae 82 76 bd 45 3c 2f be f2 d1 21 be 32 cc 79 3e
       -0.06018322 -0.17112835 -0.15802744 0.243943
000290 ab b6 c2 bd 4a bd 64 be 84 d3 24 be 67 75 82 3d
       -0.095074974 -0.22337833 -0.16096312 0.06370049
0002a0 b0 fe 84 3e 5f 49 a1 be 89 c2 51 be 8e 85 7c 3d
       0.2597556 -0.3150129 -0.20484366 0.061650805
0002b0 a8 e3 28 3e 06 c3 1a be 5b b2 8b be 78 0b ab 3e
       0.16493094 -0.15113458 -0.27284512 0.33407187
0002c0 64 89 43 3c ac 0b 6a 3d 2d 24 24 be 2e c9 ca 3b
       0.011934612 0.057140037 -0.16029425 0.0061885333
0002d0 00 16 d1 3d c4 d3 2c be 73 0e 24 3e d4 10 02 be
       0.10209274 -0.16877657 0.16021137 -0.12701732
0002e0 76 5f 6d bd 3a b9 89 be f7 89 be 3d 02 c7 21 3e
       -0.057952367 -0.2689913 0.093036585 0.15798572
0002f0 37 33 a6 be cb ec a5 3d b4 50 0f be 8e eb 3a 3c
       -0.3246095 0.08101805 -0.1399563 0.0114087
000300 7d 75 f3 bd 7c ad bc 3d d8 75 bf 3b 06 f5 57 bb
       -0.118876435 0.09212777 0.0058429055 -0.0032952442
000310 25 5a 7b 3c 16 25 15 bd e6 f4 1c be 67 57 00 be
       0.015341316 -0.03641232 -0.15327796 -0.12533341
000320 ca 2e a9 bd 2c cf 78 bd eb d0 0e 3e 47 34 8e 3e
       -0.082608774 -0.06074445 0.13946883 0.2777426
000330 04 cb 1c be 84 00 8b be 7e 8d fb bd 47 d6 ee 3d
       -0.1531182 -0.2714883 -0.12282847 0.11661964
000340 db 56 7c be 63 8b 5c 3e 28 a1 83 3d d4 6e 44 3d
       -0.24642508 0.21537547 0.064272225 0.047957256
000350 b2 e3 fa bd c7 19 22 be 38 2d f4 3c 0f 38 04 be
       -0.12250461 -0.15830146 0.029806718 -0.1291201
000360 5f 6c 3a be 85 af 1e be 08 0a ca bd 9d 44 54 3d
       -0.18205403 -0.15496643 -0.098651946 0.051823247
000370 e6 1f 07 bd 9d 11 4a 3d 4a 8a 07 3e 8b 84 6e be
       -0.032989405 0.049333204 0.13236347 -0.23292749
000380 da ef 6a bc e2 8f 51 bd da 47 b2 bd 11 23 9b 3d
       -0.014339412 -0.051162608 -0.08705111 0.07575048
000390 52 17 4c 3c b0 e1 46 be 26 7b e6 3d 41 2e f5 3d
       0.012456732 -0.1942203 0.112539575 0.11971713
0003a0 3a 93 24 be b7 84 c6 bd e6 3a f2 3e 68 4a 96 3d
       -0.16071787 -0.09693282 0.4731056 0.073384106
0003b0 11 a9 81 3c 37 58 0c 3e 5f 36 90 be 93 41 1f be
       0.015827687 0.13705526 -0.28166482 -0.15552358
0003c0 23 e6 02 be 27 1c 74 bd b5 0d 6c be 8e 2f a3 3d
       -0.12783103 -0.05959716 -0.23052104 0.07968055
0003d0 41 97 d6 3d fd 22 1d 3e d7 dc fd 3d 6c 21 73 be
       0.10478068 0.15345378 0.123956375 -0.23743218
0003e0 02 10 8f be bd a0 53 be 92 66 84 bd 6a 19 75 be
       -0.279419 -0.20666786 -0.06464876 -0.23935476
0003f0 05 ff 0e 3e 42 75 0a be 9f 55 24 be 57 8c a9 3e
       0.1396447 -0.13521293 -0.16048287 0.33114883

bias f4 [256]
000000 c2 5e 91 be 8b a5 94 be 22 c7 82 bf 7e f1 60 bd
       -0.28392607 -0.2903255 -1.021702 -0.054917805
000010 41 83 19 bd 46 8d f5 be 79 14 5c bf 7d 39 3a be
       -0.03747869 -0.47959346 -0.8596874 -0.18185993
000020 b3 2e 84 be 42 56 d2 be bd cd 29 3e de 40 a7 be
       -0.2581688 -0.41081434 0.16582389 -0.32666677
000030 b0 f4 89 bf 37 4d ef be 11 33 83 bf c8 a9 40 bf
       -1.0777798 -0.46738598 -1.0249959 -0.75259066
000040 61 21 c3 bd df 4b 40 be b5 1a 80 bf b1 13 8a 3d
       -0.09527851 -0.18778943 -1.000815 0.06742037
000050 c2 b0 e5 bd 64 73 7a be fe 73 b6 be 9b ed 92 3e
       -0.112153545 -0.2445808 -0.3563537 0.28696904
000060 56 d8 c1 bd 22 53 cf bc 8e a2 7b bd d4 f8 d9 be
       -0.09465091 -0.025308196 -0.06143432 -0.42572653
000070 60 32 b9 be 41 c2 b6 be 02 4f 85 be 0a 25 af be
       -0.36171246 -0.3569508 -0.2603684 -0.34207946
000080 7a 38 0c be d8 09 e4 39 76 07 e1 be 45 5f 0f be
       -0.13693419 0.00043494883 -0.43951005 -0.14001186
000090 14 e0 39 bd 28 5e 2e bd 4e 86 76 bf 8d 55 7a be
       -0.045379713 -0.042570263 -0.9629868 -0.24446698
0000a0 a9 1d b5 be fc 31 f9 be 69 b4 6f bf 66 08 ad be
       -0.3537419 -0.48670948 -0.9363466 -0.3379547
0000b0 07 9c 3b bd 1c bb 74 bd 23 71 78 bd fc 21 76 bf
       -0.045803096 -0.059748754 -0.06065477 -0.96145606
0000c0 95 31 4a bf 49 01 4f bf d6 cc ac 3b e3 05 0b bf
       -0.78981906 -0.80861336 0.005273442 -0.5430586
0000d0 2a b6 b9 be e8 c4 ac be 2c 5b 75 be aa b5 c6 be
       -0.36271793 -0.33743978 -0.2396056 -0.38810474
0000e0 91 2e bb be 08 30 df be 10 a5 58 be 6d 8b 23 bf
       -0.36558965 -0.43591332 -0.21156716 -0.6388462
0000f0 db 31 c1 be ee 2e 84 bf dd 97 59 bf 59 3d 7b bd
       -0.3773335 -1.0326822 -0.8499735 -0.061337803
000100 33 6d 37 bf 39 f1 90 be 19 e6 ba be 32 da 6f be
       -0.71651 -0.28309038 -0.36503676 -0.23423079
000110 c0 a5 03 bf fd 68 c5 bd c2 d2 7a bf 3c 62 c0 be
       -0.5142479 -0.096391656 -0.9797784 -0.37574947
000120 40 ed 19 bf e9 ba 1a be ac 2d 59 bd 25 09 8a be
       -0.6012764 -0.15110363 -0.05302207 -0.26960102
000130 34 3e dd bd 71 a8 68 be 90 22 85 bf 96 cb 35 bf
       -0.1080288 -0.22720505 -1.0401173 -0.7101377
000140 3d 5e 0d bd cf d5 02 bf 7b 79 7f bf 15 b1 05 be
       -0.0345137 -0.51107496 -0.9979474 -0.13055833
000150 40 86 4e bf a2 39 83 bf be 0c f0 be 3c 17 f9 be
       -0.806736 -1.0251963 -0.46884722 -0.4865054
000160 2e 3e 57 bf 18 ab a9 be da 3f 1e be 42 39 b0 be
       -0.84079254 -0.33138347 -0.15454045 -0.34418684
000170 64 00 6f bf 1b b7 d6 bd f0 6f 29 be af cc b8 bc
       -0.9335997 -0.10484143 -0.16546607 -0.022558538
000180 47 2a ab be 2a 3a 64 bf 56 32 fa bd a0 cc 92 bd
       -0.33430693 -0.8915125 -0.12216632 -0.07167935
000190 5d 16 1e bf 2a 12 00 bf a1 40 8d bf 33 7f 25 be
       -0.61752874 -0.50027716 -1.1035348 -0.16161804
0001a0 83 36 58 bf 75 b8 d6 be 6e b3 ba bd 35 56 e7 bd
       -0.8445818 -0.41937605 -0.09116255 -0.112957396
0001b0 34 0b 56 be 48 21 2c bd b2 b7 55 bf 93 a3 b6 bd
       -0.20902711 -0.042023927 -0.8348342 -0.08917918
0001c0 b0 8e e4 be f9 ba c6 bd 99 6c 45 be d2 f1 2d be
       -0.44640112 -0.09703631 -0.19279708 -0.16986778
0001d0 86 c6 1d bf a5 fd 79 bf 3f 29 31 be 04 c1 93 be
       -0.6163105 -0.97652656 -0.1730089 -0.28858197
0001e0 12 57 45 bf 5c 6a 43 be ab a9 ce be 23 43 55 bf
       -0.77085984 -0.19083542 -0.4036382 -0.8330557
0001f0 be 02 e4 bd 58 42 8d bd 7b a7 86 be de f2 19 bf
       -0.111333355 -0.0689742 -0.26299652 -0.6013621
000200 90 e6 2c be 3f b8 76 be 3b 8c 7a bf 46 79 c8 be
       -0.16884828 -0.24093722 -0.97870225 -0.39155024
000210 62 30 4a be be 9f e0 bd 96 a8 5e bf 68 79 e0 be
       -0.19745019 -0.109679684 -0.8697599 -0.43842626
000220 26 45 ab be ba b6 88 bd a4 3f 09 bf f7 27 80 be
       -0.33451194 -0.06675477 -0.5361273 -0.2503049
000230 bd 8e 8f bf cf 9a 9a bf f5 6f fd bd 25 9d 40 be
       -1.1215435 -1.2078494 -0.1237487 -0.18809946
000240 8b 94 68 bf c8 46 25 be 50 6f 81 bf d8 0b 80 bd
       -0.9085166 -0.16140282 -1.0112095 -0.06252259
000250 f2 16 d3 be 35 1b 97 be a2 31 90 bd d9 3d bd bd
       -0.41228443 -0.29512945 -0.07040717 -0.09240312
000260 3d 1e 23 bf 46 67 1b be aa a7 29 be 14 2a 73 bf
       -0.63718015 -0.15176114 -0.16567865 -0.9498608
000270 7e 6e 02 bf 85 fe 64 bf 8a 17 0d bd 7b 79 de 3c
       -0.5094985 -0.89450866 -0.034446277 0.027157536
000280 83 c6 05 bf 0b 64 52 bf cb 46 be bd 94 d4 5a bf
       -0.5225603 -0.82183903 -0.092908464 -0.8548062
000290 d2 36 6c bf 0d fd 0f be 7f 9a 36 be 27 09 82 be
       -0.9227115 -0.14061375 -0.17832373 -0.25397608
0002a0 57 79 be bc 5d fa 62 be ee 10 7a bf 12 22 6d be
       -0.023251219 -0.22165819 -0.9768208 -0.23157528
0002b0 ba 82 8a 3c 2a 62 b4 bd f4 36 18 bf 6a 0b b1 bd
       0.016908038 -0.08807786 -0.5945885 -0.08644755
0002c0 de 9f 5c bf e0 e0 28 bf a0 05 54 bf 32 0f f7 be
       -0.8618144 -0.6596813 -0.82821083 -0.4825378
0002d0 7a 0b 3d bf bf 8d aa be 1e a5 75 bf a9 7e 34 bd
       -0.73845637 -0.3331127 -0.95955074 -0.044066105
0002e0 97 84 a5 3c bd 0e 89 be 50 db 8c bd 3d 94 11 bf
       0.020204825 -0.26769057 -0.06877768 -0.5686682
0002f0 f7 e2 be 3c 95 a8 ca bc e8 ac 87 bf 94 e7 2c be
       0.023301585 -0.02473859 -1.0599642 -0.16885215
000300 8c 47 1a be 3b 4f 69 bf 3d 2b 0c be d1 41 0c bf
       -0.15066355 -0.9113652 -0.13688369 -0.5478793
000310 00 af fe be 7a 05 78 bf cf 64 02 bf 0e 4c d2 bd
       -0.4974289 -0.96883357 -0.5093507 -0.102684125
000320 cb 4b 7f be 90 2d 7d bf 0f 5a 8b be 2e 68 d3 bd
       -0.24931256 -0.9889765 -0.27217147 -0.10322605
000330 c2 0a 81 be b8 03 84 bc 0f bd 53 bf 6a 13 7b bd
       -0.2520352 -0.016115054 -0.82710356 -0.06129781
000340 15 fa 65 bf dc ca 54 bf 92 a5 9a bd c3 68 d6 be
       -0.8983472 -0.8312204 -0.07551111 -0.41876802
000350 72 98 05 be a5 20 b6 bd 41 05 ac be 06 69 a9 be
       -0.13046435 -0.08892945 -0.33597758 -0.3308794
000360 1d 91 ad be e6 27 a9 be 02 ff 09 be e8 0f 22 bf
       -0.33899775 -0.33038253 -0.13476184 -0.6330552
000370 6b 07 f9 be f7 58 80 bf ab 86 f8 be 1c bf 84 bd
       -0.48638472 -1.002715 -0.48540244 -0.06481764
000380 a1 83 58 bf ed 32 99 be 78 91 a1 bd 57 76 0f bf
       -0.8457585 -0.29921666 -0.07889074 -0.5603995
000390 09 b9 e1 bc 93 cc 9f be 8f 29 0e 3d 10 dd f8 be
       -0.027554052 -0.31210765 0.034707602 -0.48606157
0003a0 e0 eb 6c bf 0d 05 0e bf 1a 93 84 bf 96 7e 80 bf
       -0.92547417 -0.55476457 -1.0357392 -1.0038631
0003b0 be 64 74 bf f6 64 da bd 75 0b 5a bd 1d b4 44 bf
       -0.9546622 -0.10663788 -0.053233583 -0.7683733
0003c0 fe 07 0f bd c9 e6 48 bd 88 17 8e be 80 2a 22 bf
       -0.03491973 -0.04904822 -0.27752328 -0.633461
0003d0 93 92 5b bf 8d a6 ed be 9a e4 b5 bd db b8 48 be
       -0.8577053 -0.4641613 -0.08881493 -0.19601767
0003e0 02 89 69 bd 6b 82 16 bf 1b 31 a9 be 83 a9 5b be
       -0.057015426 -0.5879275 -0.33045277 -0.21451382
0003f0 14 e0 dd be f8 29 3b bd b5 e6 d1 be c4 1e 2d bf
       -0.4333502 -0.04569432 -0.40996328 -0.6762507

weight f4 [256, 256]
000000 22 8c c3 bc 3a 6a 9c 3d f0 6f 3d 3e fa 6f f5 3c
       -0.023870531 0.076374486 0.18499732 0.029960621
000010 65 31 6e bd 7b f1 d4 3d 92 1b 82 3e 23 3c 84 bd
       -0.058152575 0.10397621 0.2541166 -0.06456783
000020 b0 38 92 3e aa d2 6b 3e 26 0b ee bd 49 28 fa 3d
       0.28558874 0.2302958 -0.1162322 0.12214715
000030 cf 7d 73 3e 1e 57 c6 3d ec 8f 8b 3e f3 c1 a0 3e
       0.23778461 0.09684585 0.2725824 0.31397972
000040 01 f7 f2 bd a0 d4 85 3d b6 5e 8a 3e 17 7b 1d be
       -0.118635185 0.065346956 0.27025384 -0.15378986
000050 a6 2e 36 3d 73 fa 8d 3d 7a 73 f9 3d 47 bc 04 bd
       0.04447808 0.06932535 0.121802285 -0.032406118
000060 a8 11 22 bd 8f 95 25 bc ca 62 52 3e 7e ca 10 3e
       -0.03956762 -0.010106458 0.20545498 0.14139745
000070 f3 c5 0e 3e 44 26 ab 3d dc d8 0a be 8d 56 21 3d
       0.13942699 0.08356908 -0.13559288 0.039389182
000080 1f 62 c1 3d e2 88 40 be 4b b6 cd bd a0 bd d5 3b
       0.09442543 -0.18802217 -0.10044535 0.006522849
000090 fe 78 c7 3d ac de 93 3d c8 4c 84 3e 92 9e 4c bb
       0.09739874 0.07220206 0.2583983 -0.0031222445
0000a0 a2 37 38 bd 99 b5 a4 3d 48 2f b4 3e 97 b0 ce 3d
       -0.04497493 0.080424495 0.35192323 0.100922756
0000b0 ad 7d 8e 3d 58 a8 e0 3c 34 67 37 3d ce f0 3e 3e
       0.069575645 0.027424023 0.044776157 0.18646547
0000c0 66 32 c4 3b f5 e8 4e 3c 14 55 36 3d 37 00 e7 3b
       0.0059874533 0.0126287835 0.04451473 0.007049586
0000d0 1e 54 3d 3d c9 8f 27 3d ec 30 07 3e aa 12 29 bc
       0.0462228 0.04090861 0.13202256 -0.010319391
0000e0 1a 49 a3 3c d7 40 9d bd b3 03 f9 3c 51 d8 46 3e
       0.019932318 -0.07678383 0.030397272 0.19418456
0000f0 fe f4 c5 bb b5 a9 90 3e 54 d0 ad 3e 89 e5 09 be
       -0.0060411682 0.28254476 0.33948004 -0.13466467
000100 06 25 7e 3e e6 2b 6c 3d a4 d7 32 3e 2b ad f0 3c
       0.24818811 0.057659052 0.17465073 0.029379448
000110 48 1d 81 3d 3d 69 7a 3d 73 a6 7e 3e 83 7d 74 3d
       0.06304413 0.06113552 0.24868183 0.05969001
000120 60 75 30 3e 60 01 2f bd 3f 61 b2 bd a6 01 0a be
       0.17232275 -0.04272592 -0.087099545 -0.13477191
000130 21 5e e8 bb 48 c1 22 3e 90 19 18 3e a4 bd aa 3e
       -0.007091299 0.15894043 0.14853501 0.3334781
000140 96 d5 b2 3c f1 b3 34 bd 45 ac 8a 3e 43 ee 6a 3c
       0.021830361 -0.044116918 0.27084556 0.014339033
000150 5e 11 72 3e 8b 5b a6 3e 40 12 3f 3e a2 16 c5 3d
       0.23639438 0.32491717 0.18659306 0.096234575
000160 7a c8 00 3e 44 ef 60 3c 23 f7 70 bd 38 b8 73 bd
       0.12576476 0.01372892 -0.058829438 -0.059501857
000170 ae 1c 82 3e b7 18 3e 3d 2d b1 c0 bd b1 04 b0 bd
       0.25412506 0.04641029 -0.094087936 -0.08594645
000180 48 61 c4 bd b2 78 b9 3e 15 63 ba 3d 69 26 92 bd
       -0.095888674 0.36224896 0.0910093 -0.071362324
000190 66 1f 35 3e a5 78 f8 3d 4e 4f a2 3e 9b 7f 37 bd
       0.17687759 0.12132386 0.3170113 -0.04479943
0001a0 e8 a1 72 3e 6f 12 38 3d 4f 14 35 bd 11 78 04 3e
       0.23694575 0.044939455 -0.04420882 0.12936427
0001b0 fa a0 a4 bd 1e 7a 83 bc ae da 88 3e 23 97 49 3b
       -0.08038516 -0.016049441 0.2672934 0.003076025
0001c0 c7 63 f3 3d 74 2f 0d 3c 2d d1 b8 bc 9f ca 7b bd
       0.118842654 0.008617271 -0.02256068 -0.06147253
0001d0 a6 d6 f2 bd 49 2a 84 3e 6a 00 eb bd f6 29 e6 3d
       -0.11857347 0.2581351 -0.11474688 0.11238472
0001e0 0b b0 a9 3e ad 25 3f 3c 62 8b ed 3d b7 70 5a 3e
       0.33142123 0.011666697 0.11598851 0.2133206
0001f0 12 ea 06 3d 89 c4 e5 bb 8e 81 32 3d 0c c0 fc 3d
       0.03293807 -0.007011954 0.043580584 0.123413175
000200 83 a1 4d bd 87 4b 09 bd db 00 a4 3e 1b 22 59 bd
       -0.050202858 -0.033519294 0.32031903 -0.05301104
000210 38 b5 1e bd ec aa 87 3c 35 f2 88 3e a2 b8 de 3d
       -0.038747042 0.016560994 0.2674729 0.1087506
000220 a5 6c 8d 3c 67 83 71 bd 6f 5d 87 bc b3 21 dc bc
       0.01726372 -0.058963206 -0.016524045 -0.026871538
000230 b6 9e 7a 3e ba f8 9e 3e 6d a4 32 3e c7 8d 4d bd
       0.24474606 0.31049138 0.17445536 -0.050184038
000240 95 63 90 3e 6a 41 53 bb a4 01 aa 3e cb 6d dc bc
       0.28200975 -0.0032235035 0.33204377 -0.026907822
000250 4a 44 61 bd 40 fb 0c bd 92 ac 33 bd f5 08 72 3c
       -0.054996766 -0.0344193 -0.043865748 0.014772643
000260 74 9b 1f b9 46 df 83 bd eb 10 02 3d 7c 10 af 3e
       -0.00015221332 -0.064390704 0.031754415 0.34192264
000270 78 fd 26 3d de 19 83 3e 2b e7 ab 3d 9e 82 5c bd
       0.04076907 0.25605673 0.08393701 -0.053835504
000280 f7 87 11 3e ea ff b0 3e 41 4a c3 bd ce fc 83 3e
       0.14212023 0.34570247 -0.09535647 0.25778812
000290 0d 80 8b 3e ac f9 63 3e 5b 89 e2 3c 6c 8e c8 bd
       0.27246132 0.22263211 0.027653387 -0.0979279
0002a0 99 ef 82 3c 5a 72 30 3d 5f e8 78 3e 00 c7 47 bc
       0.01598339 0.043077804 0.24307393 -0.012193441
0002b0 12 b1 ac 3d 7a bb 8b bd 3b d5 9f 3d df 6f ba 3d
       0.08432211 -0.06822868 0.07804342 0.09103369
0002c0 5e e5 ac 3e 9b ef da 3d c4 e7 b2 3e c4 aa 54 3d
       0.33768743 0.10690232 0.34942448 0.051920667
0002d0 8f 27 b4 3e 47 75 dc 3d e6 92 8e 3e 6c 26 33 3d
       0.3518643 0.107645564 0.2784645 0.043737814
0002e0 61 3f 12 be 5c 96 af bd d6 95 dc 3c 12 0f 2c 3e
       -0.1428199 -0.08573601 0.026926916 0.16802624
0002f0 ea 1c 05 bd d1 b8 78 bd 9e 97 7c 3e 25 51 43 bd
       -0.032498278 -0.06072313 0.24667212 -0.047684807
000300 35 6d a5 3d c4 36 8a 3e 24 69 17 3e 03 5f 7b 3d
       0.0807747 0.26994908 0.14786202 0.061369907
000310 94 1e 41 3e 4e 85 b5 3e 95 54 a6 3d a5 b0 a5 bd
       0.18859321 0.35453266 0.081216015 -0.08090333
000320 d4 44 c3 3d 23 95 91 3e 2a 5e a3 bd 0c a7 97 3c
       0.09534612 0.28434095 -0.07976945 0.018512271
000330 a5 76 31 bd e7 dd a4 3b 8b 13 88 3e e7 04 46 be
       -0.04332604 0.0050313356 0.2657741 -0.19337808
000340 1a 7f 81 3e fa b5 72 3d f2 35 c6 bd 8a 6a a1 3d
       0.25292283 0.059255578 -0.09678258 0.07881649
000350 99 a2 23 3e 60 e8 31 3d 6b e7 6e 3d 3a c5 22 3e
       0.15979995 0.0434345 0.058326166 0.15895548
000360 35 94 e8 3d b8 4a 52 bb 9a 7d 9c bb 60 77 6e 3e
       0.11356393 -0.0032087993 -0.004775715 0.23287725
000370 34 ce be 3d e9 6d a8 3e c0 fc 24 3e 7e ec c2 bd
       0.09316674 0.32896355 0.16112041 -0.095177636
000380 b1 76 8a 3e ad a3 24 3d 30 14 de 3c 96 d5 31 3e
       0.2704368 0.040195156 0.027109236 0.17366633
000390 5d 5f 54 bc 57 45 02 3e e7 75 c7 ba be 0c 46 3e
       -0.0129621895 0.12721764 -0.0015217633 0.19340798
0003a0 d1 5c 89 3e 08 5e 1d 3e 83 2c 85 3e 46 50 b0 3e
       0.26828626 0.15367901 0.26010522 0.34436244
0003b0 7a 9a b1 3e 15 3a 31 be 23 8c ba 3d 13 54 5d 3e
       0.3468817 -0.17307313 0.0910876 0.21614103
0003c0 9b 6f f4 bb 0f 06 9b 3d 68 29 9e bd 9e 04 36 3d
       -0.0074595935 0.07569515 -0.07722741 0.044437997
0003d0 17 41 e3 3d c9 41 9d 3d 86 d0 a5 bc 98 53 af bd
       0.11096399 0.07678563 -0.020241033 -0.08560866
0003e0 44 89 84 3b 05 2c b2 3d 0b e9 66 3d 64 7d b5 3d
       0.0040446837 0.08699802 0.05637459 0.08861807
0003f0 be 9e bf 3c 14 b9 36 3e 1a 5c 0f 3e 96 e1 f7 3d
       0.023391124 0.17844039 0.13999978 0.12103574
