net11.pkl (torch_old, 801611 bytes, 10 tensors)

weight f4 [256, 3]
0	0xbe5bac42	-0.2145243
1	0x3dd72ffa	0.10507198
2	0x3e0343ef	0.12818883
3	0xbeb909f7	-0.36140415
4	0xbe8b6d4d	-0.27231827
5	0x3e06af74	0.13152868
6	0x3ed1b6ba	0.40959722
7	0x3e8ba44e	0.27273792
8	0xbf6e81cf	-0.9316682
9	0xbeeeaa88	-0.4661448
10	0xbea61765	-0.32439724
11	0xbeeb60db	-0.45972332
12	0x3de8c818	0.1136629
13	0xbed07a7e	-0.40718454
14	0x3f070c3a	0.5275303
15	0xbe911001	-0.28332523
16	0x3e3c1d70	0.18370605
17	0x3f0a8391	0.54107004
18	0xbeb1d115	-0.3472983
19	0xbda6bac8	-0.081410944
20	0xbeb9696b	-0.3621324
21	0x3d9ce255	0.07660357
22	0xbf3aebe5	-0.73016196
23	0x3d2e6a67	0.042581942
24	0xbf008413	-0.5020153
25	0xbebb633b	-0.36599144
26	0xbddf31b8	-0.10898155
27	0x3d844ee8	0.06460363
28	0xbcd62560	-0.026140869
29	0xbe60391a	-0.21896783
30	0x3e82ef1c	0.2557305
31	0xbe766dfa	-0.2406539
32	0x3e951582	0.29117972
33	0xbdbc1e51	-0.0918547
34	0xbdbd698e	-0.092486486
35	0xbe1d541f	-0.15364121
36	0x3e8a849e	0.27054304
37	0x3de701ed	0.11279664
38	0x3f35b3fa	0.7097775
39	0x3e70b029	0.235047
40	0x3f30e2bd	0.69095975
41	0xbf2587c6	-0.646603
42	0x3e93d2d6	0.28871793
43	0x3ea73358	0.3265636
44	0xbf088fda	-0.533445
45	0x3e8a78de	0.2704534
46	0xbf1a523c	-0.6028173
47	0x3d334909	0.043770824
48	0x3ec83c0f	0.3910832
49	0xbf7d2225	-0.98880225
50	0x3e7ef4e5	0.24898107
51	0xbed64914	-0.4185263
52	0xbf0f47dc	-0.55969024
53	0x3d30189f	0.04299223
54	0xbea89eee	-0.32933754
55	0xbf2f327d	-0.68436414
56	0x3e317701	0.17330553
57	0xbebae442	-0.36502272
58	0x3e84477b	0.25835785
59	0xbd8c6359	-0.068548866
60	0x3f418e75	0.75608
61	0xbf37b342	-0.717579
62	0xbec69c64	-0.38791192
63	0x3e217d10	0.15770364
64	0xbcf9e1e0	-0.030503213
65	0xbee01b5a	-0.43770868
66	0xbf136172	-0.57570565
67	0x3dbb8800	0.09156799
68	0xbf0c00a0	-0.54688454
69	0x3e01f2f6	0.12690338
70	0xbf6e6aba	-0.931316
71	0x3d62362c	0.055227444
72	0x3e5c141e	0.21492049
73	0x3e043dba	0.12914172
74	0x3e827a1e	0.25483793
75	0xbe33d0f2	-0.17560175
76	0xbe9d22b5	-0.30690542
77	0xbe7fc4fc	-0.24977487
78	0xbe27ab7c	-0.1637401
79	0xbd49d300	-0.04927349
80	0xbed8734a	-0.4227546
81	0xbf1334d8	-0.5750251
82	0xbe1e9075	-0.15484793
83	0x3dbb19ae	0.091357574
84	0xbef5c48a	-0.4800151
85	0xbb2ac500	-0.0026057363
86	0xbe857fbe	-0.26074022
87	0x3e17d60c	0.14827746
88	0xbda1f994	-0.079089314
89	0xbeda9ab2	-0.42696148
90	0xbe96eb4a	-0.29476386
91	0x3c97c0cb	0.018524548
92	0xbde16778	-0.11006063
93	0xbe0f89e1	-0.1401744
94	0x3f0c8f1a	0.54905856
95	0xbf4ad3f6	-0.79229677
96	0x3e873fec	0.26415956
97	0xbeae8bf6	-0.34091157
98	0x3ea9d7dc	0.331725
99	0xbd2a9b20	-0.041651845
100	0x3cdd9ba0	0.027051747
101	0xbcaf9880	-0.021435022
102	0xbeb6be88	-0.3569224
103	0x3d4fa340	0.050692797
104	0xbea218ac	-0.31659448
105	0xbe9ae767	-0.3025467
106	0xbdffb114	-0.12484947
107	0x3f087af6	0.53312624
108	0x3db9fd00	0.09081459
109	0xbe5ff0ee	-0.21869251
110	0x3dbf51b8	0.093417585
111	0xbe6992ac	-0.22809857
112	0x3e9c69b2	0.3054939
113	0xbe8d0892	-0.275456
114	0xbefaceeb	-0.4898599
115	0x3ee583f6	0.4482724
116	0xbf3bc6b1	-0.73350054
117	0x3edf69b8	0.43635345
118	0xbf12a5a8	-0.5728402
119	0xbe405ee6	-0.18786201
120	0xbe889b9d	-0.26681224
121	0xbe61490e	-0.22000524
122	0x3d0b9150	0.034074128
123	0x3db7a738	0.08967441
124	0xbe453280	-0.19257545
125	0x3eea3188	0.45740914
126	0x3c0b055b	0.008485164
127	0x3f052854	0.5201466
128	0xbf4708db	-0.7774789
129	0x3e95d096	0.292607
130	0xbeca0c2e	-0.39462417
131	0x3df553b8	0.11978859
132	0x3f1c1299	0.6096588
133	0xbeb04983	-0.34431085
134	0x3f3cb97d	0.7372053
135	0x3f3bb782	0.73326886
136	0xbd85e64a	-0.06538065
137	0x3ed5c507	0.41751882
138	0xbef3833b	-0.47561058
139	0x3e28df58	0.16491449
140	0x3e9c22f6	0.30495423
141	0xbeb6972e	-0.35662216
142	0xbec75e62	-0.38939196
143	0xbeba46fa	-0.36382276
144	0xbdb67bf0	-0.08910358
145	0x3d97da60	0.074146986
146	0xbec49244	-0.38392842
147	0xbf7048e1	-0.93861204
148	0x3f0741b4	0.5283463
149	0xbd593504	-0.053029075
150	0x3eede248	0.464617
151	0xbebf490b	-0.37360415
152	0x3df50382	0.1196356
153	0x3e8cb78b	0.27483782
154	0xbf010109	-0.50392205
155	0xbf02a7ed	-0.51037484
156	0xbf0a7208	-0.5408025
157	0xbed3147c	-0.41226566
158	0x3e8f1140	0.27942848
159	0xbe913453	-0.28360233
160	0xbedea0e6	-0.4348213
161	0x3eb7f26a	0.35927135
162	0xbeeec187	-0.46632025
163	0xbca20c80	-0.019781351
164	0x3e95bcee	0.29245704
165	0x3f128294	0.57230496
166	0xbeec8964	-0.4619857
167	0xbee82e28	-0.45347714
168	0x3e982a80	0.29719925
169	0xbe193bca	-0.14964214
170	0x3e7edef4	0.24889737
171	0xbd8d1620	-0.06888986
172	0xbd7947c0	-0.06085944
173	0xbed72830	-0.42022848
174	0xbe8b8308	-0.27248406
175	0x3d8c5708	0.068525374
176	0x3e1fb808	0.15597546
177	0xbe91e7d2	-0.28497177
178	0xbea14733	-0.31499633
179	0xbed876d6	-0.42278165
180	0x3e4a41ac	0.19751614
181	0xbe2a7a8a	-0.16648307
182	0xbeab95bc	-0.33512676
183	0xbf0e20d8	-0.55518866
184	0x3d543df0	0.05181688
185	0x3f4469e1	0.7672406
186	0xbed73aa5	-0.4203693
187	0x3ec9104e	0.39270252
188	0xbebcc122	-0.368661
189	0x3de0ba18	0.109729946
190	0xbf0bfde7	-0.546843
191	0x3f0e7cd0	0.556592
192	0x3e9b3d4a	0.30320197
193	0xbdcfdaf4	-0.10149184
194	0xbeb8b8a4	-0.3607837
195	0xbf596a54	-0.8492787
196	0x3ecb1c09	0.39669827
197	0xbe31a982	-0.17349818
198	0xbeb72412	-0.35769707
199	0xbf08a7d1	-0.5338107
200	0x3e336acc	0.17521209
201	0xbe45956c	-0.19295281
202	0xbd972a10	-0.0738107
203	0xbe375dbc	-0.1790685
204	0xbeb377af	-0.3505225
205	0x3e181c6c	0.14854592
206	0xbd6bd090	-0.057571948
207	0x3f292e1f	0.66086
208	0xbf7c8873	-0.98645705
209	0x3dd5deed	0.1044291
210	0xbef4ae7b	-0.47789368
211	0xbf0c5a23	-0.5482504
212	0x3e8e0c76	0.27743882
213	0xbe306c58	-0.1722883
214	0xbba95f80	-0.005168855
215	0x3e181cf8	0.148548
216	0x3d07223e	0.03299164
217	0xbe8b6663	-0.27226552
218	0x3eb3036d	0.3496355
219	0xbebad93e	-0.36493868
220	0x3ee42166	0.4455673
221	0xbe34d928	-0.17660964
222	0x3f699949	0.9124952
223	0x3ef91c6a	0.4865449
224	0xbf1d778f	-0.61510557
225	0xbea06f92	-0.3133512
226	0xbed6bae2	-0.41939455
227	0xbe8d2065	-0.27563778
228	0xbdd548a8	-0.10414249
229	0xbe9a5a0d	-0.30146828
230	0xbe898cc4	-0.26865208
231	0xbf507f57	-0.81444305
232	0x3f0ffeee	0.56248367
233	0x3f215461	0.63019377
234	0x3cae6f4f	0.02129331
235	0xbce1528b	-0.02750518
236	0x3e597300	0.21235275
237	0xbf53729d	-0.8259676
238	0x3e6af8ec	0.22946519
239	0xbe6dcba1	-0.2322221
240	0x3f0440ed	0.5166157
241	0xbeaba2da	-0.33522683
242	0xbf30a441	-0.6900063
243	0xbefe3692	-0.4965101
244	0x3e52ae8c	0.20574397
245	0xbf073637	-0.528171
246	0x3d7b4890	0.061348498
247	0x3d8b68c0	0.06807089
248	0xbea2d384	-0.31802
249	0x3ebb0bd1	0.36532453
250	0xbe818a43	-0.25300798
251	0xbe2ef345	-0.17084987
252	0xbebbab0c	-0.36653936
253	0xbf0853c0	-0.5325279
254	0x3d1f2a60	0.03885877
255	0xbe8c237b	-0.2737082

bias f4 [256]
0	0xbd5e5460	-0.054279685
1	0x3e49e662	0.1971679
2	0x3e882915	0.26593843
3	0xbe8a9db2	-0.27073437
4	0xbef6e315	-0.48220125
5	0xbedee1e1	-0.43531707
6	0xbecda9ee	-0.4016871
7	0x3e531a50	0.20615506
8	0xbd8fd690	-0.070233464
9	0xbcfe3740	-0.031032205
10	0xbeaccf97	-0.33752128
11	0x3e302e33	0.17205124
12	0xbf364582	-0.7119981
13	0xbe0d10b2	-0.137759
14	0xbdbb1a4a	-0.091358736
15	0x3d1797ba	0.037009932
16	0x3e0d95d9	0.13826694
17	0x3ed62816	0.41827458
18	0x3eae28be	0.3401546
19	0x3d11555b	0.035481792
20	0x3e8d2be2	0.27572542
21	0x3a0d1800	0.00053822994
22	0xbecdfe6c	-0.4023317
23	0x3e808ec6	0.25108927
24	0xbef32577	-0.4748952
25	0x3e9cf39e	0.30654615
26	0xbef5f6e4	-0.48039925
27	0x3e8efd7c	0.27927768
28	0xbeae402a	-0.34033328
29	0x3d795960	0.06087625
30	0x3e311393	0.17292623
31	0x3e925075	0.2857701
32	0xbf003fbc	-0.5009725
33	0xbed1c346	-0.40969294
34	0xbedff44e	-0.43741077
35	0xbedf01e6	-0.43556136
36	0xbf0a136b	-0.5393588
37	0xbe46a940	-0.19400501
38	0x3f176086	0.5913166
39	0xbe400f82	-0.18755916
40	0x3c85c7e0	0.01633066
41	0xbec38f49	-0.38195255
42	0x3de0577f	0.109541886
43	0xbee2f7a3	-0.44329557
44	0xbf32881c	-0.69738936
45	0xbf29fc28	-0.66400385
46	0xbe34a566	-0.1764122
47	0xbed51ca0	-0.41623402
48	0xbe0b0dfa	-0.1357955
49	0x3eb0cf43	0.34533128
50	0xbe8a10dc	-0.26965988
51	0x3f043c6f	0.51654714
52	0x3e32b574	0.17452031
53	0xbc00e5cc	-0.007867288
54	0xbf12cde7	-0.5734543
55	0xbe8d9b56	-0.27657574
56	0xbefe04af	-0.49612948
57	0xbeb2387e	-0.34808725
58	0xbea09ff8	-0.31372046
59	0xbeeff95c	-0.46869934
60	0x3dbbcea0	0.0917027
61	0xbe94751d	-0.289956
62	0x3e16f7b3	0.14742927
63	0xbf0b28b0	-0.5435896
64	0xbe1bf6ac	-0.15230817
65	0x3e642e38	0.22283256
66	0xbe030bae	-0.12797424
67	0xbec76fd8	-0.38952518
68	0xbeb00f44	-0.34386647
69	0x3e0a0a80	0.13480568
70	0x3e2d45e0	0.16921186
71	0xbe7fd5e4	-0.24983937
72	0xbe4d4b2c	-0.20048207
73	0xbc2f8599	-0.0107130045
74	0xbe99c827	-0.30035517
75	0x3ee86570	0.4538989
76	0x3e938e8c	0.28819692
77	0xbe816572	-0.2527271
78	0xbe45dd44	-0.19322687
79	0x3f0c9e4a	0.5492903
80	0x3e7d408c	0.24731654
81	0x3eb6a88b	0.35675463
82	0xbef34cc8	-0.47519517
83	0xbcc0d2b9	-0.02353798
84	0xbd24a660	-0.04019773
85	0xbee8896a	-0.4541734
86	0xbe8c87c3	-0.27447328
87	0x3cbaaa80	0.022786379
88	0x3dc1a522	0.09455325
89	0x3f05df14	0.52293515
90	0x3dadffc9	0.08496053
91	0xbd812705	-0.063062705
92	0x3e8a81e3	0.2705222
93	0xbe95f30b	-0.2928699
94	0x3f1eb616	0.6199659
95	0xbe07ff83	-0.13281064
96	0x3e6a20d8	0.22864091
97	0xbd632110	-0.055451453
98	0xbed7a998	-0.42121577
99	0xbef29e0f	-0.47386214
100	0x3e7f5388	0.24934208
101	0xbdd29eb4	-0.102841765
102	0xbdb9a5d8	-0.09064835
103	0xbe8aa68e	-0.27080196
104	0xbecbf6ba	-0.39836675
105	0xbefe6d3a	-0.49692708
106	0xbe84ab73	-0.25912055
107	0x3e239b26	0.15977153
108	0x3eee5259	0.465472
109	0x3e907869	0.28216866
110	0x3dac7020	0.08419824
111	0x3dd52544	0.104074985
112	0x3f145263	0.5793821
113	0x3dfe39d2	0.12413372
114	0x3f25cdf9	0.64767414
115	0xbe9a7fc2	-0.30175596
116	0xbde0a25c	-0.109684676
117	0xbe457274	-0.19281942
118	0x3edf810d	0.43653145
119	0x3ecf16fe	0.4044723
120	0xbe86f969	-0.2636216
121	0x3ef138ec	0.4711374
122	0x3df40870	0.11915672
123	0x3d57f630	0.052725017
124	0x3d88f458	0.0668723
125	0xbe45903d	-0.19293304
126	0x3eef22b1	0.46706155
127	0xbe763230	-0.24042583
128	0x3f21df3f	0.6323127
129	0xbe312f40	-0.1730318
130	0x3df6a100	0.12042427
131	0xbeff4763	-0.4985915
132	0xbe819bf5	-0.25314298
133	0x3e43a2b8	0.19105041
134	0xbcd166bc	-0.025561683
135	0x3eb5b738	0.35491347
136	0xbed99e70	-0.4250369
137	0xbf13ccab	-0.57734174
138	0xbe4ba8c4	-0.19888598
139	0xbe65a31e	-0.22425506
140	0xbe355183	-0.17706876
141	0x3e7848ee	0.2424657
142	0xbed264b0	-0.41092443
143	0x3ec181dd	0.3779439
144	0x3db985bf	0.09058713
145	0xbd1b16bc	-0.037863478
146	0xbf0332c0	-0.51249313
147	0x3e323f5a	0.17406979
148	0xbe7b4ac8	-0.24540246
149	0xbd9999a6	-0.07500009
150	0xbe0b7116	-0.13617358
151	0xbf051eec	-0.5200031
152	0x3eab93ee	0.335113
153	0x3ea313ca	0.31851035
154	0x3b7d41e9	0.0038644022
155	0x3e914d51	0.283793
156	0x3d4a07b8	0.049323767
157	0xbc8a99a1	-0.01691896
158	0xbea9a726	-0.33135337
159	0xbed94436	-0.42434853
160	0xbc443140	-0.011974633
161	0x3e4bd494	0.19905311
162	0x3ebba886	0.3665201
163	0x3eb50b7e	0.3536033
164	0x3c37fec0	0.011230171
165	0xbb400d4c	-0.00293048
166	0xbee39bcb	-0.44454798
167	0xbede4e4c	-0.4341911
168	0x3f0a5751	0.54039484
169	0xbf17c5fc	-0.59286475
170	0x3e900540	0.28129005
171	0x3e687050	0.22699094
172	0xbe3dac88	-0.18522847
173	0x3e7b4b04	0.24540335
174	0x3c26dbef	0.010184272
175	0x3e09b900	0.13449478
176	0xbeddd94b	-0.43329844
177	0xbe1b549a	-0.15168992
178	0xbd118c93	-0.035534453
179	0xbe317c54	-0.17332584
180	0x3f1c96d9	0.61167675
181	0xbecb5007	-0.39709494
182	0xbf099c5e	-0.5375422
183	0xbb2f8400	-0.002678156
184	0xbf007f88	-0.501946
185	0xbf0bb820	-0.5457783
186	0xbea30fd8	-0.31848025
187	0x3e1ad74c	0.15121192
188	0xbdd1807c	-0.102295846
189	0xbe179c0b	-0.1480562
190	0x3c8f7dc0	0.017516017
191	0x3f0e3758	0.555532
192	0x3e734507	0.237568
193	0xbe67feec	-0.22655839
194	0x3d80fcf0	0.06298244
195	0xbecf8ef1	-0.40538743
196	0xbe5a046e	-0.21290752
197	0xbe5107d6	-0.20413145
198	0xbf410899	-0.75403744
199	0x3d4c7418	0.049915403
200	0x3e7d0137	0.24707495
201	0xbef51db1	-0.47874215
202	0x3e59d298	0.21271741
203	0x3d952581	0.07282544
204	0xbdbf810c	-0.093507856
205	0xbe97c438	-0.2964189
206	0x3dd6ede0	0.1049459
207	0x3e398858	0.18118417
208	0xbf3e644b	-0.74371785
209	0x3d7371d0	0.059434712
210	0x3edfaeae	0.43687958
211	0x3ebcadd8	0.36851382
212	0xbe46111e	-0.19342467
213	0xbf159f88	-0.5844655
214	0xbe49b4ac	-0.19697827
215	0xbf37a126	-0.7173027
216	0xbe86f811	-0.26361135
217	0xbf053148	-0.5202832
218	0xbdc0f3c8	-0.094214976
219	0xbe6171ce	-0.2201607
220	0xbeb0e3ac	-0.345487
221	0x3ea8dd5e	0.3298139
222	0xbd69e650	-0.05710441
223	0xbe98f98b	-0.29877886
224	0x3dfe0ea8	0.12405139
225	0xbeb48b2a	-0.35262424
226	0xbd4536b0	-0.048147857
227	0xbec07f96	-0.3759734
228	0xbe76b4c8	-0.240924
229	0xbccd2e00	-0.025046349
230	0xbee6082f	-0.4492812
231	0x3e737f97	0.2377914
232	0xbf19b63d	-0.600437
233	0xbf05edf9	-0.5231624
234	0x3eccbc71	0.3998752
235	0xbd4f12f0	-0.05055517
236	0x3e877cc1	0.26462367
237	0x3ee5de7a	0.448963
238	0xbed09bc5	-0.40743843
239	0xbe0e641c	-0.13905376
240	0xbd9c96e8	-0.076459706
241	0x3c941a93	0.018079078
242	0x3e881b7a	0.26583463
243	0x3ebe16d7	0.371268
244	0xbefb1d1c	-0.49045646
245	0xbefb9d0c	-0.49143255
246	0x3d461e00	0.048368454
247	0xbf3f4a7d	-0.74723035
248	0x3a2fe4d5	0.0006709819
249	0xbf0c3da7	-0.54781574
250	0xbf347455	-0.7049001
251	0xbc73774e	-0.014859987
252	0x3ce47ebf	0.027892468
253	0xbf344265	-0.7041381
254	0xbedb0957	-0.42780563
255	0x3d981cf3	0.074273966

weight f4 [256, 256]
0	0xbb27bd83	-0.0025595136
1	0xbeb1c12c	-0.3471769
2	0x3f1986a8	0.59971094
3	0xbc5eac20	-0.0135908425
4	0x3cc06148	0.023483887
5	0xbc88fcbb	-0.016722074
6	0xbd443a1a	-0.047906972
7	0xbe58ce0d	-0.21172352
8	0xbd795636	-0.060873233
9	0x3bc540d0	0.006019689
10	0xbd4bd8ec	-0.04976742
11	0x3caa8f8b	0.0208204
12	0xbea7148b	-0.3263286
13	0x3e753ecc	0.23949736
14	0x3e0dbec6	0.13842306
15	0x3f8babb4	1.0911775
16	0xbfae22ae	-1.3604333
17	0xbdd57ef8	-0.10424608
18	0x3ec86f5a	0.39147455
19	0x3e8c2634	0.27372897
20	0xbefc41b6	-0.49268883
21	0xbcfcbecc	-0.030852698
22	0xbd5c8a9c	-0.053843126
23	0xbefcd08d	-0.49377862
24	0x3d1e1ebc	0.03860353
25	0x3ce856b8	0.028361663
26	0xbd1c1422	-0.038105138
27	0x3e3a5eb8	0.18200195
28	0xbcd8691c	-0.026417308
29	0x3d7b3b06	0.061335586
30	0x3c368c48	0.011141844
31	0x3e8c645f	0.27420327
32	0xbcc53f04	-0.0240779
33	0xbd17c5ec	-0.037053987
34	0x3d0174c2	0.03160549
35	0x3d76188c	0.060082003
36	0xbd622d06	-0.05521872
37	0xbc9780b0	-0.01849398
38	0x3f9e7195	1.2378412
39	0xbcf0d47c	-0.029398195
40	0xbcf0b424	-0.029382773
41	0x3cd7b3f4	0.026330926
42	0x3d9b2329	0.07575066
43	0x3d133242	0.0359366
44	0xc061d30d	-3.5285065
45	0xbf4d73e1	-0.8025494
46	0xbc943718	-0.018092677
47	0x3c9133e0	0.017724931
48	0x3cb801a4	0.02246172
49	0x3f8f0d9a	1.1176026
50	0xbe7bf782	-0.24606135
51	0xbec10227	-0.37696955
52	0x3d1117cc	0.035423085
53	0xbf58848d	-0.84577256
54	0xbadbfc80	-0.0016783625
55	0x3bb49970	0.0055114552
56	0xbd004790	-0.031318247
57	0xbb7338c0	-0.0037112683
58	0xbc9339f8	-0.017971978
59	0xbcb49f10	-0.022048503
60	0xbc7aca70	-0.015307054
61	0x3f00b879	0.5028148
62	0xbca77d62	-0.02044553
63	0x3d72cc1c	0.059276685
64	0xbc98569c	-0.018595986
65	0x3f7241c4	0.946316
66	0x3d13b0b4	0.03605719
67	0xbd48a37a	-0.04898403
68	0x3cc8e4b8	0.024523124
69	0x3e2cae3d	0.16863342
70	0x3c047bc8	0.008086152
71	0x3ab35980	0.0013683289
72	0xbe711f0b	-0.23546998
73	0x3e5a6b14	0.2132991
74	0x3d26171e	0.04054939
75	0x3ccaae68	0.024741367
76	0x3cfb1208	0.030648246
77	0x3f65181b	0.8948991
78	0xbd3733b6	-0.04472705
79	0x3ecbd289	0.39809063
80	0xbd8440e6	-0.06457691
81	0x3f558590	0.83406925
82	0xbd36c98e	-0.04462581
83	0xbde9aa3d	-0.114094235
84	0xba9be400	-0.0011893511
85	0x3d3a76cc	0.04552345
86	0xbea4ae51	-0.32164243
87	0xbcc6b910	-0.024258167
88	0xbe69a061	-0.22815086
89	0xbfa9275f	-1.321514
90	0xbcc8f47e	-0.024530645
91	0xbf16c5e7	-0.58895725
92	0xbd52e11f	-0.051484223
93	0xbd798838	-0.060920924
94	0xbf324105	-0.6963046
95	0xbe9c6e7a	-0.30553037
96	0x3e9df80f	0.30853316
97	0x3d686a84	0.056742206
98	0x3cfb8610	0.030703574
99	0x3d01dd5f	0.031705257
100	0xbc326210	-0.010887638
101	0x3d6673be	0.056262724
102	0xbca0b974	-0.019619681
103	0x3ca2c8f4	0.019871213
104	0xbc82b0f4	-0.015953518
105	0xbbc3f4d0	-0.0059801117
106	0xbd3f3ada	-0.046686985
107	0xbc0694a0	-0.008214146
108	0x3bf69ed6	0.007526259
109	0x3d5dd6de	0.05415999
110	0xbfa7646b	-1.307752
111	0xbc923d83	-0.017851597
112	0x3e298f96	0.1655868
113	0xbe8d427e	-0.27589792
114	0xbf0dc36a	-0.55376303
115	0xbc136c60	-0.008998007
116	0x3d48e6e4	0.04904832
117	0x3d135cfe	0.035977356
118	0xbcc65eab	-0.024215063
119	0x3d23ec79	0.04002044
120	0x3cf44404	0.029817589
121	0xbf6ecb29	-0.9327875
122	0xbd3280ea	-0.043579973
123	0xbbc625d0	-0.006046988
124	0xbcdbec61	-0.026846113
125	0xbd8ed44b	-0.069740854
126	0xbf244e65	-0.6418212
127	0x3bdfdfb0	0.0068320855
128	0xbf9a9fea	-1.2080052
129	0x3d3801ac	0.04492347
130	0xbccd579c	-0.02506619
131	0xbb8cd3b0	-0.004297696
132	0xbd7430f8	-0.059617013
133	0x3c5816b0	0.013189003
134	0x3dec5028	0.11538726
135	0x3f00570c	0.50132823
136	0x3d0a60da	0.03378377
137	0xbd421cb4	-0.047390655
138	0xbc635b18	-0.013876699
139	0x3d136794	0.03598745
140	0x3d11af4f	0.035567578
141	0x3e874f61	0.2642775
142	0xbd75ae5e	-0.059980743
143	0x3f149271	0.5803595
144	0x3e5a4530	0.21315455
145	0xbe249838	-0.16073692
146	0xbca9fb9c	-0.02074986
147	0x3f252fba	0.6452595
148	0xbc5b91a8	-0.013401426
149	0xbeeb3ec7	-0.45946333
150	0xbe165bfa	-0.14683524
151	0x3d35aa94	0.04435213
152	0x3e7ca0ef	0.24670766
153	0xbd64ab5e	-0.05582749
154	0x3dc8dd03	0.0980778
155	0x3ec54b46	0.38533992
156	0xbf33d923	-0.702532
157	0xbeff3214	-0.49842894
158	0xbd7c0f92	-0.061538287
159	0xbd16528c	-0.036699817
160	0x3d6860f6	0.056733094
161	0x3e45ce6a	0.19317022
162	0xbd34d0b2	-0.04414434
163	0xbf1a6184	-0.6030505
164	0x3d57199c	0.052514657
165	0xbeed1a57	-0.46309158
166	0xbcdc0e6c	-0.026862346
167	0xbd187134	-0.037217334
168	0xbe92ee85	-0.286976
169	0x3fc120fe	1.5088193
170	0xbb0e2525	-0.002168962
171	0x3fc8f36b	1.5699285
172	0xbca7dbb0	-0.020490497
173	0xbe485b86	-0.19566163
174	0x3d9cad71	0.07650269
175	0x3ec297d0	0.3800645
176	0x3e0adc1e	0.1356053
177	0xbd2b3036	-0.041794024
178	0x3db1a013	0.0867311
179	0xbd68c524	-0.056828633
180	0x3f35c656	0.7100576
181	0x3d1c2488	0.038120776
182	0x3bd32be0	0.0064444393
183	0x3c6d5b70	0.014487132
184	0xbd4fe23c	-0.050752863
185	0xbca15e78	-0.019698367
186	0xbd2da1a4	-0.04239048
187	0x3d1452b0	0.03621167
188	0x3c224c60	0.0099059045
189	0xbda86023	-0.082214616
190	0xbd6f54c6	-0.058430456
191	0xbc8baddc	-0.017050676
192	0xbf5d5ecb	-0.8647277
193	0x3d5f5dbc	0.05453275
194	0x3c98fa8a	0.018674154
195	0xbeeb42f6	-0.45949525
196	0xbd6d5712	-0.057944365
197	0xbd5071cc	-0.050889775
198	0xbe37b1a0	-0.17938852
199	0x3e98dd59	0.29856375
200	0x3e2be62b	0.16787021
201	0xbd290bec	-0.041271135
202	0x3d5399e4	0.051660433
203	0xbc96f7fc	-0.018428795
204	0xbcf8f7ac	-0.030391537
205	0x3ec7e1f5	0.3903958
206	0xbcc64104	-0.024200924
207	0xbc8ee2c9	-0.017442124
208	0x3e2a0ea7	0.16607152
209	0x3d56abb0	0.052409828
210	0xc0751eac	-3.829997
211	0x3d2dfc4e	0.042476945
212	0x3c4cb140	0.012493432
213	0xc0893083	-4.287172
214	0x3e4d83a4	0.20069748
215	0xbed12f1a	-0.40856248
216	0xbd51cfae	-0.05122345
217	0x3d2a91fa	0.04164312
218	0xbc2fce00	-0.010730267
219	0x3d2cfd50	0.042233765
220	0xbcc54c20	-0.02408415
221	0x3d37e420	0.04489529
222	0xbd25663a	-0.040380694
223	0x3ce32d38	0.027731523
224	0xbce7fe70	-0.028319567
225	0x3bae31b0	0.005315982
226	0x3c2fa748	0.010721035
227	0x3fb77658	1.4332991
228	0x3c7e1c40	0.015509665
229	0x3c80d1e8	0.015725091
230	0x3b7b5bc0	0.0038354248
231	0x3f345d4b	0.70454854
232	0x3ede94de	0.43472952
233	0x3d77f37a	0.06053493
234	0xc00000ef	-2.000057
235	0x3cb831c0	0.02248466
236	0x4007436b	2.1134899
237	0x3e695d98	0.2278961
238	0x3d37962a	0.044820942
239	0x3d5a7faa	0.053344406
240	0xbc1b6a68	-0.009485818
241	0xbf1d236b	-0.6138217
242	0xbd32d950	-0.043664277
243	0x3e02bf41	0.1276827
244	0x3ce778d0	0.02825585
245	0xbd2136da	-0.03935895
246	0x3d2abd7a	0.041684605
247	0x3dd87a7a	0.105702356
248	0xbcd2313f	-0.025658248
249	0xbd49328c	-0.04912047
250	0xbeb6b8cd	-0.35687867
251	0x3f46fd29	0.7773004
252	0xbbb750d8	-0.005594354
253	0xbd1fe656	-0.039038025
254	0xbcc167b4	-0.02360902
255	0xbd828924	-0.06373814

bias f4 [256]
0	0xbe842272	-0.2580753
1	0xbc78618f	-0.0151599785
2	0xbd957a9d	-0.07298777
3	0xbd029d23	-0.03188814
4	0xbcd2dcb4	-0.025740005
5	0xbc4629ac	-0.012094896
6	0xbd3b79c0	-0.045770407
7	0xbd2cfa03	-0.042230617
8	0xbbf72201	-0.0075418954
9	0xbe74e1a0	-0.23914194
10	0xbccdcd8d	-0.025122428
11	0xbd0b2fdd	-0.033981193
12	0xbeb121f7	-0.34596226
13	0xbd208546	-0.0391896
14	0xbd380790	-0.044929087
15	0xbc89e644	-0.016833432
16	0xbcf2cda2	-0.029639069
17	0xbd534f51	-0.051589314
18	0xbcc0ac54	-0.023519672
19	0xbc88c19d	-0.016693885
20	0xbc454006	-0.01203919
21	0xbec6800e	-0.38769573
22	0xbd16d903	-0.036828052
23	0x3e789a07	0.24277507
24	0xbf223b2b	-0.63371533
25	0xbd3e274e	-0.046424203
26	0xbcdefc25	-0.027219841
27	0xbd383ba2	-0.044978745
28	0x3d404e1d	0.046949495
29	0x3e27deb2	0.16393545
30	0xbeb60a43	-0.35554704
31	0xbd02f14c	-0.0319684
32	0xbd96cf89	-0.07363803
33	0xbd510b72	-0.051036306
34	0xbdad5d38	-0.08465046
35	0x3ec690ab	0.38782248
36	0xbbfcd76e	-0.007716111
37	0xbdcfc522	-0.10145022
38	0x3cf12a1b	0.029439023
39	0xbc7ac1ac	-0.015304964
40	0x3bd07c72	0.0063624913
41	0xbe109a5f	-0.14121388
42	0xbc8721a1	-0.016495528
43	0xbcb47d98	-0.022032544
44	0x3bcd608f	0.006267614
45	0xbd195ea0	-0.037443757
46	0x3d89d749	0.067305155
47	0xbdd907c9	-0.10597188
48	0xbd0121d3	-0.031526398
49	0xbd85e593	-0.065379284
50	0xbec6fa73	-0.38862953
51	0xbd1513ba	-0.036395766
52	0xbb8edf35	-0.0043601044
53	0xbd365a53	-0.044519734
54	0x3e858db5	0.26084676
55	0xbed8b8fe	-0.42328638
56	0xbdb81088	-0.08987528
57	0xbdd97bc2	-0.10619308
58	0xbd25bab1	-0.040461246
59	0x3bb40ea9	0.0054949117
60	0xbd1e2e44	-0.03861834
61	0xbe84b469	-0.25918892
62	0xbe940d00	-0.28916168
63	0x3d92857a	0.07154365
64	0xbdb73170	-0.08944976
65	0xbd00ea39	-0.031473372
66	0xbd7af322	-0.061267026
67	0xbd8fe47f	-0.07026004
68	0x3b69b07d	0.0035658174
69	0xbd12ca6d	-0.03583758
70	0x3b1eb5ef	0.0024217328
71	0xbca9f2c7	-0.020745648
72	0xbcd5cde2	-0.02609915
73	0xbdfa971e	-0.122358546
74	0x3ef6199d	0.48066416
75	0xbe72ba4b	-0.23703878
76	0x3dd987cc	0.10621604
77	0x3e4f89cc	0.20267409
78	0x3c2cdee2	0.010551186
79	0xbcebddc9	-0.028792279
80	0x3cda0500	0.026613712
81	0xbc908552	-0.017641697
82	0xbb5bfd72	-0.0033567813
83	0xbc850aed	-0.016240561
84	0xbd3a41c8	-0.04547289
85	0x3ca99c2c	0.020704351
86	0xbd71c7ce	-0.05902844
87	0xbcd465a7	-0.025927378
88	0xbea825ae	-0.32841247
89	0xbd5ab805	-0.05339815
90	0xbd48832a	-0.048953213
91	0x3cd0cc95	0.025488177
92	0xbc6e0682	-0.014527919
93	0xbd8ebf79	-0.06970114
94	0x3dfd353b	0.123636685
95	0xbd7e5b16	-0.062098585
96	0xbd45799a	-0.04821167
97	0xbf0de6cd	-0.554303
98	0xbf20c196	-0.6279539
99	0xbead62a2	-0.33864313
100	0xbd4f08e8	-0.050545603
101	0xbc839219	-0.016060876
102	0x3e9f35a6	0.31095618
103	0xbe02ca72	-0.1277254
104	0xbe440024	-0.19140679
105	0xbddef6b6	-0.108869
106	0xbd723cdb	-0.059140068
107	0xbe009581	-0.12557031
108	0x3ba9d024	0.005182283
109	0xbc006c46	-0.007838314
110	0xbd172722	-0.036902554
111	0xbe89b884	-0.26898587
112	0xbd0fab55	-0.035075504
113	0xbde6068d	-0.11231718
114	0xbea0799f	-0.3134279
115	0xbd02007a	-0.031738736
116	0xbcebc488	-0.028780237
117	0xbcf652e2	-0.030068818
118	0xbd72f2b2	-0.059313484
119	0x3dce9b6b	0.100882374
120	0x3d7780d5	0.0604256
121	0xbd5ef924	-0.054436818
122	0x3d989382	0.0745001
123	0xbcb1e4f3	-0.021715617
124	0x3ca9cd8f	0.0207279
125	0xbc782fa2	-0.015148075
126	0x3d26e3fa	0.04074476
127	0xbd8d7308	-0.06906706
128	0xbde771d2	-0.113010064
129	0xbd0f8a88	-0.035044223
130	0x3e032f72	0.12811068
131	0xbe446c03	-0.19181828
132	0x3d5d2eb6	0.053999625
133	0x3c39de29	0.011344471
134	0xbe09d494	-0.13459998
135	0xbce6711c	-0.028130107
136	0xbee3366e	-0.44377464
137	0x3e9600d5	0.2929751
138	0xbd8e3dde	-0.06945394
139	0xbcfbaec8	-0.03072299
140	0x3e19eae9	0.15031017
141	0xbf193520	-0.5984669
142	0xbc5f8f83	-0.013645056
143	0xbea01e3d	-0.3127307
144	0xbbe027a0	-0.006840661
145	0x3c29d889	0.010366567
146	0x3e019d15	0.12657578
147	0x3e58285f	0.2110915
148	0x3cf73c10	0.030180007
149	0xbcc0e33e	-0.023545858
150	0x3d4854a7	0.048908856
151	0xbea11aa2	-0.31465632
152	0xbda60e4f	-0.08108198
153	0xbd609670	-0.05483097
154	0xbd692c72	-0.056927152
155	0xbc89c675	-0.016818264
156	0xbd648952	-0.05579502
157	0xbd2ef199	-0.042710874
158	0xbd53e1d4	-0.05172904
159	0xbcc952d0	-0.02457562
160	0xbe49ac0b	-0.19694535
161	0x3ea1c69c	0.3159684
162	0xbeacb0ae	-0.33728546
163	0xbd0bb8a6	-0.03411164
164	0xbb2714a1	-0.0025494474
165	0x3c9b425e	0.018952545
166	0xbd3d7b34	-0.046260074
167	0xbc6ba0e6	-0.014381623
168	0xbc6ec019	-0.014572167
169	0x3afb5898	0.0019176183
170	0x3c0eb3e6	0.008709883
171	0xbc47bc15	-0.012190838
172	0xbd7b3e20	-0.061338544
173	0xbcebdba1	-0.02879125
174	0x3e294998	0.1653198
175	0x3e3d7077	0.18499933
176	0x3c4b57ae	0.012411041
177	0x3dcd1eeb	0.10015663
178	0xbd4ea634	-0.050451472
179	0xbe4b8848	-0.19876206
180	0x3e5a0a13	0.21292906
181	0xbadf2ae0	-0.0017026328
182	0x3e791d16	0.24327502
183	0xbda4ef26	-0.080534264
184	0xbcbadcb6	-0.022810321
185	0xbe0897f5	-0.13339217
186	0xbd1a073e	-0.037604563
187	0xbebd5aec	-0.3698343
188	0xbcfaab84	-0.030599363
189	0xbe849470	-0.258945
190	0x3e2c917a	0.1685237
191	0xbcc537d5	-0.024074474
192	0x3ee18197	0.44044182
193	0xbc9d4c0f	-0.019201307
194	0xbd2f48a8	-0.0427939
195	0x3d814c14	0.06313339
196	0xbd7ed373	-0.062213372
197	0xbdf05d7c	-0.11736581
198	0xbd28abf1	-0.0411796
199	0xbd4132e5	-0.047167677
200	0xbd2c5fc6	-0.042083524
201	0x3c91cb2d	0.017797077
202	0x3e094ad0	0.13407445
203	0xbc8483ee	-0.01617619
204	0xbd3d354e	-0.046193413
205	0xbe098d96	-0.13432917
206	0xbbbe4510	-0.0058065727
207	0x3dee8c84	0.11647895
208	0xbed5e906	-0.41779345
209	0xbd703999	-0.05864868
210	0xbd887357	-0.06662624
211	0xbcc6e530	-0.024279207
212	0xbcc1743b	-0.023614993
213	0x3c8cbcc0	0.017179847
214	0x3c78b1c9	0.015179106
215	0xbd835c01	-0.06414033
216	0xbe86c632	-0.26323086
217	0x3ce9623d	0.028489226
218	0xbd07b443	-0.033130895
219	0xbce44454	-0.027864613
220	0x3cc0836c	0.023500167
221	0x3bbb21bf	0.00571081
222	0x3ec03be5	0.37545696
223	0x3ddb826e	0.10718237
224	0x3ed20743	0.41021165
225	0xbe2a6603	-0.16640477
226	0xbdb4ed70	-0.0883435
227	0x3c1c7763	0.009549948
228	0xbd345bec	-0.044032976
229	0x3c45a5d0	0.012063459
230	0xbe239478	-0.15974605
231	0xbc5e6d50	-0.013575867
232	0x3ca80be4	0.020513482
233	0xbe948a30	-0.2901168
234	0xb973131e	-0.00023181408
235	0xbceba40c	-0.028764747
236	0xbd6c1636	-0.05763837
237	0xbdb2ca01	-0.087299354
238	0xbc9a0663	-0.018801874
239	0x3e581056	0.21099982
240	0xbd358ad4	-0.04432185
241	0xbd2769b0	-0.040872276
242	0xbd64d349	-0.05586556
243	0xbdb5a036	-0.088684484
244	0xbec1ef5b	-0.37877926
245	0xbd70c69f	-0.05878317
246	0xbdc23262	-0.09482266
247	0xbd2c65ac	-0.04208915
248	0xbc0a2cbf	-0.00843352
249	0x3b6cfc7f	0.0036161242
250	0xbd153434	-0.036426738
251	0xbe37d473	-0.17952137
252	0xbbf32a36	-0.0074208034
253	0xbd31f62e	-0.043447666
254	0xbd075b5a	-0.033046104
255	0xbd8b5556	-0.06803386

weight f4 [256, 256]
0	0xbe5de49d	-0.2166924
1	0xbd5debc0	-0.054179907
2	0x3d939aef	0.072072856
3	0x3d874f01	0.06606866
4	0x3c9ff5ed	0.019526446
5	0xbd58c931	-0.052926246
6	0x3caa6bc4	0.02080334
7	0x3d0a491e	0.033761136
8	0x3cefc09e	0.029266652
9	0xbe2f4927	-0.17117749
10	0x3c8614f0	0.016367406
11	0x3d4815ba	0.048848845
12	0xbe459915	-0.19296677
13	0x3d5ff58c	0.05467753
14	0xbc8c0998	-0.017094418
15	0x3bb377d0	0.0054769292
16	0xbb96e58c	-0.004605001
17	0xbd91b595	-0.07114712
18	0xbd2ecdd8	-0.042676777
19	0xbe190975	-0.14945014
20	0x3d111442	0.03541971
21	0xbc6f991e	-0.014623908
22	0xbc37b5ea	-0.011212805
23	0xbf8e175b	-1.1100878
24	0xbe126da9	-0.14299645
25	0xbda1fabd	-0.07909153
26	0xbd1d4b18	-0.038401693
27	0x3c8a3911	0.016872915
28	0xbdfa731f	-0.12228989
29	0xbe305639	-0.17220391
30	0xbd6df3b5	-0.058093745
31	0xbb33d964	-0.0027442807
32	0xbe800446	-0.2500326
33	0x3cd6b9f4	0.026211716
34	0x3d339260	0.043840766
35	0x3cb88e50	0.022528797
36	0xbb52db36	-0.0032174117
37	0xbd2f2c61	-0.042766932
38	0xbda5a293	-0.08087649
39	0xbe49aaf6	-0.19694123
40	0x3d6eb9ee	0.058282785
41	0x3c30d227	0.010792292
42	0x3e1344de	0.1438174
43	0x3be5c348	0.0070118047
44	0xbd90eadf	-0.07076048
45	0x3c2da330	0.010597989
46	0xbb8c781a	-0.004286778
47	0xbe2c186e	-0.16806194
48	0xbd21241c	-0.039341077
49	0x3c9e534d	0.01932683
50	0xbd8b370d	-0.067976095
51	0xbcef8d99	-0.029242324
52	0xbdc0692b	-0.09395059
53	0xbaca2acf	-0.0015424135
54	0xbdaf50e9	-0.08560354
55	0xbdf9ea32	-0.12202872
56	0x3d6a7396	0.057239138
57	0xbe041701	-0.128994
58	0x3c7a3839	0.015272194
59	0xbda110dc	-0.07864544
60	0xbd0e0b22	-0.034678586
61	0xbc18eeef	-0.00933431
62	0xbd51d356	-0.051226936
63	0xbe199cd3	-0.1500123
64	0xbc2b7bdc	-0.010466542
65	0xbd4dbfcf	-0.05023175
66	0x3ce200cc	0.02758827
67	0x3dbbf9c7	0.091785006
68	0x3c8b2aef	0.016988246
69	0xbcbb4813	-0.022861516
70	0xbd74b818	-0.059745878
71	0xbdf4654b	-0.119333826
72	0x3d52aafe	0.051432602
73	0x3d7fb1a4	0.06242527
74	0x3d372d9b	0.044721227
75	0x3cb41bd8	0.021985933
76	0x3d9a82c3	0.07544472
77	0x3dcabd85	0.09899429
78	0xbc1a0a0c	-0.009401809
79	0x3d17516b	0.03694288
80	0x3d4240eb	0.04742519
81	0x3c0abb3d	0.008467493
82	0xbd7a27bf	-0.06107306
83	0x3c81e3a5	0.01585562
84	0xbd086742	-0.0333016
85	0x3d8794b9	0.066201635
86	0x3d7c8d02	0.061657913
87	0xbddb2ab8	-0.10701507
88	0xbdd674d4	-0.10471502
89	0x3d9db8ed	0.077012874
90	0xbc9232a4	-0.017846413
91	0xbd899242	-0.067173496
92	0xbc3af760	-0.011411518
93	0xbd47895d	-0.048714984
94	0x3d8125a2	0.06306006
95	0xbb173720	-0.0023073629
96	0xbbe713b0	-0.0070519075
97	0xbe7eed19	-0.24895133
98	0xbee05292	-0.43812996
99	0xbe24f074	-0.1610735
100	0xbd0ebee9	-0.034850035
101	0xbc696bc8	-0.014246888
102	0x3e09f3ad	0.13471861
103	0xbde2a80f	-0.11067211
104	0xbd99eedd	-0.07516263
105	0x3e52cfbf	0.20587061
106	0xbafc097e	-0.0019228903
107	0xbdf6b4cd	-0.12046204
108	0xbd4deabe	-0.050272696
109	0x3ca0f272	0.019646857
110	0x3d68f948	0.056878358
111	0xbdc5d699	-0.09660072
112	0xbd3a1d67	-0.045438197
113	0x3e1b0434	0.15138322
114	0xbdd050d5	-0.101716675
115	0xbd2aee64	-0.041731253
116	0xbd85b9b4	-0.06529561
117	0x3ce6427f	0.02810788
118	0x3c46d2b0	0.012135193
119	0xbe18e720	-0.14931917
120	0xbdbe9a94	-0.09306827
121	0x3b954083	0.0045548095
122	0xbdda7378	-0.10666555
123	0xbc8f007b	-0.017456284
124	0xbc8c3311	-0.017114194
125	0x3d63614a	0.055512704
126	0xbdfbba59	-0.12291402
127	0xbc2b949a	-0.010472441
128	0xbdc49d9f	-0.09600376
129	0x3d7b31f2	0.06132693
130	0xbd3768fd	-0.04477786
131	0xbdcd45e6	-0.10023098
132	0xbe19fc0f	-0.15037559
133	0xbbe6aebb	-0.0070398725
134	0xbdf6f13c	-0.120577306
135	0xbd5d009e	-0.053955667
136	0xbddf42b1	-0.10901392
137	0xbc913eb8	-0.017730102
138	0xbd97e346	-0.07416396
139	0x3cc3be63	0.023894494
140	0xbe272f91	-0.16326739
141	0xbf111b8b	-0.5668265
142	0xbd138e84	-0.036024585
143	0xbdff1913	-0.124559544
144	0xbdbaf888	-0.09129435
145	0xbc0ed604	-0.0087180175
146	0x3ce1184a	0.027477402
147	0x3dbf4452	0.09339203
148	0xbd6b92f3	-0.05751319
149	0xbc2094e2	-0.009801121
150	0x3d67735f	0.05650651
151	0xbd62e240	-0.05539155
152	0xbc00b166	-0.007854795
153	0xbcb74468	-0.022371486
154	0xbcc42fda	-0.023948599
155	0xbd12e497	-0.03586253
156	0x3d708054	0.058716133
157	0x3c7350ab	0.014850776
158	0xbcdb72c6	-0.026788127
159	0xbcbd68df	-0.023121295
160	0x3db3754d	0.08762608
161	0xbc03ad58	-0.008036934
162	0xbd88f649	-0.066876
163	0xbd15d974	-0.036584333
164	0x3da1c363	0.07898595
165	0xbbd55ce8	-0.0065113194
166	0x3d7b902a	0.061416782
167	0xbc18f2fd	-0.009335277
168	0xbd291f3f	-0.041289564
169	0xbdaf04b3	-0.08545818
170	0xbd1a91a0	-0.037736535
171	0xbd23caaa	-0.039988197
172	0xb8d997ac	-0.000103756174
173	0xbe456c67	-0.19279633
174	0xbd8cbae4	-0.06871584
175	0xbd80b5db	-0.06284686
176	0x3db700d4	0.08935705
177	0xbd524fe0	-0.051345706
178	0x3d30ccaa	0.043163933
179	0xbe5413d2	-0.20710686
180	0x3d734a11	0.059396807
181	0xbb2fd8e0	-0.0026832148
182	0xbcb1f7c6	-0.021724593
183	0x3c881cf1	0.016615363
184	0x3cfdd96c	0.030987464
185	0xbdab932b	-0.083776794
186	0x37fed197	3.0376757e-05
187	0xbda05998	-0.07829589
188	0x3c4811d0	0.012211278
189	0xbe1c4143	-0.1525927
190	0xbe3b86e6	-0.18313178
191	0x3d5b6316	0.053561293
192	0xbccb2b91	-0.024801048
193	0xbd5c368a	-0.05376295
194	0xbd12b7de	-0.03581988
195	0xbd660c9e	-0.056164376
196	0x3dbd54d0	0.09244692
197	0xbe053f28	-0.13012373
198	0x3d9460cf	0.07245027
199	0xbce526a3	-0.027972525
200	0x3d865b9e	0.06560443
201	0xbe28bb2f	-0.16477655
202	0x3d7c603b	0.06161521
203	0xbb88e117	-0.0041772234
204	0xbd30c2be	-0.04315447
205	0xbd1f29fa	-0.03885839
206	0x3c67dadd	0.014151302
207	0xbdd91bac	-0.10600981
208	0xbdbebb1d	-0.09313033
209	0xbad93fbd	-0.0016574782
210	0x3ca36b2d	0.019948566
211	0xbd380fe8	-0.044937044
212	0xbdb61a28	-0.08891708
213	0x3be8a65c	0.0070999097
214	0x3a9a1678	0.0011755964
215	0x3dab728f	0.0837146
216	0xbe16a635	-0.1471184
217	0xbe0e1e4f	-0.1387875
218	0xbc8d47a8	-0.017246082
219	0x3d4f7c3a	0.05065558
220	0xbe9ff2f4	-0.31240046
221	0x3dbd30da	0.09237833
222	0xbd63f476	-0.055653058
223	0xbe0b272f	-0.13589166
224	0xbd19b083	-0.03752185
225	0x3dad1844	0.08451894
226	0xbd0fc99f	-0.03510439
227	0xbd2e23e6	-0.042514704
228	0xbcc21843	-0.02369321
229	0xbdec7389	-0.11545474
230	0xbdd892ee	-0.105748996
231	0x3c309838	0.010778479
232	0x3dbc3d85	0.091914214
233	0xbe0371ed	-0.12836428
234	0x3d26e845	0.040748853
235	0xbda67a2c	-0.08128771
236	0x3d9fa8eb	0.077958904
237	0xbdc06b13	-0.09395423
238	0x3ba6fb99	0.0050959107
239	0x3d02f878	0.03197524
240	0x3d3e973a	0.04653094
241	0xbd49022e	-0.049074344
242	0x3d162a5c	0.03666149
243	0xbdb5a047	-0.08868461
244	0xbe3f060e	-0.18654653
245	0x3d62b690	0.055349886
246	0xbca02a03	-0.019551283
247	0xbbba19f8	-0.0056793652
248	0x3d0eec6e	0.034893446
249	0x3cb25b21	0.02177197
250	0x3c6ad640	0.014333308
251	0xbd3ba7ab	-0.045814198
252	0x3cd04815	0.025424996
253	0xbc2c548f	-0.010518207
254	0xbc4f318c	-0.01264609
255	0xbd7fbfd7	-0.062438812

bias f4 [256]
0	0xb9cd6797	-0.00039177827
1	0x3b5da004	0.00338173
2	0x3e1bbf1f	0.15209626
3	0xbd672505	-0.05643179
4	0x3e8dff1b	0.27733693
5	0xbd9bb3fa	-0.07602687
6	0xbd4a654b	-0.049413007
7	0x3e420c7f	0.1895008
8	0x3e449675	0.1919802
9	0xbd13b6c9	-0.03606299
10	0xbd5a8cc1	-0.05335689
11	0x3d12ec6c	0.03587
12	0xbd2cb324	-0.04216303
13	0xbd21af5e	-0.039473884
14	0x3efb288d	0.49054375
15	0x3ed59a7f	0.41719434
16	0xbd7b2d12	-0.06132228
17	0xbd836afd	-0.06416891
18	0x3ebbc744	0.36675465
19	0xbca50f9c	-0.020149045
20	0xbd737a0c	-0.059442565
21	0xbdc0f52c	-0.09421763
22	0xbce5a3d5	-0.028032223
23	0x3edd71ea	0.43250972
24	0x3dd09b4b	0.1018587
25	0xbd421f2c	-0.04739301
26	0xbd933f06	-0.07189755
27	0xbdbdb107	-0.09262281
28	0x3f089310	0.533494
29	0x3f27a41b	0.6548478
30	0xbd9e4957	-0.07728832
31	0x3eb6fa7f	0.35737988
32	0xbc89625b	-0.016770532
33	0x3dd4e095	0.10394398
34	0x3d8c6489	0.06855113
35	0x3d973daf	0.07384812
36	0xbd951280	-0.07278919
37	0x3e1e17a8	0.15438712
38	0x3d0fdb1f	0.03512108
39	0xbd4bb966	-0.049737357
40	0x3daed4fa	0.08536716
41	0xbda14231	-0.07873953
42	0xbb4daa1c	-0.003138191
43	0x3e0ee7a0	0.13955545
44	0x3eb72a08	0.35774255
45	0x3e96076d	0.2930254
46	0xbc80b712	-0.015712295
47	0xbd518f22	-0.051161893
48	0xbdafc959	-0.08583326
49	0x3e5134f8	0.20430362
50	0x3e6b3185	0.22968109
51	0xbd236bb4	-0.039897636
52	0x3f117e1a	0.5683304
53	0x3e3b4981	0.18289758
54	0xbd996e10	-0.07491696
55	0x3ecc3f93	0.39892253
56	0xbd3d280f	-0.04618078
57	0xbce02cd8	-0.027365133
58	0x3e47f08e	0.19525358
59	0xbd02da20	-0.0319463
60	0xbd7125ab	-0.058873814
61	0xbd2b9caa	-0.041897453
62	0xbd8e7ce3	-0.06957414
63	0xbd41ae87	-0.047285583
64	0xbd71d394	-0.059039667
65	0xbd3dcf65	-0.046340365
66	0xbdcc976d	-0.0998982
67	0xbd8d4f32	-0.06899871
68	0x3e8d5ac7	0.2760832
69	0xbc75bf00	-0.014999151
70	0x3f19de82	0.60105145
71	0xbd7a1ab4	-0.061060622
72	0xbd19224c	-0.037386224
73	0x3cd8e2d3	0.026475346
74	0xbddea97f	-0.108721726
75	0xbd40fb16	-0.047114454
76	0xbd894c72	-0.06704034
77	0x3ef541d7	0.47901794
78	0x3f2a0853	0.6641895
79	0xbda2c05b	-0.07946845
80	0x3ea55a08	0.3229525
81	0xbdb90e66	-0.090359494
82	0xbd5818b3	-0.05275793
83	0xbdd1ca36	-0.10243647
84	0xbd556278	-0.05209586
85	0xbca885bc	-0.020571582
86	0xbcf538a4	-0.029934235
87	0xbd931933	-0.07182541
88	0xbcb77237	-0.02239333
89	0x3e62f2b3	0.22162895
90	0x3bcc2b7f	0.006230771
91	0xbce953ea	-0.028482396
92	0x3f17fdcd	0.59371644
93	0xbd514566	-0.051091574
94	0x3f68af59	0.9089256
95	0xbcbc03be	-0.022951003
96	0xbd31bd3c	-0.04339336
97	0xbdac26fc	-0.08405873
98	0xbdb062d8	-0.08612603
99	0xbce344a2	-0.027742688
100	0x3ec9948d	0.39371148
101	0xbd7ad3c9	-0.06123713
102	0xbd334e78	-0.043776006
103	0xbd9977ef	-0.07493579
104	0x3f22571d	0.63414174
105	0x3e7572e2	0.23969606
106	0xbd30d52e	-0.043172054
107	0xbd40079a	-0.04688225
108	0xbdb424cb	-0.0879608
109	0xbdddd829	-0.10832245
110	0xbbd3f11f	-0.006467953
111	0x3f1c09bc	0.60952353
112	0xbd10762c	-0.035268947
113	0x3d99ec12	0.0751573
114	0xbda1aa31	-0.078937896
115	0x3e8996fa	0.26872998
116	0xbdc2ed43	-0.0951791
117	0xbd1a4845	-0.037666578
118	0x3e99f7f7	0.30071995
119	0x3a79cc0c	0.00095290015
120	0xbce60c00	-0.028081894
121	0x3edf37f7	0.43597385
122	0x3f2371ec	0.63845706
123	0x3c97d895	0.018535892
124	0x3f0ed6d9	0.5579658
125	0x3e647afa	0.22312537
126	0xbd825211	-0.06363309
127	0x3e8abfe5	0.2709953
128	0xbd96d072	-0.073639765
129	0xbd9b4775	-0.07581989
130	0xbd06cbd6	-0.032909237
131	0x3e28923d	0.16462035
132	0xbd2df70c	-0.04247193
133	0xbd80d4d7	-0.06290596
134	0xbe29b80e	-0.16574118
135	0xbc5a3dda	-0.013320411
136	0x3e3d182a	0.18466249
137	0xbda03a8e	-0.078236684
138	0xbca8bfba	-0.020599235
139	0xbd25618b	-0.040376227
140	0xbdb59a2d	-0.08867297
141	0xbe25b3f2	-0.16181925
142	0xbdc003a2	-0.09375693
143	0x3de9c68a	0.114148214
144	0xbe956c6f	-0.2918429
145	0xbd30c8d3	-0.04316027
146	0x3c45c511	0.01207091
147	0x3f7044f1	0.93855196
148	0x3efc3c1a	0.49264604
149	0xbd4e03ac	-0.05029647
150	0xbdbfc321	-0.0936339
151	0xbcfc32b9	-0.030785905
152	0x3f10f08d	0.5661705
153	0xbccf592a	-0.025311071
154	0xbd110e35	-0.03541394
155	0x3e628ae1	0.2212329
156	0x3ec60c64	0.38681328
157	0xbc1b83e2	-0.0094918925
158	0xbd73fdc4	-0.05956818
159	0xba158ae2	-0.0005704594
160	0xbd5b1f1d	-0.05349647
161	0xbd05c28a	-0.03265623
162	0xbdc1d684	-0.09464744
163	0xbdac1514	-0.08402458
164	0x3e707862	0.23483422
165	0x3ef366d0	0.47539377
166	0xbd83e6ae	-0.06440483
167	0xbbb6e697	-0.0055816877
168	0xbd1062e8	-0.035250574
169	0x3ed013a7	0.40639994
170	0xbc8b6e16	-0.017020267
171	0x3e890ca9	0.2676747
172	0x3ddce7fa	0.107864335
173	0x3df3c0dc	0.119020194
174	0x3e8f7472	0.28018528
175	0x3ec6aa03	0.38801584
176	0xbd2bce01	-0.041944508
177	0xbd5a3755	-0.053275425
178	0x3e1a94e4	0.1509586
179	0x3ac9bc6b	0.0015391236
180	0x3e741b4a	0.23838535
181	0x3e5ef979	0.21774854
182	0x3eb4b26c	0.35292375
183	0xbdc7a1e2	-0.097476736
184	0x3e093919	0.13400687
185	0xbd558544	-0.052129045
186	0xbe9997ab	-0.29998526
187	0xbc04a200	-0.008095264
188	0xbdf319c9	-0.118701525
189	0xbd16d90d	-0.03682809
190	0xbd75cbed	-0.060008932
191	0x3e450395	0.19239648
192	0xbf06e2f0	-0.5269003
193	0xbe01806e	-0.12646648
194	0x3ea004da	0.312537
195	0xbd5b26ed	-0.05350392
196	0xbd8b1e95	-0.067929424
197	0xbd9e0a62	-0.07716824
198	0xbb1a0c43	-0.0023505844
199	0x3f134d5b	0.5753991
200	0xbd9cc615	-0.07654969
201	0xb9e4423b	-0.00043536894
202	0x3dcee284	0.10101798
203	0xbd982dd2	-0.074306145
204	0xbce94eed	-0.028480018
205	0x3e8de4cb	0.27713618
206	0xbbe100b9	-0.006866541
207	0xbdbd3870	-0.0923928
208	0x3ecb7e86	0.39744967
209	0x3d81f776	0.063460276
210	0xbdb0e859	-0.08638067
211	0xbd1cdf23	-0.038298737
212	0xbbeeef42	-0.0072917053
213	0xbd0ac353	-0.033877682
214	0xbcb636d7	-0.022242947
215	0x3eb56025	0.35424915
216	0xbd22ed95	-0.039777357
217	0xbf344701	-0.70420843
218	0x3e9b9406	0.3038637
219	0xbd304603	-0.04303552
220	0xbd75117e	-0.059831135
221	0xbd80c1be	-0.062869534
222	0x3e0acda0	0.13555002
223	0x3e95cb7b	0.29256806
224	0xbd227b3e	-0.039668314
225	0xbd48c05c	-0.049011573
226	0xbda28802	-0.07936098
227	0xbc49af9c	-0.012309935
228	0x3f08a6c9	0.53379494
229	0xbbc2c311	-0.005943664
230	0xbead191c	-0.3380822
231	0x3de120a9	0.109925576
232	0xbecd3bc0	-0.40084648
233	0xbd5d201b	-0.053985696
234	0x3ede7370	0.43447447
235	0x3ea1ee56	0.31627148
236	0xbd764724	-0.06012644
237	0x3b8878bc	0.0041647833
238	0xbd886544	-0.0665994
239	0xbc15c1c9	-0.00914044
240	0xbd45a360	-0.04825151
241	0xbd35a82d	-0.044349838
242	0x3e9a186d	0.3009676
243	0xbdbdc5bf	-0.09266233
244	0xbd7a4901	-0.06110478
245	0x3f04fd34	0.5194886
246	0xbdd627f3	-0.104568385
247	0xbde013f3	-0.10941305
248	0xbcea9b0a	-0.028638382
249	0xbc9e6a95	-0.019337932
250	0x3e540623	0.20705466
251	0xbd6c1dde	-0.05764567
252	0x3f188067	0.59570926
253	0xbe0bca97	-0.136515
254	0xbd0289a2	-0.031869538
255	0x3e61868f	0.22023986

weight f4 [256, 256]
0	0x3d77eab6	0.060526572
1	0xbd5577ce	-0.052116208
2	0x3e1ae9ad	0.15128203
3	0xbb229418	-0.002480751
4	0x3ea60197	0.32423088
5	0xbc2dff4f	-0.010619952
6	0xbccfd972	-0.02537224
7	0xbeb0d7d3	-0.3453966
8	0x3e3a0c36	0.1816872
9	0xbcb7967a	-0.02241062
10	0xbd2164c5	-0.039402742
11	0x3c2013fe	0.0097703915
12	0x3cb1d145	0.021706233
13	0xbd97c38c	-0.074103445
14	0xbd069291	-0.03285462
15	0x3dec7f18	0.11547679
16	0xbd75f863	-0.060051333
17	0x3d19f2a2	0.03758491
18	0xbe805da9	-0.25071457
19	0x3d08308b	0.03324942
20	0x3acaf887	0.0015485444
21	0xbc650938	-0.013979249
22	0x3c16c293	0.009201664
23	0xbc8cf99e	-0.01720887
24	0xbd6ddcae	-0.058071785
25	0xbd3904ca	-0.045170583
26	0x3a90d738	0.0011050468
27	0xbda51666	-0.08060913
28	0x3dd23801	0.10264588
29	0x3de92c6a	0.113854244
30	0xbca22b81	-0.019796135
31	0xbe22d417	-0.15901218
32	0x3d3d7157	0.046250667
33	0x3d4ae710	0.049536765
34	0xbe1e06bb	-0.15432255
35	0xbd0759af	-0.033044513
36	0x3d4a69cc	0.049417302
37	0xbe95343e	-0.2914142
38	0xbdc97d9a	-0.0983841
39	0xbd69566c	-0.056967184
40	0xbca2b26f	-0.019860474
41	0xbd976cc7	-0.073937945
42	0x3db42353	0.087958
43	0xbe865eeb	-0.26244292
44	0x3e07eb3f	0.13273333
45	0x3def4d4c	0.11684665
46	0x3d189d71	0.037259523
47	0x3cc20612	0.023684535
48	0x3d03fe63	0.032225024
49	0x3e345d2f	0.17613672
50	0xbe5ece1d	-0.21758313
51	0xbd3ed737	-0.046591964
52	0x3e307b6f	0.17234586
53	0x3e979acc	0.29610288
54	0x3c9fb0d0	0.01949349
55	0x3e2d4ec0	0.16924572
56	0x3c8b5a82	0.01701093
57	0xbd77bc5b	-0.060482364
58	0xbdbf5e1d	-0.093441226
59	0xbd9b0d69	-0.07570917
60	0x3d3bffee	0.04589837
61	0x3d8eff0b	0.06982239
62	0x3cc9ffd9	0.02465813
63	0x3c6cdbfd	0.014456746
64	0x3d4271da	0.04747186
65	0xbda33024	-0.079681665
66	0xbd58efde	-0.05296313
67	0xbcbdc48f	-0.023165016
68	0x3e41abf9	0.18913259
69	0xbd37fd1e	-0.044919126
70	0xbea85f14	-0.3288504
71	0x3d040e2b	0.032240074
72	0x3cb2f990	0.021847516
73	0x3db98022	0.090576425
74	0x3d5d6c95	0.05405863
75	0x3d9540dd	0.07287762
76	0xbd28f859	-0.041252468
77	0x3e9ce87c	0.30646122
78	0xbe00dac7	-0.12583457
79	0x3ded6d02	0.11593057
80	0xbd6ba12a	-0.057526745
81	0xbd0544b4	-0.032536224
82	0xbd67b227	-0.056566384
83	0xbd4a223f	-0.049349066
84	0xbdb47a75	-0.08812419
85	0x3cb6ee2e	0.02233037
86	0x3d59243a	0.053013064
87	0xbd8af97a	-0.06785865
88	0xbdbf3d00	-0.09337807
89	0xbe31f5de	-0.17378947
90	0xbd04ffcb	-0.032470506
91	0x3de6cf33	0.11269989
92	0x3d5f0bb3	0.054454517
93	0x3d942365	0.072333135
94	0x3ea7bf49	0.32763126
95	0x3d69908b	0.057022613
96	0x3ba738aa	0.0051031904
97	0xbdba8edd	-0.0910928
98	0xbcb8e39b	-0.022569468
99	0xbae6dbe6	-0.0017613142
100	0xbe9db552	-0.308024
101	0xbd056879	-0.032570336
102	0x3ca88cbe	0.020574924
103	0x3c8497bb	0.016185632
104	0x3dec48aa	0.11537297
105	0x3ef47c46	0.47751063
106	0x3cc6fb1c	0.02428966
107	0xbd035370	-0.032061994
108	0x3d63dc0e	0.055629782
109	0xba2b440e	-0.0006533273
110	0xbcd2114a	-0.02564301
111	0x3d11ab75	0.035563905
112	0xbd4a7305	-0.049426097
113	0x3d9d0c74	0.07668391
114	0xbd4a8d04	-0.04945089
115	0x3df369b0	0.11885393
116	0xbcb188ce	-0.021671679
117	0xbd397c38	-0.04528448
118	0x3e465b24	0.19370705
119	0x3d3307f2	0.04370875
120	0x3de81bfc	0.113334626
121	0x3ee6362a	0.449632
122	0xbcf429ee	-0.02980515
123	0xbd7533b2	-0.059863754
124	0x3d892942	0.066973224
125	0xbd95c269	-0.073124714
126	0xbca85c70	-0.02055189
127	0x3ea23a87	0.31685278
128	0xbceedce2	-0.02915806
129	0xbce728e5	-0.028217742
130	0xbcb46ef3	-0.022025561
131	0x3e8ecf32	0.27892452
132	0x3bb6e945	0.005582007
133	0x3c044b4c	0.008074593
134	0xbca66079	-0.020309674
135	0x3d1932ed	0.037402082
136	0xbf188238	-0.595737
137	0x3d2e2f23	0.04252542
138	0xbcdbd72b	-0.026835999
139	0x3c362887	0.011118061
140	0xbd723dd3	-0.05914099
141	0x3e7ecf4a	0.24883762
142	0xbdc2ac9d	-0.095055796
143	0xbd845714	-0.06461921
144	0xbe2fbba6	-0.17161426
145	0xbcc46c84	-0.023977526
146	0x3bacbd41	0.0052715843
147	0x3e2d2e70	0.16912246
148	0x3ea45958	0.32099414
149	0x3cba819b	0.022766879
150	0x3c80fd22	0.015745703
151	0x3d80374d	0.06260548
152	0x3e19481b	0.14968912
153	0x3bfaf84a	0.007658993
154	0x3d1a7506	0.03770926
155	0x3e047880	0.12936592
156	0x3e517cbd	0.2045774
157	0xbc7f9ef2	-0.01560186
158	0x3dd9576c	0.106123775
159	0xbcfcc497	-0.03085546
160	0x3d6f3c0f	0.058406886
161	0x3daa5adc	0.08318111
162	0x3d82ade9	0.06380827
163	0xbd1e5f53	-0.038665127
164	0x3ecb0f31	0.39660028
165	0x3c907bb7	0.017637117
166	0xbbefa72b	-0.007313629
167	0x3dd895e4	0.10575464
168	0xbd097f7c	-0.033568844
169	0x3ccdd91b	0.025127938
170	0x3b813725	0.0039433413
171	0x3c22c750	0.009935215
172	0x3bc82f35	0.006109143
173	0xbd18b7c8	-0.037284642
174	0x3f62e98e	0.88637626
175	0x3dc042af	0.09387719
176	0x3c2beed7	0.010493956
177	0x3d66634b	0.056247037
178	0xbb083160	-0.0020781383
179	0x3c61c7a4	0.013780508
180	0xbe7b2d1d	-0.24528928
181	0xbcc2d4fc	-0.0237832
182	0xbd84d26b	-0.064854465
183	0x3d83c88e	0.06434737
184	0x3dd78d09	0.10524947
185	0x3cab99af	0.020947305
186	0x3d2bced6	0.0419453
187	0xbd7728bd	-0.060341585
188	0xbc8c366c	-0.017115794
189	0x3d789d68	0.06069699
190	0x3c9c6948	0.01909317
191	0xbca49530	-0.02009067
192	0x3d44af90	0.048018992
193	0xbd089650	-0.033346474
194	0x3ea84612	0.3286596
195	0x3ce4a75c	0.027911834
196	0xbd0a7d6a	-0.03381101
197	0xbc8d7973	-0.017269826
198	0xbdc8552c	-0.0978187
199	0x3df2c472	0.11853875
200	0xbdc4cb41	-0.0960908
201	0x3d9e60b1	0.07733286
202	0xbe148e86	-0.14507493
203	0xbbc1c568	-0.0059134252
204	0xbd540d27	-0.051770356
205	0x3fc3615f	1.526409
206	0xbdad77de	-0.084701285
207	0xbc1f008e	-0.009704722
208	0x3dc4a4fe	0.09601782
209	0xbeb141cc	-0.34620512
210	0x3d36869c	0.044561967
211	0xbcb7fad0	-0.022458464
212	0xbc13f3d6	-0.009030303
213	0xbcf1cbff	-0.029516218
214	0xbc88676a	-0.016650874
215	0xbde3ae5c	-0.11117241
216	0x3d6ea011	0.05825812
217	0xbfb9b37c	-1.4507899
218	0x3f1a8c33	0.6037018
219	0xbda79088	-0.08181864
220	0xbd82780f	-0.063705556
221	0xbd8d72b4	-0.069066435
222	0x3e87891c	0.26471794
223	0x3e8d8edd	0.2764806
224	0xbd0fc573	-0.03510041
225	0x3db93ca9	0.09044773
226	0x3d522b42	0.051310785
227	0xbd51e6ea	-0.051245607
228	0x3ebf1c4a	0.3732627
229	0x3bb210c3	0.005434127
230	0xbf6fda50	-0.93692493
231	0xbe853f5e	-0.26024908
232	0xbd388c1b	-0.04505549
233	0xbd521ab8	-0.051295012
234	0x3d9aef73	0.075652026
235	0x3c054b67	0.008135653
236	0xbd569273	-0.05238576
237	0xbeda73a2	-0.42666346
238	0xbdd8b26c	-0.10580906
239	0x3cd2bb5c	0.025724106
240	0xbce4eef0	-0.027945966
241	0x3c367790	0.011136904
242	0x3c99e9fe	0.018788334
243	0x3bf9c4e4	0.007622348
244	0x3d0acad0	0.033884823
245	0x3e8a8960	0.27057934
246	0xbc0b0009	-0.008483895
247	0x3be7cfae	0.007074318
248	0xbc828d70	-0.015936583
249	0x3cd07398	0.025445744
250	0xbbbe07c5	-0.005799266
251	0xbcc3e498	-0.023912713
252	0xbccfca21	-0.025364937
253	0x3eb239b8	0.3480966
254	0x3c3b3fa6	0.011428749
255	0x3be91839	0.0071134833
