net10.pkl (torch_old, 801611 bytes, 10 tensors)

weight f4 [256, 3]
0	0xbd0b383e	-0.033989184
1	0x3c05a6fd	0.008157489
2	0x3c6d8f6c	0.0144995265
3	0x3e116d91	0.14201953
4	0xbe4cb544	-0.19991022
5	0xbde10adf	-0.109884016
6	0xbda6037b	-0.081061326
7	0xbe0ba6b4	-0.13637811
8	0xbe1aecc4	-0.15129381
9	0xbe1197bb	-0.14218037
10	0x3cfc819a	0.030823518
11	0x3cc5e655	0.024157682
12	0xbf0548e6	-0.5206436
13	0x3f0b201d	0.54345876
14	0x3e5cb234	0.21552354
15	0xbf11fbb8	-0.5702472
16	0x3eae5056	0.34045666
17	0x3f6da5f5	0.92831355
18	0xbe4998d6	-0.19687209
19	0x3e4af984	0.19821745
20	0x3df4bbcf	0.11949884
21	0xbf533f54	-0.82518506
22	0x3e98579e	0.29754347
23	0x3d4533b3	0.048145007
24	0x3ec06962	0.375804
25	0x3f64ed6d	0.89424783
26	0xbf4a1ad8	-0.7894721
27	0x3f8a144d	1.0787445
28	0xbe4dfce9	-0.20116009
29	0xbf270dd1	-0.6525546
30	0xbe92b367	-0.28652498
31	0x3e2b43d2	0.1672509
32	0x3dab9461	0.083779104
33	0x3dbbfe8d	0.09179411
34	0xbda386e0	-0.0798471
35	0xbd1f74ea	-0.038929857
36	0x3c812818	0.015766189
37	0xbce0bd39	-0.027433978
38	0x3b43d0e8	0.0029879157
39	0x3e06fcd0	0.13182378
40	0xbe4dab24	-0.20084816
41	0xbdeac47f	-0.1146326
42	0xbf091bc1	-0.53557974
43	0x3f985280	1.1900177
44	0xbf05d9ea	-0.52285635
45	0x3d8ee608	0.06977469
46	0x3ec58c15	0.38583437
47	0x3f386bf8	0.7203975
48	0x3d6097ee	0.05483239
49	0xbd8bc5e9	-0.06824858
50	0xbca5be55	-0.020232359
51	0x3f8f1dd7	1.1180981
52	0xbe5de503	-0.21669392
53	0xbf0d2e89	-0.5514913
54	0x3f482ad7	0.7819037
55	0x3f1f3f5a	0.6220604
56	0xbf81fdb7	-1.0155553
57	0xbc64df16	-0.013969203
58	0x3d37771b	0.044791322
59	0x3cdb922e	0.026803102
60	0x3f2688b0	0.6505232
61	0xbebf2382	-0.37331778
62	0xbe8fabaa	-0.28060657
63	0xbe327a92	-0.1742957
64	0x3dfcbcc0	0.12340689
65	0x3d844e52	0.06460251
66	0x3c401d45	0.011725728
67	0xbc5599ee	-0.013037188
68	0x3bbd7540	0.0057817996
69	0xbbcfd5fc	-0.0063426476
70	0xbd622835	-0.055214126
71	0xbc159165	-0.009128903
72	0xbf2667aa	-0.6500193
73	0x3f021a60	0.50821495
74	0xbe61b88f	-0.2204306
75	0xbf43a348	-0.7642102
76	0xbe34e99f	-0.17667244
77	0x3f7a73a7	0.9783272
78	0x3d9cca06	0.076557204
79	0xbd75467b	-0.05988167
80	0xbd0ac97b	-0.033883553
81	0xbde6eded	-0.112758495
82	0x3d9d0eca	0.076688364
83	0x3cc7b333	0.024377441
84	0x3f5c1721	0.8597279
85	0xbec8643e	-0.3913898
86	0xbe0292f8	-0.12751377
87	0x3f098776	0.5372232
88	0xbf0586f9	-0.52159077
89	0xbe8ab6a8	-0.2709248
90	0x3dbcdf5f	0.09222292
91	0x3e29d163	0.16583781
92	0x3e05c1cb	0.13062207
93	0xbf459bac	-0.7719066
94	0x3ea7cdcf	0.32774207
95	0xbdd2a832	-0.10285987
96	0xbe44e1d6	-0.19226775
97	0xbf5bd865	-0.85877067
98	0x3f2dfe07	0.6796574
99	0x3d9b445c	0.07581398
100	0xbd66bf10	-0.056334555
101	0xbc8e788f	-0.017391471
102	0xbe99c317	-0.30031654
103	0xbf8ac77b	-1.0842127
104	0x3e98e07b	0.29858765
105	0xbacfd9a9	-0.0015857714
106	0xbd736e87	-0.05943158
107	0xbc8b5499	-0.017008113
108	0x3d0bcba1	0.034129743
109	0xbe495368	-0.19660723
110	0xbe025cc0	-0.12730694
111	0xbf137d2b	-0.57612866
112	0x3f76dcb0	0.9643049
113	0x3eee6e48	0.46568513
114	0x3e535c16	0.20640597
115	0xbe27886a	-0.16360632
116	0xbda1220b	-0.07867821
117	0x3ec1a3f0	0.37820387
118	0xbf36cede	-0.71409404
119	0xbeda4498	-0.42630458
120	0x3e8f8874	0.28033793
121	0x3f21b0a3	0.6316015
122	0x3f1d1513	0.6136028
123	0x3ed976db	0.42473492
124	0x3dde2384	0.10846618
125	0xbd28529b	-0.041094404
126	0xbf1ecaa5	-0.6202796
127	0xbe4ec407	-0.20191966
128	0x3f764696	0.96201456
129	0x3d6a938b	0.057269614
130	0x3f24c57a	0.64363825
131	0x3f0dfdbc	0.5546529
132	0x3e964803	0.29351816
133	0xbe6e9bd8	-0.23301637
134	0xbe0a464f	-0.13503383
135	0x3f057d47	0.52144283
136	0xbe9c7b03	-0.305626
137	0x3eb91ade	0.3615331
138	0xbf3a153f	-0.7268867
139	0xbe9b5537	-0.3033845
140	0x3f394edd	0.7238596
141	0x3f96c378	1.1778402
142	0x3d912b9d	0.07088397
143	0xbe510b2f	-0.20414422
144	0x3d824d65	0.06362418
145	0xbde47f34	-0.111570746
146	0xbd8ff258	-0.07028645
147	0x3ec5f9d5	0.3866717
148	0xbede0d4e	-0.43369526
149	0x3f75428b	0.9580466
150	0x3f918266	1.136792
151	0xbebb291d	-0.36554804
152	0xbf362299	-0.7114654
153	0x3d07b1ab	0.03312842
154	0xbc631779	-0.013860577
155	0x3b524ba2	0.0032088538
156	0xbaf61704	-0.001877517
157	0xbb711b46	-0.0036789938
158	0x3bde311e	0.0067807576
159	0x3d79c0c4	0.06097485
160	0xbdb1916c	-0.08670315
161	0xbd3478a1	-0.044060353
162	0x3f48c13a	0.7841984
163	0x3f550a7d	0.8321913
164	0xbf216abd	-0.63053495
165	0x3cf29162	0.02961034
166	0xbd34c00c	-0.044128463
167	0xbc3a13ab	-0.011357228
168	0xbf233bc9	-0.637631
169	0x3efb3e50	0.49070978
170	0x3e758b5d	0.23978944
171	0x3ed12a2d	0.4085249
172	0xbe7cb113	-0.24676923
173	0xbe1784cb	-0.1479675
174	0x3dc9b77e	0.098494515
175	0xbd9b38fd	-0.07579229
176	0xb98bf2e9	-0.00026693128
177	0xbd0e81f3	-0.034791898
178	0xbcaa8f2d	-0.020820225
179	0xbbb281be	-0.0054475954
180	0x3dffbcc4	0.12487176
181	0xbdfdec43	-0.12398579
182	0xbd426765	-0.047461886
183	0x3f209af1	0.6273642
184	0x3d9416be	0.072309
185	0x3f30b465	0.6902526
186	0xbe9d0148	-0.3066504
187	0x3e4718a2	0.1944299
188	0x3dc2a7cf	0.09504663
189	0xbd8b48e4	-0.06801012
190	0x3d3262b0	0.043551147
191	0x3d086d2e	0.033307247
192	0xbd8c0130	-0.06836164
193	0xbcacc836	-0.021091562
194	0xbb430da6	-0.0029762774
195	0x3f6f91c5	0.935818
196	0xbf839614	-1.0280175
197	0x3e6d3a0d	0.23166676
198	0x3f3fc900	0.74916077
199	0x3f080a1d	0.5314043
200	0xbda869b2	-0.08223285
201	0x3ce8619c	0.028366856
202	0xbdc61702	-0.09672357
203	0xbd153432	-0.03642673
204	0xbf4d6d53	-0.8024494
205	0x3f482551	0.7818194
206	0x3d985a37	0.07439082
207	0x3d24f778	0.040275067
208	0xbd77c546	-0.06049087
209	0xbd3ab61f	-0.04558384
210	0x3f13b2f3	0.5769493
211	0xb974633e	-0.00023306624
212	0xbd13a681	-0.036047462
213	0x3ed88ab0	0.4229331
214	0xbe85db40	-0.26143837
215	0xbccd532c	-0.025064074
216	0xbc01c678	-0.007920854
217	0xbc726ed1	-0.0147969285
218	0xbbb2b5b3	-0.005453789
219	0x3d9497e5	0.07255534
220	0xbfa0ab1e	-1.2552221
221	0x3f09e337	0.5386233
222	0xbecd13b0	-0.40054083
223	0xbf5243d0	-0.82134724
224	0x3e37febe	0.1796827
225	0x3e0f4234	0.13990098
226	0xbe351ebf	-0.1768751
227	0xbdfb4c21	-0.1227038
228	0x3de0a91c	0.10969755
229	0xbc681e68	-0.014167406
230	0x3c8e1c8e	0.0173476
231	0xbd9f7583	-0.077860855
232	0x3f0e18f8	0.5550685
233	0x3ed70cff	0.42002103
234	0xbe4e75ff	-0.201622
235	0x3da0a3dd	0.078437544
236	0x3d251ff0	0.04031366
237	0x3e9b5ecf	0.3034577
238	0xbf6deb32	-0.92937005
239	0xbeb322ed	-0.34987584
240	0x3e05541f	0.13020371
241	0xbde7fda9	-0.11327679
242	0xbd837e6d	-0.06420598
243	0x3f9d4b3e	1.2288587
244	0xbe9e7769	-0.30950478
245	0xbeef210c	-0.467049
246	0xbec1a817	-0.37823555
247	0xbea03dec	-0.31297243
248	0x3f99aa5a	1.2005112
249	0xbe5a0ba2	-0.212935
250	0x3e4c342e	0.1994178
251	0x3df56f98	0.119841754
252	0x3eca3148	0.39490724
253	0x3f279b61	0.65471464
254	0x3de840f5	0.113405146
255	0xbf349e9c	-0.7055452

bias f4 [256]
0	0x3bd2ea00	0.0064365864
1	0x3dc52fb0	0.09628236
2	0x3e84a5c1	0.2590771
3	0x3d8ae8be	0.06782673
4	0xbe2653a6	-0.16242847
5	0xbf01eb3a	-0.5074955
6	0xbdae9efc	-0.085264176
7	0x3ea1477c	0.3149985
8	0xbe05520a	-0.13019577
9	0xbd4df7a2	-0.05028499
10	0x3c28ea90	0.01030983
11	0x3cf4d030	0.029884428
12	0x3c4c40c5	0.012466614
13	0x3df0b176	0.11752598
14	0xbd4356cc	-0.047690198
15	0xbf4fd859	-0.81189495
16	0x3d250291	0.04028565
17	0xbe169baf	-0.14707826
18	0xbc836411	-0.016038926
19	0xbd0fb1ca	-0.035081662
20	0x3ce73d37	0.028227432
21	0xbcb8a31e	-0.022538718
22	0x3c235f50	0.009971455
23	0x3d74332e	0.05961912
24	0x3e8f722d	0.28016797
25	0xbe02ea95	-0.12784798
26	0x3c8ad617	0.01694779
27	0x3c2dc34b	0.0106056435
28	0xbe5b9ed1	-0.21447302
29	0x3e3af345	0.18256862
30	0xbe860b14	-0.26180327
31	0x3ec43d94	0.3832823
32	0x3e28a302	0.16468433
33	0x3ce356ad	0.027751291
34	0x3f2793b5	0.6545976
35	0x3d6938c0	0.056938887
36	0x3e4c9592	0.19978932
37	0xbf217cd0	-0.63081074
38	0x3d263e23	0.040586602
39	0x3f01ba19	0.5067459
40	0xbf6aff84	-0.91796136
41	0xbea71281	-0.32631305
42	0xbe43fa80	-0.19138527
43	0xbf563512	-0.8367473
44	0x3d9dbada	0.07701655
45	0xbed5b5b4	-0.4174019
46	0x3e03d838	0.1287545
47	0xbf231d3f	-0.637165
48	0x3db1ef61	0.08688236
49	0xbf3c01c5	-0.734402
50	0x3dda9ccf	0.1067444
51	0xbb87c5a2	-0.0041434327
52	0xbaf37ba5	-0.0018576278
53	0x3d527dfa	0.05138967
54	0xbf0f3047	-0.5593304
55	0x3c494c1b	0.012286211
56	0xbd8df84b	-0.06932124
57	0x3bdeffdf	0.0068054046
58	0xbb5b281c	-0.0033440655
59	0x3d32e904	0.043679252
60	0x3d5136c7	0.05107763
61	0xbf55c6b3	-0.83506316
62	0x3b7f3487	0.003894122
63	0xbae3431c	-0.0017338726
64	0x3d918e87	0.07107263
65	0xbe0712ff	-0.1319084
66	0xbf393da4	-0.7235968
67	0x3d9adbcb	0.075614534
68	0xbc895035	-0.016761879
69	0x3d2c4cf0	0.04206556
70	0xbeb186f5	-0.34673277
71	0xbd90536b	-0.07047161
72	0x3c94b981	0.018154861
73	0x3e9dc928	0.30817533
74	0x3f22fa8c	0.63663554
75	0x3ddf8bc4	0.1091533
76	0xbd89e56b	-0.06733211
77	0xbf1ddbc0	-0.61663437
78	0x3d4d3b48	0.050105363
79	0x3f21bcdb	0.63178796
80	0x3d323d3d	0.043515433
81	0xbe4e3e35	-0.20140918
82	0xbeda1d6e	-0.42600578
83	0xbd8fac94	-0.070153385
84	0xbf3b8428	-0.7324853
85	0x3e67dd9f	0.22643135
86	0xbf472388	-0.7778859
87	0xbd6b9b23	-0.057520997
88	0xbf1f177f	-0.6214523
89	0x3e9cd10a	0.30628234
90	0x3f76118f	0.9612054
91	0xbdc71ae5	-0.097219266
92	0x3e24d84c	0.16098136
93	0x3d1bb08b	0.03801016
94	0x3f1894b8	0.59601927
95	0x3f1a0e74	0.60178304
96	0xbd75e55c	-0.060033187
97	0xbf0dff3c	-0.5546758
98	0x3d412680	0.047155857
99	0xbf3ab431	-0.729312
100	0xbf50b5b6	-0.8152727
101	0x3d60114e	0.054704003
102	0x3cfcdfee	0.030868497
103	0x3dd5f9a0	0.10448003
104	0x3da9694d	0.08272038
105	0x3ee48c77	0.44638416
106	0xbe8daacd	-0.27669373
107	0x3bbd344d	0.005774057
108	0x3d0213a3	0.03175701
109	0x3f1769e8	0.59145975
110	0xbc39fdd8	-0.011352025
111	0xbeefdb07	-0.46846792
112	0x3d702669	0.05863038
113	0xbeca15a7	-0.39469644
114	0x3d7d209d	0.06179868
115	0x3f05b2c2	0.5222589
116	0xbe6fed2e	-0.2343032
117	0x3e2ce2ec	0.16883439
118	0x3dcfa45d	0.10138772
119	0x3f45a31a	0.77202
120	0x3c09d852	0.008413391
121	0x3e0d3ea3	0.13793425
122	0x3d534d86	0.051587604
123	0x3f3d46a9	0.73935944
124	0x3c4c4c2f	0.012469335
125	0x3f647cb8	0.89252806
126	0x3e960603	0.29301462
127	0x3ce7ed49	0.028311389
128	0x3dafd501	0.08585549
129	0xbc3c2c28	-0.011485137
130	0x3cae272a	0.02125891
131	0xbdda78d4	-0.106675774
132	0x3e0df03a	0.1386117
133	0xbc183744	-0.00929052
134	0x3e1c4113	0.15259199
135	0x3d1df046	0.03855922
136	0x3b8bab06	0.004262331
137	0xbf2ce549	-0.6753736
138	0x3da0a32d	0.07843623
139	0x3f74b712	0.95591843
140	0xbd97e838	-0.07417339
141	0xbd34bedc	-0.04412733
142	0xbe6f5265	-0.23371275
143	0x3f5bd350	0.8586931
144	0x3d3fabe2	0.04679478
145	0x3d1d1877	0.03835341
146	0x3e5df417	0.21675144
147	0x3ef199a3	0.47187528
148	0xbeed3045	-0.4632589
149	0xbedf7567	-0.43644258
150	0x3c3b3bc5	0.011427824
151	0xbe79cea9	-0.24395241
152	0xbf0820d6	-0.53175104
153	0x3de02fdf	0.10946631
154	0xbd7b59aa	-0.061364807
155	0xbd62dd85	-0.05538704
156	0xbb9c2dc3	-0.0047661974
157	0xbd2117c6	-0.039329313
158	0xbdd3aa4e	-0.103352174
159	0xbcdd56cc	-0.027018927
160	0x3d1abb3d	0.03777622
161	0x3cf044bd	0.029329652
162	0x3dacc48d	0.084359266
163	0x3b280285	0.0025636267
164	0x3f37ab5b	0.7174584
165	0xbf0011fd	-0.5002745
166	0xbedd84f7	-0.43265507
167	0xbb8aa9ea	-0.004231681
168	0xbcc09b58	-0.023511574
169	0xbd924a11	-0.07143033
170	0x3f09db2c	0.53850055
171	0x3ef6fce5	0.48239818
172	0x3c7f7daf	0.01559393
173	0x3edadb95	0.42745653
174	0xbef696db	-0.4816197
175	0xbdb9419e	-0.090457186
176	0xbc564b7e	-0.013079522
177	0x3d92c07b	0.07165619
178	0x3d8119dd	0.06303761
179	0xbe8f35a0	-0.279706
180	0xbe8a81a2	-0.27052027
181	0x3ea3632b	0.31911597
182	0xbb548dfc	-0.0032433262
183	0x3db7b98d	0.08970938
184	0xbe9b6dd3	-0.30357227
185	0xbbe7fb14	-0.0070794914
186	0xbd050299	-0.03247318
187	0xbd1ced19	-0.03831205
188	0x3d189794	0.03725393
189	0x3d703c26	0.058651112
190	0xbbb9ec36	-0.0056739105
191	0xbe3b171a	-0.18270531
192	0x3dba34a2	0.0909207
193	0xbb7af3ab	-0.003829221
194	0x3ef2a23f	0.4738941
195	0x3e580c6e	0.21098492
196	0xbcd30e3a	-0.02576362
197	0xbc477a30	-0.012175128
198	0x3e6454dc	0.22297996
199	0xbc52f84a	-0.01287658
200	0x3b93cf52	0.0045107985
201	0xbd083978	-0.03325793
202	0x3d0776f4	0.033072427
203	0xbea9dcb3	-0.33176193
204	0xbeb5e512	-0.3552633
205	0xbabb7515	-0.0014301861
206	0xbefc6d55	-0.49302164
207	0x3c8ec3d6	0.017427366
208	0xbc17e7e1	-0.009271593
209	0xbdceb15d	-0.10092423
210	0xbcdcf80e	-0.02697375
211	0x3f39686b	0.72424954
212	0x3f3430d8	0.7038703
213	0xbdc08201	-0.09399796
214	0x3d3e0173	0.0463881
215	0x3d8135b9	0.06309075
216	0x3cdf9e96	0.0272973
217	0xbf72020a	-0.9453436
218	0xbb8acd2b	-0.0042358837
219	0x3d3751c1	0.0447557
220	0xbc2bc615	-0.010484238
221	0xbdcfa6fb	-0.10139271
222	0x3f451b45	0.76994735
223	0x3f7583b6	0.959041
224	0x3cbbbc7b	0.022917023
225	0x3e8702b3	0.26369247
226	0xbb7c9d0e	-0.003854576
227	0x3ecf6c4f	0.4051232
228	0x3f4f183e	0.80896366
229	0x3ef993b5	0.48745504
230	0xbee8ecf8	-0.45493293
231	0x3da22ab5	0.07918302
232	0x3b867848	0.004103694
233	0xbf786aaa	-0.97037756
234	0xbd0c1618	-0.034200758
235	0x3efeefaa	0.49792224
236	0xbca264ee	-0.019823518
237	0x3d962c3f	0.07332658
238	0xbcad105d	-0.021125967
239	0x3d477dd0	0.04870397
240	0xbccc5d33	-0.024946785
241	0x3e1a757e	0.15083882
242	0xbe510d67	-0.20415269
243	0x3e349fb3	0.17639045
244	0x3d06cfda	0.032913066
245	0x3f2bc7d2	0.67101777
246	0x3c84c655	0.016207853
247	0xbc92b941	-0.017910602
248	0xbebb0af6	-0.365318
249	0x3e345a04	0.17612463
250	0x3ea81388	0.328274
251	0xbd09b268	-0.033617407
252	0xbc3c4113	-0.011490124
253	0xbf29e8ca	-0.6637083
254	0x3f472a3f	0.7779884
255	0xbd18fd5e	-0.037351005

weight f4 [256, 256]
0	0x3de0f388	0.1098395
1	0x3e466f9a	0.1937851
2	0x3cf1899e	0.029484566
3	0xbe35c49b	-0.1775078
4	0xbd935e96	-0.07195775
5	0xbdeab291	-0.1145984
6	0x3bf9974f	0.0076169143
7	0xbc51d1a1	-0.012806327
8	0xbdbf03ac	-0.09326872
9	0x3e0c945c	0.1372847
10	0xbdb1a044	-0.08673146
11	0x3e9190be	0.28430742
12	0xbe917cca	-0.2841552
13	0xbe2bfebe	-0.16796395
14	0x3e448ca7	0.1919428
15	0xbe5aabbd	-0.21354575
16	0x3d59981c	0.05312358
17	0x3e3a6fe4	0.18206745
18	0xbe3f4e2e	-0.18682167
19	0xbe23e3dc	-0.1600489
20	0xbdee2fd7	-0.116302185
21	0x3e2f9094	0.17144996
22	0x3e2357b6	0.15951428
23	0xbe3f34d2	-0.18672493
24	0xbd5b94fc	-0.05360888
25	0xbe45df44	-0.1932345
26	0x3e5d20ba	0.21594515
27	0xbd076aed	-0.033060957
28	0x3de4acb0	0.1116575
29	0xbdf13b61	-0.11778904
30	0xbd5be57f	-0.05368566
31	0xbd97a4f1	-0.07404507
32	0xbe5e76d7	-0.21725021
33	0x3d387595	0.04503401
34	0xbea03d1c	-0.31296623
35	0xbd9b8d0b	-0.07595261
36	0x3c6c7530	0.014432237
37	0xbe0d5f00	-0.13805771
38	0x3ccfee08	0.025382057
39	0xbe623c2e	-0.22093269
40	0x3d3c7c1d	0.0460168
41	0x3d4df39e	0.05028116
42	0xbee04aa0	-0.43806934
43	0x3d19042c	0.037357494
44	0x3d87d5df	0.066325895
45	0x3df2c4db	0.118539535
46	0xbe282007	-0.16418467
47	0xbe1107c2	-0.14163116
48	0xbe33e02f	-0.17565988
49	0x3e16a07d	0.14709659
50	0x3e18b041	0.14910986
51	0xbe651a2e	-0.22373268
52	0xbd817481	-0.063210495
53	0xbd595fa3	-0.053069722
54	0x3e1c69c2	0.15274718
55	0xbd02a374	-0.031894162
56	0x3e5453b1	0.2073505
57	0xbd232627	-0.039831307
58	0x3e48c4d6	0.19606337
59	0xbdcc0885	-0.099625625
60	0x3de84807	0.11341863
61	0xbcb7fcca	-0.022459406
62	0xbe1443d9	-0.14479007
63	0x3e1e9bf8	0.15489185
64	0x3d1c1f82	0.038115986
65	0x3e2ab8eb	0.16672103
66	0xbd263a1d	-0.040582765
67	0xbe407186	-0.18793306
68	0xbd14d319	-0.03633413
69	0x3e891dce	0.26780552
70	0xb7e71d3c	-2.755096e-05
71	0xbe0b8809	-0.13626112
72	0x3e59bf6c	0.21264428
73	0xbd884860	-0.066544294
74	0xbd4b1a1f	-0.049585458
75	0xbcd27d49	-0.025694506
76	0xbe563db8	-0.20921981
77	0x3e498ec7	0.19683371
78	0x3b6f5712	0.0036520404
79	0x3d937ba2	0.072013155
80	0xbe08af92	-0.13348225
81	0x3e0d2138	0.13782203
82	0x3d469e88	0.04849103
83	0x3e29f39a	0.16596833
84	0x3caa7acd	0.02081051
85	0x3db37d61	0.087641485
86	0xbe19fd63	-0.15038066
87	0x3d9ec6b3	0.077527426
88	0x3e5c64b6	0.21522793
89	0xbd1e02c3	-0.038576853
90	0xbd7c838e	-0.061648898
91	0xbe288fc3	-0.1646109
92	0xbd214412	-0.039371558
93	0x3d25b8b4	0.04045935
94	0x3e6afd73	0.22948246
95	0xbd925900	-0.07145882
96	0xbe17ebbd	-0.14836021
97	0xbdb58286	-0.08862786
98	0xbd3783f6	-0.044803582
99	0xbe49f5e0	-0.197227
100	0x3c8ddf00	0.017318249
101	0x3e1c8000	0.15283203
102	0xbd18d5f0	-0.0373134
103	0xbcabcaf6	-0.020970803
104	0xbd90288d	-0.070389844
105	0x3e1fc403	0.15602116
106	0x3dd19c34	0.102348715
107	0x3cf53bf7	0.02993582
108	0xbe1dd306	-0.1541253
109	0xbed74548	-0.42045045
110	0x3f020c1d	0.50799733
111	0xbd7ac1f5	-0.061220128
112	0xbd5e7523	-0.05431093
113	0x3ce18c2a	0.027532656
114	0xbdf9d84b	-0.12199458
115	0xbdefc3fc	-0.11707303
116	0xbb7218f7	-0.003694115
117	0xbdf519dd	-0.11967824
118	0x3d183e14	0.037168577
119	0x3d478725	0.04871287
120	0x3d82d682	0.0638857
121	0xbda9a9ba	-0.08284326
122	0x3e141ce2	0.14464143
123	0xbd3a9b4f	-0.04555827
124	0x3d1aa6fa	0.037756898
125	0x3d94ae72	0.07259835
126	0x3d30b498	0.043140978
127	0x3ca3cc64	0.019994922
128	0xbceae3cc	-0.028673075
129	0xbe84e8a3	-0.25958738
130	0xbedb7584	-0.42863095
131	0x3dbce4f4	0.09223357
132	0x3e8349a6	0.25642127
133	0x3e4efc32	0.20213392
134	0x3ec3b8d9	0.38226965
135	0xbd1cc7f6	-0.038276635
136	0xbd19aea5	-0.03752007
137	0xbe9c50b4	-0.30530322
138	0xbdd044c7	-0.10169368
139	0xbd5f23da	-0.05447755
140	0xbc862437	-0.01637469
141	0xbccbed40	-0.024893403
142	0xbe39b28f	-0.18134521
143	0x3da4e0a6	0.08050661
144	0x3c0373b7	0.008023194
145	0x3da28a89	0.0793658
146	0xbe367af4	-0.1782034
147	0x3e215d6c	0.15758294
148	0x3e226514	0.1585887
149	0xbcf667b3	-0.030078745
150	0x3d0e4bbf	0.034740206
151	0xbd9a02e9	-0.07520086
152	0x3d1072bc	0.03526567
153	0xbe5d458e	-0.21608564
154	0x3e2f7ff2	0.17138651
155	0x3da02b4d	0.07820759
156	0xbe611f1a	-0.2198452
157	0x3ea81034	0.32824862
158	0x3dc39b68	0.09551126
159	0x3de84301	0.11340905
160	0x3e0bf602	0.13668063
161	0x3e417377	0.18891703
162	0x3e2849d6	0.16434416
163	0xbe537b83	-0.20652585
164	0xbc27b7ca	-0.01023669
165	0xbe19f93e	-0.15036485
166	0x3de530bb	0.11190935
167	0xbc5e9076	-0.013584247
168	0xbe32556a	-0.17415395
169	0xbd614be6	-0.055004023
170	0xbc6827c1	-0.014169634
171	0x3e484e6c	0.19561166
172	0x3e389a44	0.18027598
173	0xbece8382	-0.40334707
174	0xbeddbc91	-0.43307927
175	0xbe8422a9	-0.25807694
176	0xbd14a961	-0.036294345
177	0xbd45758f	-0.048207816
178	0x3c0d9389	0.008641132
179	0x3c683756	0.014173349
180	0xbd88cc2d	-0.066795684
181	0x3c6610b8	0.014042072
182	0x3eb3b3a0	0.3509798
183	0xbc7e5a64	-0.0155244805
184	0xbd9fc88a	-0.07801922
185	0xbdbb23c5	-0.09137682
186	0xbe80d580	-0.25162888
187	0x3dc51c35	0.09624521
188	0x3e0d0598	0.13771665
189	0xbdc974be	-0.0983672
190	0xbd1d227c	-0.038362965
191	0x3d7ba506	0.061436675
192	0x3de3f690	0.111310124
193	0x388d449c	6.7361834e-05
194	0xbe6c1785	-0.23055847
195	0xbed887e9	-0.4229119
196	0xbd8269f1	-0.06367863
197	0x3de3bf81	0.11120511
198	0xbe166a54	-0.14688998
199	0xbe74d2e6	-0.23908576
200	0x3d414bee	0.047191553
201	0xbd97a9a8	-0.07405406
202	0xbd21ae0f	-0.039472636
203	0x3e36235b	0.17786925
204	0x3d80b17f	0.06283855
205	0x3def76a9	0.116925545
206	0x3e39f231	0.18158795
207	0xbd9fdbf9	-0.07805628
208	0xbe32d3db	-0.17463629
209	0xbd76e3ad	-0.060275722
210	0xbd42fd8e	-0.04760509
211	0xbd28e5c2	-0.04123474
212	0x3dfe6c1c	0.12422964
213	0xbce71a3b	-0.02821075
214	0xbeab1d7d	-0.33420935
215	0xbd0024d6	-0.03128513
216	0xbea89f68	-0.32934117
217	0x3db0b7eb	0.086288296
218	0x3e2dff06	0.16991815
219	0x3d94ee19	0.07271976
220	0x3e0e37cb	0.13888471
221	0xbe3a63ab	-0.18202083
222	0xbdd92ee1	-0.106046446
223	0xbcd74069	-0.02627583
224	0xbe191722	-0.1495023
225	0x3d48ac33	0.048992347
226	0x3cab9af6	0.020947915
227	0xbe4df337	-0.2011231
228	0xbe2e0dd1	-0.16997458
229	0x3de3f5b1	0.11130846
230	0x3d7004ca	0.058598317
231	0x3e0efb8c	0.13963145
232	0x3ce5e817	0.02806477
233	0x3b96e291	0.0046046455
234	0x3c843f59	0.016143488
235	0xbdf298d7	-0.11845558
236	0xbe7122f5	-0.23548491
237	0xbe54e32c	-0.20789784
238	0xbdc23ba2	-0.0948403
239	0xbf0ce6ea	-0.55039847
240	0x3eab2ae7	0.3343117
241	0x3d25307a	0.040329434
242	0xbd84c1ba	-0.06482263
243	0xbe00216e	-0.12512752
244	0x3e472b10	0.19450021
245	0xbdf64bf1	-0.120262034
246	0xbe1d23d5	-0.153457
247	0xbd753e3e	-0.059873812
248	0x3e1347af	0.14382814
249	0x3db602c5	0.08887247
250	0x3ec65f82	0.38744742
251	0x3e9a2129	0.30103424
252	0xbe96fb82	-0.2948876
253	0x3d784072	0.060608335
254	0x3e5589eb	0.20853393
255	0xbcff8f9e	-0.031196412

bias f4 [256]
0	0x3e33ae96	0.17547068
1	0xbe102a87	-0.14078723
2	0x3f732baa	0.949885
3	0xbef0442e	-0.46927017
4	0xbf713034	-0.9421418
5	0x3f1ecdcf	0.6203279
6	0xbe605fcd	-0.21911545
7	0xbf80e5b7	-1.0070103
8	0xc0b9f00b	-5.810552
9	0xbf05ba24	-0.52237153
10	0xc0dccd04	-6.9000263
11	0x3d4c2943	0.049844038
12	0x3d86cbca	0.065818384
13	0xbf098657	-0.5372061
14	0xbebd76cd	-0.370047
15	0xbebb632e	-0.36599106
16	0x3de84f60	0.113432646
17	0xbf180903	-0.5938875
18	0xbf76c208	-0.9638982
19	0x3d20584b	0.039146703
20	0xbfa4f913	-1.2888511
21	0x3ddb13c0	0.106971264
22	0x3e2ec20d	0.17066212
23	0x3ec7b6b1	0.3900657
24	0xbf1afc3b	-0.60541123
25	0xbe8098ce	-0.2511658
26	0x3dea0409	0.11426551
27	0xbeee134f	-0.46499106
28	0xbb9bb0b9	-0.0047512916
29	0xbde5a695	-0.112134136
30	0xbf3464b6	-0.7046617
31	0x3e853510	0.26017046
32	0x3e09e274	0.13465291
33	0x3e8de065	0.27710262
34	0xbeb92526	-0.36161155
35	0xbefc6c0c	-0.49301183
36	0xbe71c671	-0.23610856
37	0xbfa57672	-1.2926772
38	0x3d26c196	0.04071196
39	0xbed7749c	-0.42081153
40	0xbcd4af21	-0.025962414
41	0xbe233aa6	-0.15940341
42	0x3daf4a03	0.085590385
43	0xbe88ec7f	-0.26742932
44	0xbeb94cd4	-0.36191428
45	0xbef88f3e	-0.48546785
46	0xbf112ab4	-0.56705785
47	0xbf84448e	-1.0333421
48	0xbf628c87	-0.8849568
49	0x3e692643	0.22768502
50	0xbe356f5d	-0.17718263
51	0x3e2c6eb2	0.16839102
52	0xbda3f8a7	-0.08006411
53	0xbdddaa34	-0.10823479
54	0x3d31c1b6	0.043397628
55	0xbc26185a	-0.010137642
56	0xbde603c4	-0.11231187
57	0xbe47aea5	-0.19500215
58	0x3d0118ec	0.031517908
59	0x3dda86f6	0.10670273
60	0x3f0ebdaa	0.55758154
61	0x3f00040a	0.50006163
62	0xc0d85194	-6.7599583
63	0x3e12efe2	0.1434932
64	0xbf0ca2d5	-0.5493596
65	0x3d835bb4	0.06413975
66	0xbf30a2e8	-0.68998575
67	0x3e0fc6b8	0.14040649
68	0x3f6bd111	0.92115885
69	0x3e18b6fd	0.14913554
70	0xbf11903b	-0.56860703
71	0xbf604f7d	-0.8762129
72	0x3eb675fc	0.3563689
73	0xbf0a2834	-0.53967595
74	0xbe6489bc	-0.22318166
75	0x3e8587a5	0.2608005
76	0x3e031b05	0.12803276
77	0x3d211f4f	0.0393365
78	0xbe20cc1c	-0.15702862
79	0x3d5f1507	0.054463413
80	0xbcd4bea8	-0.025969818
81	0xbddfac98	-0.109215915
82	0x3e6f5250	0.23371243
83	0xbc12bc1e	-0.008955983
84	0xbeb42a97	-0.35188743
85	0x3e413014	0.18865997
86	0x3df9c819	0.12196369
87	0x3f735544	0.9505198
88	0xbdf5eb2c	-0.12007746
89	0xbf1b186a	-0.6058413
90	0x3f63cb98	0.88982534
91	0xbe4a1bf2	-0.19737223
92	0x3e71922d	0.23590918
93	0xc0dac972	-6.8370905
94	0xbe8596d3	-0.26091632
95	0xbee3ee62	-0.4451781
96	0x3e53b0fd	0.20672984
97	0xbed7ede5	-0.42173687
98	0x3d7cc5a3	0.06171192
99	0xbf60cfc9	-0.87817055
100	0xbef60af7	-0.4805524
101	0xbe3ebd5a	-0.1862692
102	0xbe853e88	-0.2602427
103	0x3ddf9e6a	0.10918887
104	0xbfaff6db	-1.3747209
105	0xbe03a8eb	-0.12857406
106	0xbd4158a0	-0.04720366
107	0xbebf6734	-0.37383425
108	0xbe7ebafa	-0.24876013
109	0xbf950b6e	-1.1644113
110	0xbed78034	-0.4209
111	0xbf95a95b	-1.1692308
112	0x3e09cb42	0.13456443
113	0xbd0d0d8e	-0.034436755
114	0x3deeb675	0.11655895
115	0x3e1cf4b5	0.15327723
116	0xbf15246f	-0.5825872
117	0xbe8edf35	-0.27904668
118	0xc09afce4	-4.8433704
119	0xbe1c3039	-0.1525277
120	0x3eaac753	0.33355197
121	0xbf8d7fdb	-1.1054643
122	0x3ece7143	0.40320787
123	0x3d789c53	0.060695957
124	0xbe9d3cf2	-0.3071056
125	0xc0daa12b	-6.832174
126	0x3e240653	0.16018037
127	0xbeb1661f	-0.34648225
128	0xbf269a89	-0.6507955
129	0x3f4f923a	0.810825
130	0xbf0865fa	-0.53280604
131	0xbf763479	-0.96173817
132	0xbe869b9c	-0.26290596
133	0xbb3d87e3	-0.0028920106
134	0xc0ddf359	-6.9359555
135	0xbe0d70c6	-0.13812551
136	0xc055cbeb	-3.3405712
137	0xbee20e2b	-0.44151434
138	0xc0bdaf5a	-5.927655
139	0x3eb78aa7	0.3584797
140	0xc0da7c7f	-6.8276973
141	0x3e237a34	0.15964586
142	0xbec5ec3f	-0.38656804
143	0x3f676f0f	0.90403837
144	0xc01ea5c7	-2.4788682
145	0xbf1494aa	-0.58039343
146	0xbe4687af	-0.19387697
147	0xbebf6a32	-0.37385708
148	0xbf1871b7	-0.59548515
149	0x3d80c86d	0.06288228
150	0xc00a390e	-2.1597323
151	0xbf8f5d8d	-1.1200424
152	0xbd7af003	-0.06126405
153	0x3dc06917	0.09395044
154	0xbdf03ae3	-0.11729982
155	0xbde3d201	-0.111240394
156	0xbeddedef	-0.4334559
157	0x3e576c7d	0.21037479
158	0x3d548f77	0.05189463
159	0xbf2e0c18	-0.67987204
160	0x3e8ef8f3	0.27924308
161	0xbf0af45f	-0.5427913
162	0xc0b99beb	-5.800283
163	0xbf350f40	-0.70726395
164	0xbaaefd4a	-0.0013350633
165	0xbfa03d6f	-1.2518748
166	0xbf522dc2	-0.8210107
167	0xbe824688	-0.25444436
168	0xbefc1f3a	-0.49242574
169	0xbe6504eb	-0.22365157
170	0xbe150149	-0.14551271
171	0xbf2964ab	-0.6616923
172	0xbf0b0a80	-0.54312897
173	0x3abd4651	0.0014440512
174	0xbe68c446	-0.22731122
175	0x3e5dcec9	0.21660914
176	0x3e5ba133	0.21448211
177	0x3f59141e	0.8479632
178	0xbcfbc1c0	-0.030732036
179	0xbedf046f	-0.4355807
180	0xbf01815c	-0.5058801
181	0xbea961c6	-0.33082408
182	0xbf1bc61c	-0.60849166
183	0x3d976624	0.07392529
184	0x3e9f352a	0.31095248
185	0xbc91acfd	-0.017782683
186	0xbf2cd68b	-0.67514867
187	0x3e42f2ac	0.19037884
188	0xbf0d0798	-0.5508971
189	0xbcda6b16	-0.02666239
190	0xc0738f93	-3.805638
191	0x3df72abb	0.12068697
192	0x3e50ed73	0.2040308
193	0x3e9e0de5	0.30869976
194	0xbf8b0719	-1.0861541
195	0xbf46ac44	-0.77606606
196	0xc0db5484	-6.854067
197	0xc0dd0605	-6.906985
198	0x3b910fe5	0.0044269436
199	0xbee78058	-0.45215106
200	0x3e1fc87c	0.15603822
201	0xbe70bfcf	-0.23510669
202	0xbe321e8f	-0.1739447
203	0xbeb73c2e	-0.357881
204	0xc0d65552	-6.697915
205	0x3f48256c	0.781821
206	0x3f5be58f	0.85897154
207	0x3dd88019	0.10571308
208	0x3d9d35a7	0.07676249
209	0x3c749272	0.014927493
210	0xbd0c4a28	-0.03425041
211	0xbe322e8b	-0.17400567
212	0x3e7a2144	0.24426752
213	0xbfa50066	-1.2890747
214	0xbdbd657f	-0.092478745
215	0xbf13cbd5	-0.577329
216	0x3eec6efd	0.46178427
217	0xbd7cccc4	-0.061718717
218	0x3dcd51f4	0.10025397
219	0x3e9516df	0.29119012
220	0xbcbd2340	-0.023088098
221	0xbe790f13	-0.24322157
222	0x3e02a06d	0.1275651
223	0x3e13ca55	0.14432652
224	0x3e69be85	0.22826584
225	0x3d951670	0.0727967
226	0x3e879237	0.2647874
227	0x3f531ba0	0.8246403
228	0xbf3d877c	-0.7403486
229	0xbe691cef	-0.22764944
230	0xc09978cb	-4.795995
231	0xbea059ba	-0.31318456
232	0xbf4f698f	-0.81020445
233	0x3b968dc0	0.0045945346
234	0x3ecb9c9f	0.3976793
235	0xbdb373a5	-0.08762292
236	0xbf4b0946	-0.79311025
237	0x3d615676	0.055014096
238	0xbe96af18	-0.2943046
239	0x3e2199b3	0.15781288
240	0xc0122575	-2.2835362
241	0xbd03ad39	-0.03214762
242	0xbe97fe3f	-0.29686162
243	0xbe0ae444	-0.13563639
244	0x3e83fd6c	0.25779283
245	0xbe323c90	-0.17405915
246	0xbe3e23f8	-0.18568408
247	0x3ebd87c4	0.37017643
248	0x3ee08bec	0.43856752
249	0xbeb1ff25	-0.34764972
250	0x3b09ddd4	0.002103676
251	0xbd91b5e5	-0.07114772
252	0xbf289cd2	-0.6586429
253	0xbf3c17a7	-0.7347359
254	0xbf2b16cd	-0.66831666
255	0x3da37dc2	0.07982971

weight f4 [256, 256]
0	0x3dde5178	0.10855383
1	0xbfbcfd0f	-1.4764727
2	0x3d75b668	0.05998841
3	0xbd866839	-0.06562848
4	0x3c6d379c	0.01447859
5	0x3d3346c8	0.043768674
6	0x3cef78d8	0.029232427
7	0x3dd9ba7a	0.10631271
8	0x3eb357c0	0.35027885
9	0xbe52228d	-0.20520993
10	0x3ec77861	0.3895903
11	0xbd13664b	-0.035986226
12	0x3e23d114	0.15997726
13	0x3e95cde2	0.2925864
14	0x3dde68b8	0.10859817
15	0x3da77b12	0.08177771
16	0xbe11d34a	-0.14240757
17	0x3e334d56	0.1750997
18	0xbe2a6f5f	-0.16644047
19	0xbd1074f0	-0.03526777
20	0x3ecb5ce6	0.39719313
21	0x3df795a4	0.120890886
22	0x3dd706f5	0.10499374
23	0xbdcbdf5b	-0.09954711
24	0x3ed5379e	0.41643995
25	0xbca0d823	-0.019634312
26	0x3d904b14	0.0704557
27	0x3efe3b31	0.49654534
28	0x3d165244	0.03669955
29	0xbc340a85	-0.010988836
30	0x3e7a1641	0.24422552
31	0xbe6453d0	-0.22297597
32	0x3e466750	0.19375348
33	0x3ec7a02f	0.38989398
34	0xb9da6094	-0.00041652157
35	0x3ed2ad4d	0.41147843
36	0x3d8bf6d2	0.068341866
37	0x3ecdef9c	0.4022187
38	0x3cc74447	0.02432455
39	0xbe328e19	-0.17437018
40	0xbf38796a	-0.72060263
41	0x3d9de88a	0.07710369
42	0x3f218bfc	0.63104224
43	0x3d209a1d	0.039209474
44	0x3e95a5f2	0.2922817
45	0xbd3c0418	-0.04590234
46	0x3eace591	0.33768895
47	0x3e79f34d	0.24409218
48	0x3ef5c4a8	0.480016
49	0xbe3b9762	-0.18319467
50	0xbd818f27	-0.06326132
51	0xbce93a74	-0.028470255
52	0xbd982701	-0.074293144
53	0xbfb109cb	-1.3831114
54	0x3d8a3b8f	0.06749641
55	0xbe0265a1	-0.12734081
56	0xbefbe67e	-0.4919929
57	0x3f056eb9	0.52122074
58	0xbc6c4422	-0.014420541
59	0x3dceb3df	0.100929014
60	0xbe27c9dd	-0.16385598
61	0xbe3e1b04	-0.18564993
62	0x3ee980bf	0.45606038
63	0x3e28056f	0.16408323
64	0x3ed5f266	0.41786498
65	0x3d6ae714	0.05734928
66	0xbec858c4	-0.39130223
67	0xbb8351d4	-0.0040075574
68	0x3dc744ed	0.097299434
69	0xbc91433d	-0.017732257
70	0x3ef1350a	0.47110778
71	0x3ed1bf38	0.409662
72	0xbe8a9fdc	-0.27075088
73	0x3eaf3335	0.34218755
74	0xbe3bf20e	-0.18354055
75	0xbcbd73b1	-0.023126455
76	0xbc1fcbb0	-0.009753153
77	0xbe503c86	-0.20335588
78	0xbf0e34bc	-0.55549216
79	0x3d4cf9f9	0.05004308
80	0xbdb7e4ae	-0.08979164
81	0xbd0dc2d1	-0.03460962
82	0xbd23154c	-0.039815232
83	0x3d9f9d51	0.077936776
84	0xbcae5663	-0.021281427
85	0x3e91ad37	0.28452465
86	0x3e4804fa	0.19533148
87	0xbd2c3c2e	-0.04204958
88	0xbda81b74	-0.08208361
89	0x3e662fc2	0.22479156
90	0x3db5f169	0.08883936
91	0x3e098970	0.13431334
92	0xbd782abf	-0.06058764
93	0x3ee223fc	0.4416808
94	0x3e175d73	0.14781742
95	0xbe33d05b	-0.1755995
96	0x3dfe9ed0	0.12432635
97	0x3e575c09	0.21031202
98	0xbdb0d7df	-0.08634924
99	0x3ead93f6	0.33901948
100	0x3dfddc1a	0.12395497
101	0x3d0c8115	0.03430279
102	0x3d8a883b	0.06764265
103	0xbe441d7f	-0.19151877
104	0x3e98af9a	0.29821473
105	0xbf103712	-0.5633403
106	0xbd9a5447	-0.07535606
107	0x3e2897ec	0.16464204
108	0xbf7d45f7	-0.9893488
109	0x3e6b030b	0.2295038
110	0xbe1d8edd	-0.1538653
111	0x3e9a6239	0.30153063
112	0xbe7d09ea	-0.24710813
113	0xbe1ec504	-0.15504843
114	0x3dd0d4a1	0.10196806
115	0x3da1e622	0.079052225
116	0x3eaebab5	0.3412682
117	0xbdb3b76a	-0.08775218
118	0x3e92524f	0.2857842
119	0xbe6182bc	-0.22022527
120	0xbd438f8a	-0.04774431
121	0x3e84acd9	0.25913122
122	0xbe24b23c	-0.16083616
123	0xbbb401be	-0.0054933717
124	0x3d88e114	0.06683555
125	0x3ec7199b	0.38886723
126	0x3e5e8dab	0.2173373
127	0xbe0972f2	-0.13422754
128	0x3e882ce1	0.2659674
129	0x3dd37bb8	0.10326332
130	0x3edc7fd0	0.43066263
131	0x3e93781e	0.2880258
132	0xbcb88a79	-0.022526966
133	0x3d84c553	0.06482949
134	0x3ef2546f	0.47330043
135	0xbe0f6c91	-0.14006259
136	0x3ef30c3c	0.47470272
137	0x3834f17b	4.314024e-05
138	0x3ebbbd8d	0.36668053
139	0x3d03f183	0.032212745
140	0x3ed1752d	0.4090971
141	0x3e046583	0.12929349
142	0x3f007417	0.5017714
143	0x3d8f0832	0.06983985
144	0x3ea98817	0.3311164
145	0x3ee53a75	0.44771162
146	0xbf55ff9f	-0.8359317
147	0x3d3c27be	0.04593634
148	0x3ed404d8	0.41409945
149	0x3e37d5d4	0.17952663
150	0x3e7b576a	0.24545065
151	0x3e65a4eb	0.22426192
152	0x3cbe83b3	0.023256158
153	0xbd9bdb1c	-0.07610151
154	0x3dddf2da	0.10837336
155	0x3d87552d	0.06608043
156	0x3c88a1d1	0.016678723
157	0xbc3b6b69	-0.011439183
158	0x3e0bf9bc	0.13669485
159	0x3eea57bd	0.45770064
160	0x3d0094b0	0.0313918
161	0xbd9999e2	-0.07500054
162	0x3eb391ad	0.3507208
163	0x3e7655f5	0.24056228
164	0x3b637355	0.0034706194
165	0x3ee09c59	0.43869284
166	0x3eb20797	0.34771416
167	0xbf550a40	-0.83218765
168	0x3f169904	0.58827233
169	0xbf53345a	-0.8250176
170	0xbf14f9ed	-0.58193856
171	0x3ea2d256	0.318011
172	0xbc448d5b	-0.011996592
173	0x3ea54222	0.32277018
174	0x3da7652e	0.08173595
175	0x3dac0f88	0.084014
176	0xbd8a9d9a	-0.06768341
177	0xbce6eb8c	-0.02818849
178	0x3cc9129d	0.024545008
179	0xbcdba573	-0.02681229
180	0x3c284d21	0.010272295
181	0xbe2ea477	-0.17054926
182	0x3ebcc90c	0.36872137
183	0xbb999495	-0.004686902
184	0xbf6e9569	-0.9319673
185	0x3e1018db	0.14071982
186	0xbde58fe2	-0.11209084
187	0x3e2b549b	0.16731493
188	0x3ea78000	0.32714844
189	0xbdf467b3	-0.119338416
190	0x3e7e0589	0.24806799
191	0xbc5cdf71	-0.013481007
192	0xbdedd928	-0.11613685
193	0xbd1812b4	-0.03712721
194	0x3dbcc764	0.09217718
195	0x3e8286cf	0.25493476
196	0x3ec9af03	0.39391336
197	0x3ecfb5a7	0.40568277
198	0x3d8ab9ec	0.06773743
199	0x3d358420	0.044315457
200	0x3d000974	0.031259015
201	0xbd1e556d	-0.038655687
202	0xbfaa8d40	-1.3324356
203	0xbe992ba5	-0.2991611
204	0x3ece9285	0.4034616
205	0x3d8d4455	0.06897799
206	0x3c468c69	0.012118437
207	0xbdb15dcc	-0.086604685
208	0x3d2a0407	0.041507747
209	0xbcf218cb	-0.029552838
210	0xbe851128	-0.25989652
211	0x3c848442	0.016176347
212	0x3dd2e3b2	0.10297336
213	0x3eb9a6bc	0.3626002
214	0x3d0a5c70	0.03377956
215	0x3d6ab322	0.05729974
216	0xbdcc5c28	-0.09978515
217	0x3e829b69	0.25509194
218	0x3d9e87c1	0.07740737
219	0xbded62c1	-0.115911014
220	0x3f30a1b8	0.68996763
221	0x3cff8cdf	0.031195102
222	0x3bb974b3	0.0056596636
223	0x3d799586	0.060933612
224	0x3e0874ec	0.13325852
225	0x3d128838	0.03577444
226	0xbe2588c9	-0.1616546
227	0xbda2fe5c	-0.079586715
228	0xbd9f3931	-0.0777458
229	0xbf1d28de	-0.61390483
230	0x3ecbf84c	0.39837873
231	0x3d65cac9	0.056101594
232	0xbe54e8d8	-0.20791948
233	0x3e108a57	0.14115272
234	0x3d8b0e00	0.0678978
235	0xbe33a77a	-0.17544356
236	0x3ea88d45	0.3292028
237	0x3c68fc5a	0.014220322
238	0x3da7c385	0.08191589
239	0x3d38ce55	0.04511865
240	0x3e7fa481	0.24965097
241	0xbe4df493	-0.20112829
242	0x3da8aa2b	0.08235582
243	0xbf10ec92	-0.5661098
244	0x3dddf387	0.10837465
245	0xbed66eb0	-0.41881323
246	0xbeb89829	-0.3605359
247	0x3e3ee720	0.18642855
248	0xbdf60b3c	-0.120138615
249	0xba8d15c0	-0.0010763928
250	0xbcc07a91	-0.023495944
251	0x3e642487	0.22279559
252	0xbe0fdc3e	-0.1404886
253	0x3eb11f28	0.34594083
254	0xbea086ca	-0.31352836
255	0xba81fe7d	-0.0009917762

bias f4 [256]
0	0xbf007a58	-0.5018668
1	0xbf176861	-0.59143645
2	0xbf12b80d	-0.5731209
3	0xbeb0103b	-0.34387383
4	0xbf09a214	-0.53762937
5	0xbecbcf47	-0.39806578
6	0xbe88481b	-0.26617512
7	0xbf04cfb0	-0.51879406
8	0xbf646709	-0.8921972
9	0xbf04002f	-0.5156278
10	0xbecb86a6	-0.39751166
11	0xbf61d04d	-0.88208467
12	0xbed58068	-0.4169953
13	0xbf020df5	-0.50802547
14	0xbec648e4	-0.38727486
15	0xbedccbc2	-0.43124205
16	0xbeb4e2f4	-0.35329401
17	0xbf08e2a4	-0.53470826
18	0xbf4fa81d	-0.81115896
19	0xbefa5a5e	-0.4889707
20	0xbee09f30	-0.4387145
21	0xbeed97f7	-0.46405002
22	0xbeb15a89	-0.34639385
23	0xbf3defb5	-0.7419389
24	0xbef44b1f	-0.47713563
25	0xbec1c015	-0.3784186
26	0xbef2ab07	-0.47396109
27	0x3de27f81	0.11059476
28	0xbf0cf595	-0.5506223
29	0xbf00fb1a	-0.5038315
30	0xbf10e6f3	-0.566024
31	0xbf34dcbe	-0.70649326
32	0xbf000f47	-0.5002331
33	0xbf019d1b	-0.5063035
34	0xbf03f6cc	-0.5154846
35	0xbf0aac85	-0.54169494
36	0xbf05dc55	-0.52289325
37	0xbf5f1819	-0.87146145
38	0xbf085762	-0.53258336
39	0xbf19eb5f	-0.6012477
40	0xbee420cd	-0.44556275
41	0xbf20d044	-0.6281779
42	0xbf09b5a4	-0.53792787
43	0xbedf07da	-0.43560678
44	0xbef803c5	-0.48440376
45	0xbf175e34	-0.5912812
46	0x3d0cdef2	0.034392305
47	0xbedc1639	-0.42985705
48	0xbefd3266	-0.49452513
49	0xbeace876	-0.33771104
50	0xbf0f59ae	-0.55996215
51	0xbf4e0365	-0.8047393
52	0xbf0772ba	-0.52909434
53	0xbf875393	-1.057238
54	0xbee9743f	-0.455965
55	0xbf039b42	-0.5140878
56	0xbefb0527	-0.49027368
57	0xbee588f9	-0.44831064
58	0xbf0bdb92	-0.5463191
59	0xbed7e89d	-0.42169657
60	0xbf6a4fc0	-0.9152794
61	0xbf17b9f5	-0.5926812
62	0xbf6072a6	-0.8767494
63	0xbf3559c4	-0.70840096
64	0xbf0c57d4	-0.54821515
65	0xbec85ac0	-0.39131737
66	0xbfb0d74a	-1.3815701
67	0xbee71785	-0.4513513
68	0xbf1f5169	-0.622336
69	0xbf1b7995	-0.60732394
70	0xbf1fa16e	-0.623557
71	0xbe0a7f8e	-0.13525221
72	0xbf28d9c6	-0.65957296
73	0xbf13d434	-0.5774567
74	0xbf2e39cb	-0.68056935
75	0xbf0d6a10	-0.55239964
76	0xbe5818bd	-0.21103187
77	0xbf08e834	-0.53479314
78	0xbf030b7d	-0.51189405
79	0xbed163f1	-0.40896562
80	0xbedd10df	-0.43176934
81	0xbf287c19	-0.6581436
82	0xbef60582	-0.48051077
83	0xbeb9db8a	-0.36300308
84	0xbf410b9c	-0.7540834
85	0xbf9ec0eb	-1.2402624
86	0xbe5e156f	-0.21687864
87	0xbf0850ea	-0.53248465
88	0xbef459bd	-0.47724715
89	0xbf4d851e	-0.80281246
90	0xbee0ca5a	-0.43904382
91	0xbf0d1203	-0.5510561
92	0xbec16e07	-0.37779257
93	0xbf01d729	-0.50718933
94	0xbed9911b	-0.4249352
95	0xbe4dce08	-0.20098126
96	0xbf31203f	-0.6918983
97	0xbefd05a1	-0.49418357
98	0xbf1867fb	-0.5953366
99	0xbf7dc269	-0.9912477
100	0xbee869f5	-0.4539334
101	0xbf82d830	-1.0222225
102	0xbf16fc6f	-0.58978933
103	0xbf492a30	-0.7858
104	0xbf20058a	-0.6250845
105	0xbf1a397c	-0.60243964
106	0xbf073a81	-0.52823645
107	0xbeb8ded7	-0.36107513
108	0xbf1634cc	-0.5867431
109	0xbecce30c	-0.40016973
110	0xbf05a150	-0.5219927
111	0xbf429fe8	-0.7602525
112	0xbeed5bc5	-0.46359077
113	0xbf2fd541	-0.68684775
114	0xbf8b7066	-1.0893676
115	0xbf2c1bfa	-0.6723019
116	0xbf686760	-0.9078274
117	0xbef3f1b5	-0.47645345
118	0xbf1f8ac0	-0.6232109
119	0xbf195a21	-0.5990315
120	0xbf05b20f	-0.5222482
121	0xbe1eb0df	-0.15497158
122	0xbedc9e4d	-0.43089524
123	0xbed3208b	-0.41235766
124	0xbece7d12	-0.40329796
125	0xbe742854	-0.23843509
126	0xbef37953	-0.475535
127	0xbf80f338	-1.0074224
128	0xbf1ef6c9	-0.62095314
129	0xbe85fb24	-0.26168168
130	0xbf030a43	-0.51187533
131	0xbeef4140	-0.4672947
132	0xbf017d34	-0.5058167
133	0xbee6c729	-0.45073822
134	0xbf190a0e	-0.5978097
135	0xbe2dc0a9	-0.16968025
136	0xbf22df5d	-0.63622075
137	0xbf028406	-0.509827
138	0xbec46c3a	-0.3836382
139	0xbfa0f266	-1.2573974
140	0xbf0f6ffa	-0.5603024
141	0xbee1af81	-0.4407921
142	0xbf81d659	-1.0143539
143	0xbebfce6b	-0.37462172
144	0xbf5a9ebd	-0.85398465
145	0xbf54375b	-0.82896966
146	0xbf02b95b	-0.5106408
147	0xbee5cfbf	-0.4488506
148	0xbf1057a8	-0.5638375
149	0xbf26a8f2	-0.6510154
150	0xbf6b170f	-0.9183206
151	0xbfe441cd	-1.7832581
152	0xbf01f2ca	-0.5076109
153	0xbe3753be	-0.17903039
154	0xbe4b2613	-0.19838743
155	0xbf405824	-0.7513449
156	0xbf7c58d3	-0.98573035
157	0xbf0eed28	-0.5583062
158	0xbedcbdeb	-0.43113646
159	0xbeb8bff6	-0.36083955
160	0xbf007a00	-0.5018616
161	0xbf80f15d	-1.0073658
162	0xbf0ea473	-0.5571968
163	0xbece1db0	-0.40257025
164	0xbf817637	-1.0114201
165	0xbf541e8b	-0.82859105
166	0xbf04544b	-0.5169112
167	0xbf09ccae	-0.5382794
168	0xbf23a5fd	-0.63925153
169	0xbed95722	-0.4244929
170	0xbf11cbb3	-0.56951445
171	0xbf1eccd3	-0.62031287
172	0xbe917b18	-0.28414226
173	0xbeac36bb	-0.33635506
174	0xbf066aea	-0.5250689
175	0xbf0e4a53	-0.5558216
176	0xbeeb59af	-0.4596686
177	0xbf09baed	-0.5380085
178	0xbf090f37	-0.5353884
179	0xbed13768	-0.40862584
180	0xbf277e90	-0.65427494
181	0xbe83020b	-0.25587496
182	0xbf17b24a	-0.5925642
183	0xbf0ac110	-0.5420084
184	0xbf263db7	-0.6493792
185	0xbf3c632d	-0.7358883
186	0xbf3e6631	-0.7437468
187	0xbf0f42fb	-0.5596158
188	0xbf048a1c	-0.5177324
189	0xbf91bb08	-1.1385202
190	0xbecb42a5	-0.39699283
191	0xbf0708be	-0.52747715
192	0xbf4cc8b8	-0.7999377
193	0xbf106509	-0.5640417
194	0xbf0e656e	-0.5562352
195	0xbf038787	-0.51378673
196	0xbf125ca7	-0.57172626
197	0xbf3b480b	-0.73156804
198	0xbf987e41	-1.191353
199	0xbf1a2be1	-0.60223204
200	0xbeb19ffa	-0.34692365
201	0xbec194c0	-0.378088
202	0xbf14be9c	-0.58103347
203	0xbf15c7ae	-0.5850781
204	0xbfa79f2c	-1.309545
205	0xbf248c2e	-0.642764
206	0xbf1aea47	-0.6051373
207	0xbf0421db	-0.5161416
208	0xbf17138c	-0.590142
209	0xbe0c6aab	-0.13712566
210	0xbef42c9d	-0.47690287
211	0xbfa3b9a3	-1.2791027
212	0xbec08adf	-0.3760595
213	0xbf3f94e9	-0.74836594
214	0xbee358a0	-0.44403553
215	0xbf0566ee	-0.52110183
216	0xbea4cc92	-0.32187325
217	0xbec5e74b	-0.38653025
218	0xbeba3cc9	-0.363745
219	0xbf0ad99e	-0.5423831
220	0xbf27763c	-0.65414786
221	0xbf063784	-0.5242846
222	0xbef903a4	-0.4863559
223	0xbe817d9d	-0.25291148
224	0xbee83f7d	-0.45360938
225	0xbf09abb6	-0.53777635
226	0xbf214525	-0.6299613
227	0xbf84fbe1	-1.0389367
228	0xbed0df85	-0.40795532
229	0xbecad968	-0.39618993
230	0xbf2a4364	-0.6650908
231	0xbf0372a9	-0.5134683
232	0xbf5fe884	-0.87464166
233	0xbf0d2210	-0.551301
234	0xbf049761	-0.51793486
235	0xbec819a5	-0.39082065
236	0xbee79b73	-0.45235786
237	0xbf2204cc	-0.6328857
238	0xbf0a1fac	-0.5395458
239	0xbeb7f12a	-0.3592618
240	0xbf0a9bb3	-0.5414383
241	0xbf83d455	-1.0299174
242	0xbf284a0a	-0.65737975
243	0xbedb430f	-0.428246
244	0xbee6c694	-0.45073378
245	0xbf190798	-0.5977721
246	0xbed00631	-0.40629724
247	0xbec72d3f	-0.38901708
248	0xbfa87fde	-1.3164022
249	0xbed3f036	-0.41394204
250	0xbf0f0f7e	-0.55883014
251	0xbf0383b1	-0.5137282
252	0xbf039df3	-0.51412886
253	0xbf5fef19	-0.8747421
254	0xbf17ade6	-0.5924972
255	0xbf7350df	-0.95045274

weight f4 [256, 256]
0	0xbd775d9a	-0.060392
1	0x3b4b7cf5	0.0031049822
2	0x3d9e3c15	0.077263035
3	0x3c210683	0.009828213
4	0x3db4793c	0.08812186
5	0x3daee2e2	0.08539368
6	0xbd69810f	-0.057007845
7	0xbce38ebf	-0.027778028
8	0xbda64eef	-0.08120524
9	0xbd7fd561	-0.062459353
10	0xbd6555e5	-0.05599012
11	0x3cfd2b41	0.030904414
12	0x3d9838f8	0.07432741
13	0x3c78d5c9	0.015187689
14	0x3d583c35	0.052791793
15	0x3df8248f	0.12116348
16	0x3d3ffdff	0.04687309
17	0x3e5b00a5	0.21386965
18	0xbb87eba4	-0.0041479636
19	0x3dfce08f	0.12347519
20	0xbd830f3a	-0.063993886
21	0x3e532b5b	0.20622008
22	0xbda0f8c9	-0.07859952
23	0xbbe4b69b	-0.006979776
24	0xbc380e67	-0.011233903
25	0xbd5775c9	-0.052602563
26	0xbd8a03cc	-0.067390054
27	0xbcf429fc	-0.029805176
28	0x3e29396d	0.16525812
29	0x3e184cdf	0.14873074
30	0x3cb69b2c	0.022290789
31	0xbdaa59b7	-0.08317893
32	0xbc8fdc1d	-0.017561013
33	0x3e2001da	0.15625706
34	0x3e3f468a	0.18679252
35	0x3d8e1d8a	0.06939228
36	0x3d5a025c	0.053224906
37	0x3d1550cd	0.03645401
38	0x3e4c7fae	0.19970581
39	0x3aad50e9	0.0013222966
40	0xbe005080	-0.12530708
41	0x3c8ae547	0.016955031
42	0x3db61778	0.08891195
43	0x3d9aabfd	0.075523354
44	0xbcc645a7	-0.024203135
45	0x3df3f8b8	0.11912674
46	0xbdc6b981	-0.09703351
47	0x3de54872	0.111954585
48	0x3db9020e	0.09033595
49	0xbdfe3427	-0.12412291
50	0xbcae5288	-0.021279588
51	0x3cce0ecc	0.02515354
52	0x3c99184a	0.01868834
53	0xbca28958	-0.019840881
54	0x3d56d8d1	0.052452866
55	0x3e851752	0.25994354
56	0x3dcf45c3	0.10120728
57	0x3d33263f	0.043737646
58	0x3d3d8c69	0.046276484
59	0xbcc50357	-0.024049444
60	0x3d313354	0.04326184
61	0xbd1e97ed	-0.038719106
62	0x3e1c721f	0.15277909
63	0x3d686c41	0.056743864
64	0xbddb2d17	-0.107019596
65	0xbc76ca0e	-0.015062822
66	0x3cb48877	0.022037728
67	0x3ceb9253	0.028756296
68	0x3d1a33cf	0.037647065
69	0x3e669a35	0.22519763
70	0xbdb592e5	-0.088659085
71	0xbda93594	-0.08262172
72	0xbe11a597	-0.14223324
73	0x3dd4ba4e	0.10387097
74	0x3dd53f82	0.10412504
75	0x3d516855	0.05112489
76	0xbdc9ec18	-0.098594844
77	0x3d76cbe6	0.060253046
78	0x3dc1e069	0.09466631
79	0xbd0ef72a	-0.034903683
80	0xbc35cedf	-0.011096685
81	0x3cf82de0	0.030295312
82	0x3e6594e4	0.22420079
83	0xbde99087	-0.114045195
84	0xbcd397f5	-0.025829295
85	0x3dba2da3	0.09090736
86	0xbe0c46a3	-0.13698821
87	0x3dc42182	0.095767036
88	0xbc4ef5c2	-0.012631835
89	0x3da9d3c4	0.08292344
90	0x3e2683f1	0.16261269
91	0x3c1393de	0.009007422
92	0xbd238f4c	-0.03993158
93	0x3c484fd5	0.012226065
94	0xbd3dadc6	-0.0463083
95	0x3c1dd141	0.00963241
96	0xbd024520	-0.031804204
97	0x3d2ca04b	0.042145055
98	0xbcbc2ba9	-0.022970038
99	0x3bfb1fe9	0.007663716
100	0xbdac9cac	-0.0842832
101	0xbb513b45	-0.0031926197
102	0x3bfef2a9	0.007780392
103	0x3ccbc836	0.024875741
104	0x3d573529	0.05254093
105	0x3d85b62a	0.06528886
106	0xbcc9daeb	-0.024640521
107	0x3d43df89	0.0478206
108	0x3e17c0f2	0.14819697
109	0xbccab7ae	-0.024745788
110	0x3e8696a6	0.2628681
111	0x3cc60b52	0.02417532
112	0xbcbe8edc	-0.02326148
113	0x3da3eaa9	0.08003742
114	0x3d48b56c	0.049001142
115	0xbcf2b8f9	-0.029629217
116	0xbce93b58	-0.02847068
117	0x3e3c89ee	0.18411991
118	0x3d32d409	0.043659244
119	0x3e803fa0	0.25048542
120	0xbce3e0d9	-0.027817177
121	0xbdbe5bb0	-0.09294832
122	0xbd15c930	-0.03656882
123	0x3e03b518	0.1286205
124	0x3b6821b7	0.0035420486
125	0x3d9c4fe1	0.07632423
126	0x3c9f48b9	0.019443857
127	0xbcf14961	-0.029453935
128	0xbdafe1be	-0.08587979
129	0xbcab4132	-0.020905111
130	0x3bd079d4	0.0063621793
131	0xbd12edc7	-0.035871293
132	0x3e4ce5e7	0.20009576
133	0xbd176733	-0.036963653
134	0x3e051adc	0.12998527
135	0xbd2fab3a	-0.042887904
136	0xbcc221a7	-0.023697687
137	0xbcc64e1e	-0.024207171
138	0x3b99095b	0.0046703047
139	0x3cb083fa	0.021547306
140	0x3e7dd6f1	0.24789025
141	0x3df5736b	0.11984905
142	0x3d8e121b	0.06937047
143	0x3d510825	0.051033158
144	0x3d432f23	0.047652375
145	0x3c009287	0.007847435
146	0x3dfb5b54	0.12273279
147	0x3e69094a	0.2275745
148	0x3d17144a	0.036884584
149	0x3dddbd41	0.10827113
150	0x3e1351a3	0.1438661
151	0xba62e5f4	-0.00086554815
152	0x3e82ddb4	0.2555977
153	0xbe0ff138	-0.14056861
154	0x3d4a4f10	0.049391806
155	0x3d4905c7	0.049077775
156	0xbc2f2b9c	-0.01069155
157	0x3e546cdf	0.20744656
158	0x3a80e997	0.000983524
159	0xbdf19df0	-0.11797702
160	0xbde02029	-0.10943634
161	0x3d11a090	0.035553515
162	0x3dfe1270	0.124058604
163	0x3c920fec	0.017829858
164	0xbdb96216	-0.090519115
165	0x3dbe9331	0.09305418
166	0x3d28dfde	0.04122912
167	0x3daebe22	0.08532359
168	0x3cf4d367	0.02988596
169	0x3c3812a5	0.011234914
170	0x3e830d62	0.25596148
171	0x3e3d3a20	0.18479204
172	0xbdff064d	-0.12452374
173	0x3cc4f72a	0.024043638
174	0xbd2461a6	-0.040132187
175	0x3daca380	0.08429623
176	0x3df7400b	0.12072762
177	0x3e2f0a41	0.17093755
178	0x3e2ff3f8	0.1718291
179	0xbe086cd1	-0.1332276
180	0x3db8dadf	0.09026121
181	0x3d09cdbd	0.033643473
182	0x3d62e174	0.05539079
183	0xbe31cae7	-0.17362557
184	0xbd4328e9	-0.047646437
185	0x3a9e7a3b	0.0012090871
186	0x3d51bd1d	0.051205743
187	0x3e73b602	0.23799899
188	0x3e5d0b70	0.21586394
189	0x3e08f668	0.13375247
190	0x3de20210	0.1103555
191	0x3e6e8f85	0.23296936
192	0xbdfbbe2a	-0.1229213
193	0xbda5da10	-0.08098233
194	0x3e77825d	0.24170823
195	0xbb325f99	-0.0027217625
196	0x3e518d7c	0.20464128
197	0x3dbb96ab	0.09159597
198	0x3c98a1b9	0.018631803
199	0xbdc4e110	-0.0961324
200	0xbd7fd14a	-0.062455453
201	0x3de82588	0.113352835
202	0x3c46ad7a	0.012126321
203	0x3d4ebf4d	0.050475407
204	0x3e04c217	0.12964664
205	0xbd924dbc	-0.07143733
206	0x3e46dd4a	0.19420353
207	0x3e4905c0	0.196311
208	0x3d7664bb	0.060154658
209	0xbe201c39	-0.15635766
210	0x3e1f2a26	0.15543422
211	0x3d8b4f26	0.06802206
212	0x3dd89a29	0.10576279
213	0xbd7f666a	-0.06235353
214	0xbd06a0bd	-0.032868136
215	0xbc3991f1	-0.011326299
216	0x3d6edd1c	0.058316335
217	0x3dfe7eec	0.12426552
218	0x3dc4b145	0.09604124
219	0xbca04c1a	-0.019567538
220	0xbdf08b6b	-0.11745342
221	0x3e057677	0.13033472
222	0x3e3c9d55	0.18419392
223	0x3c205849	0.009786674
224	0x3cf9708a	0.03044917
225	0x3cf7a56d	0.030230248
226	0xbd03f1ce	-0.032213025
227	0x3d20e074	0.039276555
228	0xbcec5ad9	-0.028851913
229	0x3de2032e	0.11035763
230	0x3d19d883	0.037559997
231	0x3e3c7481	0.18403818
232	0x3d01e1ae	0.031709366
233	0x3e5fe305	0.21863945
234	0x3cb8e353	0.022569334
235	0x3dedc970	0.11610687
236	0x3dac696f	0.08418547
237	0x3dca5a5c	0.09880516
238	0x3da807b7	0.082045965
239	0xbc440ed9	-0.011966431
240	0xbcc559b6	-0.02409063
241	0x3c4f0668	0.012635805
242	0xbd57447c	-0.052555546
243	0x3c8f33c2	0.017480735
244	0xbcda07c9	-0.02661504
245	0x3e345863	0.17611842
246	0x3d412560	0.047154784
247	0xbd74f620	-0.059805036
248	0x3df3bf45	0.11901716
249	0x3d43962d	0.04775064
250	0x3da40225	0.080082215
251	0xbd523fe3	-0.05133046
252	0x3e56dad4	0.20981914
253	0x3d004561	0.031316165
254	0x3e7fd762	0.24984506
255	0x3dcaa8bc	0.09895465
