net14.pkl (torch_old, 801611 bytes, 10 tensors)

weight f4 [256, 3]
-0.03401839 -0.011311921 -0.007073269 -0.79552686 -0.45040253 -0.41495916 1.0913947 -0.44816414
0.48537388 0.017012773 -0.07265186 -0.015045177 -0.009561965 -0.012562024 -2.4914403e-05 0.25435945
-1.4260198 0.37763402 1.2605486 -0.30370456 -0.092425875 -0.011026615 -0.021305822 0.0076066675
0.06973517 0.103092045 0.0336904 1.2239746 0.08355768 -0.23271368 -0.6013171 1.310673
-0.3006314 0.86715055 -1.1168355 -0.17470036 -1.1413463 0.6214093 0.88631576 0.045224734
0.049520783 0.0069274395 0.5762532 0.75788254 -0.7395769 0.29450756 0.22094253 0.032369222
-0.021462688 -0.04725244 0.0057888986 -0.7792455 -0.007049804 1.008051 -0.3462305 0.021003874
0.06582893 -0.26912713 -0.21258795 0.0026410015 -0.6056518 0.5732956 0.97012943 -0.054336503
-0.043138713 -0.00440903 0.012881117 0.0055740513 0.010507 0.03685567 -0.08718804 -0.026467087
0.031815182 -0.003042397 0.007904855 0.0073273955 0.058564376 0.028304828 0.40112588 0.2921631
0.7128587 -0.38983983 -0.08086208 -0.8861418 -0.022302954 -0.02370737 0.022041475 -0.75204927
-0.8027982 1.0157129 0.32705796 1.1971421 -0.40577203 0.18694942 -1.1178019 -0.3178066
0.5327137 0.3851307 0.5385111 0.12656581 0.17080669 0.038407136 0.09984072 0.11919619
0.022263432 0.40586093 0.7138387 0.03521107 -0.6594079 0.8812722 -0.7444157 -0.6948923
-0.62438434 1.0504941 0.0115366345 -0.026311118 -0.008676749 -0.67274654 -0.87883633 0.86630553
0.0052657053 -0.021859543 -0.0033330766 0.040700607 0.04233302 0.014347757 -0.024462914 -0.029607717
0.009391224 -0.02573273 -0.037016056 -0.0033134788 0.6938903 0.76142156 -0.75746787 -0.1971204
0.8340289 0.44118443 -0.25511602 -0.009982738 0.056417007 0.008367369 -0.011440801 0.013813495
-1.300794 0.8738858 0.36286366 0.12078501 0.29970133 0.022720495 0.5705385 1.0857332
-0.666889 -0.00088710204 -0.06969611 -0.015674463 -1.1823505 0.23717049 -0.089803055 -0.012446105
-0.04498439 -0.006187496 -0.013808102 -0.03511402 0.0032864546 -0.014026011 -0.018141173 0.008905633
-0.012091698 -0.040309172 -0.007528118 0.5890165 -0.6733448 -0.78229594 0.022160217 0.00926198
0.007648661 -0.03637104 0.032194115 0.031641573 -1.1936233 0.67826766 -0.13019155 -0.0030019612
-0.006794191 0.019337969 -0.3450524 0.5073121 0.3088197 -0.00033490857 -0.014368966 0.004753772
0.0130154565 0.010461347 0.0033063458 0.61441696 0.32468173 0.060695954 0.0013985505 0.004264988
0.014608803 0.14933117 -0.0061907535 -0.023118453 -0.0069641685 -0.016551841 -0.009787208 0.89180255
0.83542544 -0.8567266 -0.85908395 -0.18272984 -0.1929266 0.025794074 -0.04123601 -0.012755676
-0.008029494 -0.026348637 0.015823416 -0.26312813 -0.060477402 0.054007724 -0.079704806 -0.03663779
0.02725698 -0.6769091 -1.0550679 0.86827826 -0.54512477 1.2235587 0.047820155 0.9803405
-1.1067431 -0.110584624 0.0042970823 -0.003439648 0.020554975 0.91824883 0.0070701437 0.48040137
0.028775383 0.054316666 0.020654839 1.1167455 0.5063583 -0.7872455 -0.014633296 -0.02089768
0.012234245 0.004768208 0.0039428836 0.014262064 -1.3375087 0.3704623 0.034948833 0.09728021
00000000: de56 0bbd a355 39bc e2c6 e7bb a6a7 4bbf
00000010: 299b e6be 8775 d4be d2b2 8b3f c575 e5be
00000020: ed82 f83e 5f5e 8b3c 80ca 94bd 0c80 76bc
00000030: caa9 1cbc f3d0 4dbc 46ff d0b7 673b 823e
00000040: d187 b6bf 3f59 c13e a859 a13f 2a7f 9bbe
00000050: c749 bdbd faa8 34bc 8c89 aebc 5a41 f93b
00000060: 50d1 8e3d ec21 d33d f2fe 093d 33ab 9c3f
00000070: 4a20 ab3d 7f4c 6ebe ebef 19bf 22c4 a73f
00000080: 5cec 99be 94fd 5d3f 77f4 8ebf a7e4 32be
00000090: a317 92bf ae14 1f3f 97e5 623f 923d 393d
000000a0: 4ed6 4a3d 93ff e23b 5485 133f 9704 423f
000000b0: e954 3dbf b2c9 963e c23e 623e 9795 043d
000000c0: 85d2 afbc c68b 41bd cdb0 bd3b a27c 47bf
000000d0: 0b02 e7bb d107 813f 2045 b1be 5110 ac3c
000000e0: 51d1 863d 08cb 89be a8b0 59be a714 2d3b
000000f0: ff0b 1bbf 80c3 123f 675a 783f f48f 5ebd
00000100: 38b2 30bd a079 90bb 520b 533c 88a6 b63b
00000110: 8d25 2c3c f9f5 163d a58f b2bd 81d1 d8bc
00000120: a350 023d f462 47bb 5d83 013c a61a f03b
00000130: 33e1 6f3d 87df e73c 5f60 cd3e 6796 953e
00000140: e87d 363f 1699 c7be 059b a5bd 30da 62bf
00000150: afb4 b6bc f535 c2bc 5390 b43c 4d86 40bf
00000160: 2f84 4dbf e102 823f 2474 a73e f43b 993f
00000170: 5ac1 cfbe ab6f 3f3e 2214 8fbf 8cb7 a2be
00000180: ed5f 083f da2f c53e dddb 093f 789a 013e
00000190: f3e7 2e3e cd50 1d3d 4b79 cc3d 221d f43d
000001a0: cd61 b63c 01cd cf3e 22be 363f 7c39 103d
000001b0: f5ce 28bf 0e9b 613f 0792 3ebf 76e4 31bf
000001c0: a7d7 1fbf 9776 863f 2704 3d3c 6a8a d7bc
000001d0: ec28 0ebc 1e39 2cbf 6bfb 60bf 33c6 5d3f
000001e0: f08b ac3b c912 b3bc bf6f 5abb aeb5 263d
000001f0: 6465 2d3d db12 6b3c 7366 c8bc e28b f2bc
00000200: a6dd 193c 72cd d2bc 269e 17bd f326 59bb
00000210: cba2 313f 86ec 423f 6ae9 41bf eed9 49be
00000220: eb82 553f ede2 e13e 919e 82be a38e 23bc
00000230: 8515 673d 4a17 093c 3372 3bbc ff51 623c
00000240: 6b80 a6bf fbb6 5f3f 44c9 b93e 225e f73d
00000250: 7472 993e 5520 ba3c d00e 123f 4ef9 8a3f
00000260: 3db9 2abf 698c 68ba d6bc 8ebd bb67 80bc
00000270: 4357 97bf d2dc 723e aaea b7bd bfea 4bbc
00000280: 8d41 38bd 7ac0 cabb 613b 62bc b8d3 0fbd
00000290: 8f61 573b 5bcd 65bc cc9c 94bc efe8 113c
000002a0: 421c 46bc 3b1b 25bd 6eae f6bb c9c9 163f
000002b0: 5360 2cbf 8c44 48bf 5889 b53c 8fbf 173c
000002c0: 9ea1 fa3b cdf9 14bd fadd 033d 989a 013d
000002d0: a6c8 98bf f3a2 2d3f ef50 05be 8dbc 44bb
000002e0: cea1 debb a96a 9e3c b5aa b0be 35df 013f
000002f0: 9e1d 9e3e ab96 afb9 d06b 6bbc 88c5 9b3b
00000300: c83e 553c 1266 2b3c 47af 583b 6e4a 1d3f
00000310: af3c a63e 529c 783d 914f b73a 50c1 8b3b
00000320: c359 6f3c 45ea 183e cedb cabb e962 bdbc
00000330: ae33 e4bb ba97 87bc 875a 20bc 2c4d 643f
00000340: 71de 553f 6f52 5bbf edec 5bbf 881d 3bbe
00000350: 8d8e 45be 184e d33c 17e7 28bd 2ffd 50bc
00000360: 248e 03bc 19d9 d7bc 1ca0 813c bbb8 86be
00000370: 27b7 77bd 3437 5d3d 463c a3bd 8211 16bd
00000380: 084a df3c ea49 2dbf 770c 87bf 7c47 5e3f
00000390: 4c8d 0bbf 929d 9c3f 11df 433d 98f7 7a3f
000003a0: c2a9 8dbf 317a e2bd 8ace 8c3b b86b 61bb
000003b0: e862 a83c 5b12 6b3f aaac e73b 2bf7 f53e
000003c0: 5aba eb3c 277b 5e3d 5634 a93c 84f1 8e3f
000003d0: b3a0 013f ec88 49bf 7ec0 6fbc 9d31 abbc
000003e0: 2572 483c a13e 9c3b 4e33 813b 6fab 693c
000003f0: 7c33 abbf 3cad bd3e 8226 0f3d d93a c73d

bias f4 [256]
0.03192185 0.9630165 -0.7522982 0.03951473 0.007971299 0.42132005 -0.4911614 0.023724003
-0.10735986 -0.6336541 -0.229296 0.29507348 -0.33626363 -0.05504628 -0.29313624 -0.29934597
0.025791332 -0.19901532 0.14890319 0.28176674 -0.67332923 0.05389538 -0.0053298306 0.057455633
-0.008384266 -0.041668143 -0.90130657 0.85225207 0.02610903 0.026520295 -0.6892834 0.78465074
-0.89792216 -0.17395672 -0.1274808 -0.691803 0.5283595 -0.12518014 0.019079294 0.34243536
0.014003215 -0.038750052 0.020478923 0.03749147 -0.34982726 -0.684168 0.12447689 0.014548337
-0.039685395 -0.2586231 -0.5429392 0.061219007 0.6899637 0.04527332 0.055622682 0.0062870607
0.045625813 0.61197996 -0.00266214 0.010519628 0.46106967 0.004667995 -0.29504743 0.021204505
-0.010549193 -0.5885299 -0.019724328 -0.054212067 0.023304772 -0.44380975 0.76925915 0.020147717
0.03103752 0.17909628 0.05627301 0.4385284 -0.44412765 0.18298957 0.0044612805 -1.002901
-0.041435096 -0.4751297 0.01260927 -0.025276339 0.61351156 -0.0056903474 0.029774928 -0.31988522
-0.27519888 0.020934291 0.04293265 0.12159749 -0.04203686 0.8274052 0.0083585065 0.41536173
0.12214017 0.044145346 0.37131166 0.038592912 0.030648956 -0.51416624 0.44135284 0.26561472
-0.27580187 0.89838344 0.7931654 0.55276906 -0.026895963 0.037585005 -0.6226759 -0.041803423
0.017933978 0.021461802 0.062478457 0.40049478 0.19632182 0.013195704 0.9530665 0.059812807
0.174492 0.20385122 0.017976675 -0.3984389 0.72880733 -0.8337297 -0.013587407 -0.018257055
-0.24385703 -0.22146596 0.5316942 0.11083119 0.5818251 0.6704397 0.54967237 0.0082939025
-0.0736437 0.94710755 0.061425496 0.03144952 0.057143115 0.013106597 -0.6249943 -0.3102119
0.8924261 0.37528685 0.042658303 -0.047562942 0.034382783 -0.024300726 0.9474934 -0.18751317
0.0014880892 -0.0015886974 0.075689375 -0.79641855 0.9598322 -0.050156247 -0.047247957 -0.30858934
-0.36422348 -0.013639327 0.025135798 -0.039038666 -0.04045465 0.0063021467 0.03364601 0.45758346
-0.008548817 0.016071972 0.020616598 -0.117784694 0.424233 0.046330113 0.76086897 -0.185609
-0.021128893 0.008115294 -0.83341575 0.02122062 -0.9271417 0.024801755 -0.12048076 -0.0015049098
-0.007827348 0.030989679 -0.4512914 -0.011311002 0.015384723 0.058962427 -0.04891185 0.208292
0.002537534 -0.001216775 0.4695583 0.040148135 -0.006609443 0.044256255 0.5867162 0.0045940797
-0.057360798 0.0032370717 0.0076386533 0.04585978 -0.025261855 0.66303074 -0.87344325 -0.26775056
-0.35036224 -0.019400556 0.31311935 -0.52244014 0.89129424 0.07390385 -0.693952 -0.54685456
0.0042630113 -0.580628 0.08880839 0.26141894 -0.027648585 0.03292283 -0.27620012 0.7280706
0.074102595 -0.04454951 0.030334894 -0.5871179 0.7796651 0.027380195 0.0067461855 0.7691096
0.44989917 0.8630468 0.84593475 0.05812326 0.017785193 0.06727731 0.057498675 -0.06413812
0.18452078 0.06466266 0.013163619 0.061178386 -0.0049735904 0.46893817 0.002953252 0.77291906
0.0024959508 0.061769865 0.84532166 -0.07585468 -0.27628282 -0.03430224 -0.7562107 0.0049498836
00000000: 7cc0 023d 4088 763f 9d96 40bf 33da 213d
00000010: 0d9a 023c 43b7 d73e 8279 fbbe d758 c23c
00000020: 7cdf dbbd 2837 22bf 92cc 6abe df13 973e
00000030: bf2a acbe 3578 61bd f415 96be e043 99be
00000040: 5848 d33c acca 4bbe 147a 183e bb43 903e
00000050: 4e5f 2cbf 67c1 5c3d dca5 aebb 9956 6b3d
00000060: 295e 09bc 37ac 2abd 07bc 66bf 312d 5a3f
00000070: 9be2 d53c 1741 d93c e074 30bf dfde 483f
00000080: 3ade 65bf b621 32be 548a 02be 001a 31bf
00000090: 9142 073f 392f 00be 2e4c 9c3c b053 af3e
000000a0: be6d 653c 60b8 1ebd 6ac3 a73c a890 193d
000000b0: 8f1c b3be a225 2fbf bded fe3d 265c 6e3c
000000c0: 278d 22bd 3f6a 84be 10fe 0abf c8c0 7a3d
000000d0: 76a1 303f 8470 393d 9cd4 633d b003 ce3b
000000e0: 22e2 3a3d b8aa 1c3f 4c77 2ebb 855a 2c3c
000000f0: 5311 ec3e fbf5 983b 7510 97be 12b5 ad3c
00000100: 86d6 2cbc e5a9 16bf ea94 a1bc 790d 5ebd
00000110: a6e9 be3c 083b e3be 2bee 443f d30c a53c
00000120: 6642 fe3c 0465 373e 877e 663d cb86 e03e
00000130: b364 e3be 9e61 3b3e ef2f 923b 0f5f 80bf
00000140: d9b7 29bd 3344 f3be 1d97 4e3c 5310 cfbc
00000150: 180f 1d3f 1876 babb 8dea f33c ffc7 a3be
00000160: dee6 8cbe 647e ab3c 25da 2f3d 1b08 f93d
00000170: d82e 2cbd d4d0 533f 1ef2 083c 4baa d43e
00000180: a024 fa3d c0d1 343d 901c be3e 9a13 1e3d
00000190: 8513 fb3c 66a0 03bf 00f9 e13e a7fe 873e
000001a0: e735 8dbe 75fc 653f e30c 4b3f 4682 0d3f
000001b0: ec54 dcbc bcf2 193d b067 1fbf 113a 2bbd
000001c0: 47ea 923c a9d0 af3c 69e9 7f3d a70d cd3e
000001d0: 9608 493e cb32 583c 2bfc 733f 46fe 743d
000001e0: 08ae 323e 60be 503e d243 933c 2f00 ccbe
000001f0: 1e93 3a3f 4f6f 55bf b79d 5ebc d28f 95bc
00000200: a8b5 79be f9c7 62be 1c1d 083f 77fb e23d
00000210: 7df2 143f f0a1 2b3f 54b7 0c3f 26e3 073c
00000220: 82d2 96bd a475 723f 4d99 7b3d 36d1 003d
00000230: e60e 6a3d 0dbd 563c a0ff 1fbf 18d4 9ebe
00000240: 0976 643f 9925 c03e 79ba 2e3d 5cd1 42bd
00000250: f6d4 0c3d 5112 c7bc ed8e 723f 7403 40be
00000260: fd0b c33a d73b d0ba 0803 9b3d 16e2 4bbf
00000270: 90b7 753f a370 4dbd 1387 41bd 6cff 9dbe
00000280: 807b babe 7c77 5fbc 97e9 cd3c 02e7 1fbd
00000290: c6b3 25bd 3d82 ce3b 66d0 093d 6148 ea3e
000002a0: 5610 0cbc 5ea9 833c 24e4 a83c 1a39 f1bd
000002b0: 1135 d93e a5c4 3d3d 4fc8 423f 4910 3ebe
000002c0: 8016 adbc 03f6 043c bc5a 55bf ded6 ad3c
000002d0: 2959 6dbf 0d2d cb3c 9ebe f6bd 6540 c5ba
000002e0: 473e 00bc 11de fd3c ab0f e7be c851 39bc
000002f0: 3510 7c3c 9682 713d cb57 48bd 804a 553e
00000300: c24c 263b 327c 9fba f269 f03e 5f72 243d
00000310: 0794 d8bb 0c46 353d 0833 163f ef89 963b
00000320: 28f3 6abd 0d25 543b ab4d fa3b 77d7 3b3d
00000330: f3f1 cebc 62bc 293f fa99 5fbf 9a16 89be
00000340: ae62 b3be eaed 9ebc 2e51 a03e a3be 05bf
00000350: dc2b 643f e75a 973d d7a6 31bf a9fe 0bbf
00000360: bbb0 8b3b 09a4 14bf 2ce1 b53d b4d8 853e
00000370: 497f e2bc 17da 063d 1a6a 8dbe d662 3a3f
00000380: 1ac3 973d 8c79 36bd e280 f83c 5c4d 16bf
00000390: 2298 473f 6e4c e03c 1b0f dd3b 5ee4 443f
000003a0: 2f59 e63e a3f0 5c3f 2e8f 583f a812 6e3d
000003b0: 41b2 913c b0c8 893d bb83 6b3d d95a 83bd
000003c0: 04f3 3c3e db6d 843d 38ac 573c 3096 7a3d
000003d0: 80f9 a2bb aa18 f03e 598b 413b 06de 453f
000003e0: 1b93 233b 6602 7d3d 0067 583f b359 9bbd
000003f0: f174 8dbe 8180 0cbd 0697 41bf a232 a23b

weight f4 [256, 256]
0.23128594 0.07490653 -0.3673294 0.2769032 -0.03827901 -0.02756641 0.46085054 0.11419801
-0.04406752 0.27902514 -0.32914206 0.18260275 -0.006487385 -0.0058996426 -0.19467424 -0.17273693
0.027210396 0.24350654 -0.10189205 0.16532294 -0.29703307 -0.098712765 0.15099338 0.0050719767
-0.0028275545 0.1216229 -0.1070312 -0.15078297 0.14492716 -0.24131769 -0.16688438 -0.10294196
0.5892746 -0.081145324 0.036524452 0.18964207 0.25677764 -0.21997869 0.03561083 -0.022396078
0.019015344 -0.022972463 0.0840392 0.027798735 -0.24213438 0.3923566 0.15052323 -0.013197333
0.33955032 0.09860481 -0.21093005 -0.028088255 0.0039078123 -0.04503163 0.06728798 -0.16038111
0.0059494693 -0.29492688 -0.0822854 -0.30009347 -0.09576944 0.17331868 0.12169809 -0.0068279165
-0.0012024109 0.21390285 0.060719218 0.101467565 0.02670563 -0.18070641 -0.531128 -0.012715294
-0.015567747 -0.02386159 -0.21523051 -0.07457919 -0.3889961 0.077641614 0.14470463 -0.6578789
-0.09895406 -0.17452379 -0.1678692 0.1190473 0.12571755 0.35214803 -0.030020198 -0.4428018
-0.043511137 -0.23902044 -0.09551415 0.03514637 0.13906522 0.48970503 -0.016482847 -0.10482701
-0.034189217 -0.27100366 0.04339398 0.13553588 0.32071498 -0.058594417 0.0028134023 0.22468688
0.16100411 0.1913933 0.047891237 -0.1352865 -0.117040694 -0.14925691 0.47952923 -0.113458544
0.2840783 0.15432417 0.015250368 -0.027912518 0.04875401 0.16287053 -0.07220405 0.17573082
-0.115181535 -0.04289101 0.1456655 -0.026682153 -0.13346504 -0.6171497 0.093759395 -0.03284879
0.04316124 0.00673612 0.826674 0.094131276 -0.08340311 0.114682645 -0.027868412 0.012773022
-0.22442113 -0.5058733 -0.035974693 -0.05491459 -0.2918663 0.031800125 -0.045432743 0.019168358
-0.06290904 -0.20340301 -0.0033520698 0.11352809 0.15517175 -0.07122272 0.49994296 0.09955992
-0.12022225 -0.06545653 0.07381781 0.23271546 0.26517227 -0.008270709 0.19863681 -0.32708228
-0.1306548 0.0064297374 -0.08275004 0.04082381 0.058427233 -0.11205107 0.16747697 0.033803266
0.087331094 -0.1723498 0.2398922 -0.08896245 0.016763227 -0.1384984 0.11137361 -0.2542031
0.11324323 0.07703327 -0.36353508 0.21233357 -0.74731314 -0.103120305 -0.082299836 0.028036572
0.14963497 -0.013451163 -0.032104302 0.2915874 0.08514332 0.055313036 -0.13699795 -0.34815452
-0.053081177 -0.045321554 -0.09241474 -0.061464176 0.06332349 0.15681241 -0.09411704 -0.050315235
-0.032082327 0.1204673 0.4701497 -0.10471668 -0.04776823 -0.33919424 0.22874697 0.027565032
-0.20004301 -0.013863497 0.06275326 0.53900826 -0.3433346 0.034484047 0.523601 -0.11306385
0.06719896 0.33908448 0.1571333 0.102790505 -0.17134498 -0.049185455 0.037977748 0.12537108
-0.15376414 -0.106279805 -0.22739121 0.33972186 -0.08273543 0.13896775 0.16597256 0.13161094
-0.07662223 0.05595795 -0.1865422 -0.0027839881 0.20517462 0.05777226 0.13726465 -0.024503864
-0.304062 -0.06338211 0.053652693 0.06534372 0.22699785 -0.09157958 0.06383312 -0.14242251
0.36100382 -0.07238984 -0.31569868 0.22583874 -0.17797549 0.004447731 -0.1800967 0.028397804
00000000: 39d6 6c3e 9868 993d 9912 bcbe 42c6 8d3e
00000010: 74ca 1cbd f4d2 e1bc 9af4 eb3e a5e0 e93d
00000020: 2580 34bd 62dc 8e3e 4f85 a8be 37fc 3a3e
00000030: 2194 d4bb ca51 c1bb af58 47be f3e1 30be
00000040: 56e8 de3c c759 793e c7ac d0bd 6b4a 293e
00000050: b814 98be eb29 cabd 029e 1a3e d332 a63b
00000060: 7e4e 39bb 6d15 f93d 2c33 dbbd da66 1abe
00000070: c967 143e fc1b 77be bde3 2abe 3cd3 d2bd
00000080: b3da 163f 852f a6bd aa9a 153d 8831 423e
00000090: 5c78 833e 1842 61be a9dc 113d fb77 b7bc
000000a0: 11c6 9b3c bf30 bcbc be1c ac3d 2cba e33c
000000b0: 13f2 77be f7e2 c83e c322 1a3e a039 58bc
000000c0: 8ad9 ad3e 52f1 c93d 0cfe 57be 5719 e6bc
000000d0: 1b0d 803b 1673 38bd 48ce 893d f23a 24be
000000e0: c4f3 c23b a800 97be 3f85 a8bd daa5 99be
000000f0: c522 c4bd 747a 313e d93c f93d b7bc dfbb
00000100: 379a 9dba 5909 5b3e b7b4 783d 3ace cf3d
00000110: c4c5 da3c 1a0b 39be 01f8 07bf cf53 50bc
00000120: dd0f 7fbc 6279 c3bc 6365 5cbe f9bc 98bd
00000130: 7f2a c7be 9102 9f3d 732d 143e c06a 28bf
00000140: 6da8 cabd 5db6 32be e7e5 2bbe 12cf f33d
00000150: 1abc 003e bf4c b43e ebec f5bc ebb6 e2be
00000160: bc38 32bd c6c1 74be ec9c c3bd a4f5 0f3d
00000170: 1d67 0e3e 9eba fa3e 0907 87bc 8baf d6bd
00000180: fe09 0cbd fec0 8abe e3bd 313d ebc9 0a3e
00000190: c134 a43e b300 70bd 0f61 383b 5114 663e
000001a0: 43de 243e 9bfc 433e 9a29 443d 8b88 0abe
000001b0: 08b3 efbd ced6 18be db84 f53e f45c e8bd
000001c0: b672 913e 2807 1e3e aedc 793c cba8 e4bc
000001d0: 49b2 473d 88c7 263e b8df 93bd c8f2 333e
000001e0: 4ce4 ebbd 7cae 2fbd 5629 153e 8894 dabc
000001f0: 0fab 08be 86fd 1dbf ed04 c03d 748c 06bd
00000200: d7c9 303d acba dc3b e8a0 533f e6c7 c03d
00000210: 40cf aabd bcde ea3d 4c4c e4bc f045 513c
00000220: a7ce 65be ea80 01bf 335a 13bd 1fee 60bd
00000230: 806f 95be d940 023d af17 3abd f606 9d3c
00000240: 74d6 80bd e148 50be 66ae 5bbb 6a81 e83d
00000250: 58e5 1e3e 38dd 91bd 86f8 ff3e 12e6 cb3d
00000260: 1537 f6bd 130e 86bd cb2d 973d f64c 6e3e
00000270: a9c4 873e de81 07bc 7367 4b3e 5477 a7be
00000280: 5fca 05be 8cb0 d23b da78 a9bd de36 273d
00000290: 6551 6f3d 087b e5bd 157f 2b3e 4b75 0a3d
000002a0: a5da b23d 777c 30be 4da6 753e f231 b6bd
000002b0: 0953 893c 86d2 0dbe d917 e43d e926 82be
000002c0: 11ec e73d 9ec3 9d3d 4521 babe f96d 593e
000002d0: ea4f 3fbf bd30 d3bd d18c a8bd f4ac e53c
000002e0: e939 193e 4462 5cbc cd7f 03bd f24a 953e
000002f0: 9f5f ae3d ec8f 623d 3149 0cbe 4f41 b2be
00000300: a66b 59bd 18a3 39bd f043 bdbd dcc1 7bbd
00000310: bfaf 813d 6f93 203e 6fc0 c0bd 5917 4ebd
00000320: c268 03bd 8fb7 f63d 76b7 f03e b375 d6bd
00000330: 9fa8 43bd deaa adbe a53c 6a3e 10d0 e13c
00000340: 13d8 4cbe b923 63bc c884 803d 72fc 093f
00000350: 8dc9 afbe 253f 0d3d b70a 063f 058e e7bd
00000360: 9c9f 893d 7b9c ad3e 8de7 203e d483 d23d
00000370: 0f75 2fbe b076 49bd 8e8e 1b3d 4761 003e
00000380: 5974 1dbe 3aa9 d9bd 3ed9 68be 06f0 ad3e
00000390: 3171 a9bd 904d 0e3e b6f4 293e 05c5 063e
000003a0: 1eec 9cbd 2a34 653d eb04 3fbe 9273 36bb
000003b0: 4c19 523e 9ba2 6c3d 1b8f 0c3e 54bc c8bc
000003c0: 04ae 9bbe 7bce 81bd edc2 5b3d eed2 853d
000003d0: 2072 683e 138e bbbd f0ba 823d 35d7 11be
000003e0: 7ed5 b83e 2041 94bd 42a3 a1be 4542 673e
000003f0: 353f 36be 46be 913b 456b 38be 83a2 e83c

bias f4 [256]
-0.2381961 0.49250185 0.39214346 -0.04706229 -1.340567 0.24614656 0.15698002 -0.26086122
0.37577322 0.3516864 -0.17891258 -5.857239 0.19475277 -1.4442718 -0.19908792 -0.22150637
0.22212708 -0.02553158 0.21842718 0.16378942 -0.9030556 0.22153912 0.41900346 0.7531288
0.058236852 0.42877477 -1.5176116 -0.045839716 -1.4212508 0.54266286 -0.04357139 0.46412146
-0.2715857 0.2101245 -0.79604614 0.31775078 -0.26310077 0.2912316 -0.55787635 0.38562647
0.27052787 0.9766149 -0.46085924 -1.5242559 -0.17967401 0.15379468 -1.0805167 -0.3922365
0.16014837 -1.4218589 -1.4102846 -0.021697197 0.14034332 0.27486268 -0.23330979 0.06829501
0.17449574 -0.77409303 -0.20039131 -0.00451504 -0.27623424 0.10248681 0.07040526 0.14552918
-1.2271452 -0.019713681 0.17543605 -0.15513003 -1.2933065 0.2294212 0.054621384 0.4349979
0.03305716 -1.5444949 -0.03196988 0.074138366 -0.014502558 0.4480137 -0.17004341 0.026697455
-6.2185173 0.047180243 0.14619471 0.27897447 -1.2247752 0.07711834 -0.4547459 -0.10071565
-0.80273885 -0.13142395 0.017928166 0.50889534 1.0950037 -0.18106346 -0.6257605 0.2536378
-1.389941 0.22675015 0.21307668 -0.33736983 0.3919694 0.34370834 -0.32743722 -1.2107532
-0.9493839 -0.6342899 0.35576642 0.08434464 0.18554325 -1.0916188 -0.0079960935 -1.1187986
-0.15822376 -1.0815395 -1.0451043 -5.690572 0.29215077 0.2639175 0.21428658 -0.21686545
0.19199312 0.34217617 0.26723662 -0.31578365 0.24401046 0.3150036 -1.3554174 -0.322157
0.117444575 0.039764408 0.93486845 0.34807792 0.14520004 0.21256417 -0.38077137 0.080132514
-0.4227504 -0.066773176 0.2752282 -0.15258889 -0.3074628 0.89694613 0.57206005 0.22195415
0.73026544 0.3164772 0.5410745 0.12660329 -0.90381515 0.49823233 -1.0509338 -0.2857253
-6.228419 -0.5554585 -0.13080513 -1.450648 0.26023582 0.38670066 0.28540313 -0.041244697
0.16072483 -1.5116919 -0.18604673 -0.46058014 0.1418623 0.6325182 0.24440338 0.69232553
0.25137323 0.26395875 0.15465477 0.45313802 -0.12489091 -0.23414707 0.6146884 -0.530908
-1.3397558 0.152423 0.18047483 0.13055748 0.13450368 0.43572345 0.12285807 -0.33225307
-0.34163818 0.1218526 -0.47655332 -0.05799079 0.099427365 0.2322784 0.48626837 -6.373469
-1.235413 0.31796882 -0.1392818 0.03975486 -0.3885546 -0.247226 -0.30264324 -0.25841498
-0.006352378 1.0102865 -1.5412318 0.17035893 0.27289474 -0.6054783 0.13942362 0.36008614
-0.25346336 0.29245004 -1.5042354 0.16801393 0.165473 0.54319257 -1.1431298 1.152353
-0.10782229 -0.6441115 0.14620242 -6.301385 -0.45029256 -0.13348767 -0.73447764 0.11508958
0.03018328 0.46093556 0.050201554 0.2468604 -1.547016 0.7589379 -0.3132727 0.55986816
-1.1719366 -0.13921247 1.1953382 -1.1790544 -0.18972087 -0.5684174 -1.0431532 0.22513914
0.13926025 0.16133782 -0.29179287 0.12045005 -0.54169524 -0.017260939 0.39513683 0.19290908
0.1769613 0.1315191 0.6589074 -0.8907185 -0.80762225 -0.9418841 0.21464515 -6.2284565
00000000: aee9 73be 3429 fc3e 07c7 c83e 63c4 40bd
00000010: b397 abbf d80d 7c3e 5fbf 203e 9a8f 85be
00000020: 5965 c03e 3d10 b43e dc34 37be 806e bbc0
00000030: 456d 473e e6dd b8bf b4dd 4bbe 91d2 62be
00000040: 4875 633e 9b27 d1bc 60ab 5f3e 6ab8 273e
00000050: a72e 67bf 27db 623e 9f87 d63e 0dcd 403f
00000060: c489 6e3d 5e88 db3e 1941 c2bf 6dc2 3bbd
00000070: 8ceb b5bf f4eb 0a3f ea77 32bd 54a1 ed3e
00000080: 480d 8bbe e02a 573e aec9 4bbf 3bb0 a23e
00000090: 25b5 86be 4f1c 953e fcd0 0ebf d570 c53e
000000a0: a182 8a3e 6f03 7a3f bef5 ebbe d11a c3bf
000000b0: 77fc 37be 5a7c 1d3e 5f4e 8abf 39d3 c8be
000000c0: effd 233e 79ff b5bf 3584 b4bf 52be b1bc
000000d0: 29b6 0f3e cdba 8c3e c3e8 6ebe 41de 8b3d
000000e0: 03af 323e f62a 46bf 6133 4dbe e7f2 93bb
000000f0: 936e 8dbe 9be4 d13d a230 903d 9a05 153e
00000100: 1813 9dbf 967e a1bc 82a5 333e 68da 1ebe
00000110: 118b a5bf 64ed 6a3e acba 5f3d 0bb8 de3e
00000120: f266 073d 02b2 c5bf d9f2 02bd dbd5 973d
00000130: 239c 6dbc 0d62 e53e dc1f 2ebe 9fb4 da3c
00000140: 18fe c6c0 1240 413d 11b4 153e bed5 8e3e
00000150: 6fc5 9cbf 38f0 9d3d 74d4 e8be 0244 cebd
00000160: 4b80 4dbf 0094 06be 17de 923c f746 023f
00000170: 1529 8c3f b368 39be d731 20bf d0dc 813e
00000180: 96e9 b1bf 3131 683e c630 5a3e bdbb acbe
00000190: 37b0 c83e 8afa af3e daa5 a7be f6f9 9abf
000001a0: d30a 73bf d360 22bf 0427 b63e e2bc ac3d
000001b0: 0dff 3d3e 2aba 8bbf 0c02 03bc cb34 8fbf
000001c0: 6905 22be e36f 8abf fac5 85bf 2a19 b6c0
000001d0: c994 953e 3220 873e f16d 5b3e fa11 5ebe
000001e0: d899 443e b731 af3e 3dd3 883e 65ae a1be
000001f0: e1dd 793e 2748 a13e 517e adbf c3f1 a4be
00000200: c886 f03d 01e0 223d 8a53 6f3f 4537 b23e
00000210: 52af 143e 6caa 593e 77f4 c2be 841c a43d
00000220: be72 d8be 60c0 88bd b6ea 8c3e 4340 1cbe
00000230: c46b 9dbe 439e 653f 8772 123f f347 633e
00000240: adf2 3a3f 4d09 a23e dc83 0a3f 4ba4 013e
00000250: 6e60 67bf 4f18 ff3e 0085 86bf 964a 92be
00000260: 354f c7c0 8732 0ebf c8f1 05be d5ae b9bf
00000270: a13d 853e a1fd c53e 5c20 923e 33f0 28bd
00000280: 0d95 243e 1f7f c1bf 0983 3ebe 29d1 ebbe
00000290: 5a44 113e b6ec 213f e144 7a3e 3f3c 313f
000002a0: feb3 803e 9a25 873e d25d 1e3e b501 e83e
000002b0: cec6 ffbd 40c4 6fbe 385c 1d3f 96e9 07bf
000002c0: 1e7d abbf c614 1c3e 65ce 383e dcb0 053e
000002d0: 55bb 093e 2517 df3e 039d fb3d 131d aabe
000002e0: 33eb aebe db8d f93d ccfe f3be c087 6dbd
000002f0: 93a0 cb3d 64da 6d3e 2bf8 f83e 75f3 cbc0
00000300: 0322 9ebf cfcc a23e e39f 0ebe fed5 223d
00000310: a1f0 c6be d028 7dbe 0ef4 9abe f84e 84be
00000320: 9c27 d0bb 1151 813f 1547 c5bf 9272 2e3e
00000330: dcb8 8b3e a000 1bbf 11c5 0e3e 365d b83e
00000340: f3c5 81be 03bc 953e c98a c0bf d80b 2c3e
00000350: c171 293e ab0e 0b3f 1452 92bf 4e80 933f
00000360: efd1 dcbd 7ee4 24bf 16b6 153e f2a4 c9c0
00000370: bf8c e6be feb0 08be ba06 3cbf 16b4 eb3d
00000380: ed42 f73c bfff eb3e 25a0 4d3d f9c8 7c3e
00000390: 9f04 c6bf c149 423f 4865 a0be 8553 0f3f
000003a0: 0502 96bf b78d 0ebe d800 993f 41eb 96bf
000003b0: 3046 42be cd83 11bf 0b86 85bf e08a 663e
000003c0: 3d9a 0e3e be35 253e e065 95be 84ae f63d
000003d0: 8aac 0abf d066 8dbc 604f ca3e f589 453e
000003e0: 5835 353e f1ac 063e 28ae 283f 2106 64bf
000003f0: 55c0 4ebf 511f 71bf f0cb 5b3e 844f c7c0

weight f4 [256, 256]
-0.073515296 -0.1610096 -0.01587649 0.25088358 0.0968198 -0.18435812 0.0028820077 -0.0066697327
-0.1178002 -0.049095083 -0.12970461 0.41731644 0.0027038374 0.3818778 0.04352177 0.07204264
-0.038079515 -0.09203028 -0.15310386 -0.047615383 0.4052092 -0.31121385 -0.15194218 -0.2871882
-0.01867514 -0.29082376 0.09047581 -0.12745765 0.0197309 -0.4074854 0.24923745 -0.37747592
-0.095989466 -0.04964512 0.33351198 -0.0138492575 -0.063773334 -0.12382631 -0.02941514 -0.15243672
-0.007687875 -0.23082377 -0.089468755 0.102632366 0.07837236 -0.072216935 0.35795674 0.44020018
-0.17114003 -0.016272472 0.08273577 -0.10272486 -0.3115084 -0.13542548 -0.09738137 -0.08209661
-0.1054842 0.24532294 -0.03225406 0.055071577 -0.0704248 -0.04039469 -0.12838726 0.015121062
0.38922092 -0.1207326 -0.032990303 0.29169652 0.37988636 -0.12551087 -0.23847236 -0.09051602
-0.054300945 0.08405218 0.04601657 0.16205798 -0.1137757 -0.048906613 -0.083018005 -0.10909768
0.5603394 -0.19083811 0.06138606 0.021991987 0.3615084 -0.11527847 0.21319345 0.1902774
0.4181243 0.26353353 -0.07656945 -0.11215735 -0.28871557 -0.036236588 0.066533916 -0.12680559
0.08987165 -0.12576142 -0.11642222 0.024323542 -0.21424057 -0.2646093 0.46677715 0.21684438
0.31179935 0.18983988 -0.13983639 0.026183104 -0.015917288 0.40715548 0.11275955 0.26125124
0.04447344 0.2512066 0.10871122 0.45716944 -0.10554705 -0.19650361 -0.11697314 -0.05757006
-0.088588856 -0.13886592 0.03312526 -0.03631168 -0.1095415 -0.09572081 0.169941 -0.12118372
-0.18136741 -0.14751908 -0.5165337 -0.081157684 -0.09687306 -0.11220601 0.024694636 -0.15478964
-0.014737062 -0.016779888 -0.11263047 -0.014226721 -0.034591183 -0.4242548 -0.1837451 -0.06216307
-0.30729732 -0.07040996 -0.35023636 -0.15468882 0.300952 -0.2654965 0.22368136 -0.0560668
0.6187581 0.09390799 -0.107662715 0.46908554 -0.060275283 -0.033168986 -0.11033056 0.06391553
-0.064314306 0.17786004 -0.10016457 -0.09256954 -0.042962737 -0.1794028 -0.21440853 -0.40289417
-0.19204324 -0.0865001 -0.054476652 -0.23328201 -0.07887376 -0.019453242 -0.31404793 0.32980314
0.22983493 -0.013262277 0.012972555 -0.0799524 -0.12809624 -0.15406796 0.06337118 0.014862887
-0.1114716 -0.015607666 0.11141806 0.09953125 -0.09286309 -0.11096262 -0.22595006 0.6846331
0.05270764 -0.051353503 0.0716772 0.057612266 0.08703418 0.21670274 0.060280953 0.117761746
-0.078261316 -0.2294614 0.38269582 0.0091512045 -0.29475403 0.051148757 -0.062492102 -0.18192632
0.06250805 -0.22908558 0.14498882 -0.16169345 -0.04942637 -0.25718924 0.17108236 -0.30761987
-0.17680645 0.04645003 -0.016298141 0.614244 0.1758382 -0.110709146 0.091390096 -0.008721736
0.022941167 -0.17819199 0.15767714 -0.20997871 0.23119546 -0.387333 0.047803406 -0.12538086
0.44306338 -0.06482208 -0.29907325 0.45294964 0.037691332 0.038464542 0.21430857 0.06055316
-0.18592212 -0.12620978 0.007938968 -0.13388507 0.0879574 -0.053165007 -0.1708253 -0.09379933
0.06081593 -0.1972641 -0.2511633 0.2797322 0.108706795 0.36115745 -0.1980513 0.6105355
00000000: 308f 96bd b3df 24be 6a0f 82bc d073 803e
00000010: 7649 c63d 60c8 3cbe 11e0 3c3b c68d dabb
00000020: 3b41 f1bd ed17 49bd 49d1 04be 80aa d53e
00000030: dd32 313b 7d85 c33e e243 323d 178b 933d
00000040: 44f9 1bbd 5f7a bcbd 42c7 1cbe 5908 43bd
00000050: 9577 cf3e 6c57 9fbe bb96 1bbe 550a 93be
00000060: 9bfc 98bc dae6 94be 624b b93d 4284 02be
00000070: b2a2 a13c eda1 d0be 1a38 7f3e 8644 c1be
00000080: 2096 c4bd ae58 4bbd 15c2 aa3e ffe7 62bc
00000090: 989b 82bd a698 fdbd 05f8 f0bc 5f18 1cbe
000000a0: 92ea fbbb 115d 6cbe 653b b7bd eb30 d23d
000000b0: b081 a03d 79e6 93bd 1b46 b73e eb61 e13e
000000c0: 553f 2fbe d94d 85bc 5f71 a93d 6961 d2bd
000000d0: 077e 9fbe faac 0abe e26f c7bd 4422 a8bd
000000e0: 1a08 d8bd f035 7b3e d51c 04bd bc92 613d
000000f0: e13a 90bd e774 25bd f377 03be 55be 773c
00000100: f747 c73e a742 f7bd d720 07bd 3f59 953e
00000110: 7780 c23e ec85 00be 1932 74be 7760 b9bd
00000120: ab6a 5ebd 8d23 ac3d df7b 3c3d 87f2 253e
00000130: 3c03 e9bd 4d52 48bd 5805 aabd 9b6e dfbd
00000140: 6772 0f3f 116b 43be f36f 7b3d 8a28 b43c
00000150: a117 b93e 1e17 ecbd 624f 5a3e 14d8 423e
00000160: 6314 d63e deed 863e 72d0 9cbd c1b2 e5bd
00000170: 87d2 93be d16c 14bd ef42 883d 53d9 01be
00000180: a10e b83d 9ac7 00be c66e eebd 2a42 c73c
00000190: e161 5bbe df7a 87be 6afd ee3e 740c 5e3e
000001a0: 2aa4 9f3e 6365 423e 4531 0fbe f37d d63c
000001b0: f964 82bc af76 d03e 7bee e63d b9c2 853e
000001c0: c829 363d 279e 803e fda3 de3d 1d12 ea3e
000001d0: 0d29 d8bd 3e38 49be 9d8f efbd 95ce 6bbd
000001e0: 136e b5bd de32 0ebe 5aae 073d 8ebb 14bd
000001f0: 4b57 e0bd 4609 c4bd 0305 2e3e 2c2f f8bd
00000200: 61b8 39be 3e0f 17be 8d3b 04bf 0036 a6bd
00000210: 6265 c6bd 44cc e5bd 684c ca3c 2d81 1ebe
00000220: b873 71bc fa75 89bc ceaa e6bd 3117 69bc
00000230: 7caf 0dbd ed37 d9be ad27 3cbe b49e 7ebd
00000240: 1356 9dbe 1933 90bd 2e52 b3be bf66 1ebe
00000250: 6116 9a3e 28ef 87be ba0c 653e 4da6 65bd
00000260: ee66 1e3f d552 c03d 457e dcbd fb2b f03e
00000270: 37e3 76bd 34dc 07bd fdf4 e1bd 25e6 823d
00000280: 38b7 83bd f120 363e 1523 cdbd 1995 bdbd
00000290: b2f9 2fbd 5eb5 37be e98d 5bbe 2548 cebe
000002a0: fca6 44be f726 b1bd e922 5fbd 7be1 6ebe
000002b0: 9188 a1bd 685c 9fbc e4ca a0be f5db a83e
000002c0: d959 6b3e 054a 59bc d78a 543c 15be a3bd
000002d0: a92b 03be fec3 1dbe c0c8 813d 7783 733c
000002e0: 394b e4bd 4cb7 7fbc 272f e43d 0ad7 cb3d
000002f0: 012f bebd 5f40 e3bd 745f 67be 1d44 2f3f
00000300: f7e3 573d 0d58 52bd 7fcb 923d d7fa 6b3d
00000310: fa3e b23d 53e7 5d3e 29e9 763d 122d f13d
00000320: 7847 a0bd eef7 6abe b5f0 c33e efee 153c
00000330: 00ea 96be 5c81 513d b8f7 7fbd e54a 3abe
00000340: 3804 803d 6995 6abe f377 143e f892 25be
00000350: 4e73 4abd 4fae 83be 3730 2f3e 5a80 9dbe
00000360: c00c 35be 6342 3e3d ae83 85bc 183f 1d3f
00000370: ee0e 343e 7abb e2bd bb2a bb3d 9de5 0ebc
00000380: 1def bb3c f677 36be 1e76 213e a904 57be
00000390: 81be 6c3e 8350 c6be 81cd 433d d763 00be
000003a0: 34d9 e23e 70c1 84bd 2120 99be 04e9 e73e
000003b0: 3a62 1a3d ff8c 1d3d b573 5b3e 9706 783d
000003c0: 5e62 3ebe 233d 01be 7212 023c 2b19 09be
000003d0: 0223 b43d 8dc3 59bd d4ec 2ebe dd19 c0bd
000003e0: 201a 793d 9aff 49be 7a98 80be 0f39 8f3e
000003f0: aba1 de3d a1e9 b83e f6cd 4abe 0e4c 1c3f

bias f4 [256]
-0.5853629 0.058510438 -0.67198014 -0.86830145 -0.63368773 -0.64828473 -1.0537857 -0.7987192
-0.42212877 -1.4269454 -0.7384202 -0.72529155 -0.6425236 -0.9009536 -1.0286931 -0.87047654
-0.6083204 -0.54940987 -0.35096812 -0.7057224 -0.7152868 -0.64064735 -0.65049773 -0.8645385
-0.5683329 -0.5998319 -0.5739421 -1.4081122 -0.51389843 -0.488563 -0.5233771 -0.62989223
-0.42760763 -0.68971014 -0.5741614 0.011274553 -0.57546246 -0.6836472 -0.81202364 -0.55254847
-0.41758317 -1.072508 -0.6717792 -0.6206236 -0.41587985 -0.43133032 -0.26362327 -0.9672886
-0.64100945 -0.9551037 -0.56310606 -0.49383685 -1.1701211 -0.6493981 -0.7926374 -0.53714204
-0.40678644 -0.55295247 -0.61938375 -0.590512 -0.6589884 -0.3478568 -0.6422326 0.3612387
-0.62653416 -0.96912634 -1.2663465 -0.9538133 -1.6931287 -0.27915362 -0.62406397 -1.1374987
-0.453681 -0.5899692 -0.42432025 -1.0971287 -1.2851527 -0.5879752 -0.5610043 -0.44812226
-0.46389878 -0.376863 -0.062334 -0.53244346 -0.61380607 -1.037046 -0.5492349 -0.5756814
-0.7677322 -0.56303155 -0.81752837 -0.7357237 -1.2180535 -0.67048544 -0.8401777 -0.6323243
0.12953027 -0.7454454 -0.3566352 -0.6352709 -0.5600579 -1.2019745 -0.60328776 -0.4094042
-1.3882904 -0.74782073 -1.5310565 -0.4911892 -0.6640406 -0.31715658 -0.54417825 -0.66651213
-0.64723593 -0.72154653 -0.45808843 -0.34299508 -0.56075704 -0.5936472 -0.57704026 -1.0718884
-0.6447726 -0.43732002 -0.56144434 -1.209724 -1.047028 -1.0267352 -0.71738 -0.6355956
-1.3783766 -0.65836674 -0.6376921 -0.67800593 -1.2496566 -0.4267267 -0.46098962 -0.59878117
-0.66210884 -0.7262192 -0.65431327 -1.7155901 -1.013512 -1.5974199 -0.99406683 -0.6171081
-0.5429161 0.29044884 -0.17736307 -0.34691134 -0.61013454 -0.6284279 0.3370724 -0.54270536
-0.82509065 -0.39307252 -0.6448664 -0.651717 -0.6419623 -1.0009984 -0.6527228 -1.6876869
-0.3518051 -0.9200844 -1.0511503 -1.7289176 -0.65555996 -0.41513383 -1.2857562 -0.61697996
-0.7430244 -0.6038694 -0.92032874 -0.6043973 -0.8865764 -0.57947624 -0.19850002 -1.4760864
-1.1037555 -0.5858473 -0.66277516 -0.126281 -0.6690496 -0.5651119 -0.5777275 0.111943744
-0.5913664 -0.78958726 -0.66559684 -0.6528509 -0.67173177 -1.1818049 -0.061563306 0.06203194
-0.6395044 -0.85435843 -0.686994 -0.73406637 -0.66627955 -0.7788212 -0.586458 -0.22449137
-0.64920235 -0.6007292 -0.51879287 -1.1790919 -0.60069036 -0.68846726 -0.5978819 -0.49771833
-0.2613997 -1.0417453 -0.95592564 -0.955143 -0.63819367 -0.7420363 -0.7584717 -0.5840476
-1.5741802 -1.0923266 -0.3963363 -0.66948193 -0.7045713 -1.2940928 -0.41695163 -0.95970047
-1.1371367 -1.485772 -0.6560216 -0.6337368 -0.99642503 -0.58106256 -0.5898779 -0.73377717
-0.6466702 -0.67436117 -0.5414654 -0.6551396 -1.2824419 -0.5309874 -0.6157227 -0.7755945
-0.6595871 -0.6858165 -0.6434915 -0.52722883 -0.58587134 -0.9428574 -0.86369014 -0.63075113
-0.7047415 -2.0016057 -0.6107425 -0.43633533 -1.3918135 -0.51667845 -0.85134286 -0.08738621
00000000: 58da 15bf a4a8 6f3d e406 2cbf 0149 5ebf
00000010: 5c39 22bf fdf5 25bf 73e2 86bf dd78 4cbf
00000020: 4321 d8be 26a6 b6bf 1b09 3dbf b5ac 39bf
00000030: 6d7c 24bf e5a4 66bf 37ac 83bf 8dd7 5ebf
00000040: e3ba 1bbf 20a6 0cbf 18b2 b3be 39aa 34bf
00000050: 091d 37bf 7701 24bf 0587 26bf 6552 5dbf
00000060: 447e 11bf 958e 19bf dfed 12bf 053d b4bf
00000070: d98e 03bf ee24 fabe 0bfc 05bf 9e40 21bf
00000080: 63ef dabe d890 30bf 3efc 12bf e7b8 383c
00000090: 8251 13bf 8103 2fbf c8e0 4fbf d173 0dbf
000000a0: 76cd d5be f147 89bf b9f9 2bbf 30e1 1ebf
000000b0: 34ee d4be 54d7 dcbe a1f9 86be 3aa0 77bf
000000c0: 3219 24bf ad81 74bf b827 10bf 2fd8 fcbe
000000d0: 87c6 95bf f43e 26bf 49ea 4abf 2482 09bf
000000e0: 5046 d0be 4b8e 0dbf ef8f 1ebf cb2b 17bf
000000f0: 77b3 28bf 491a b2be 5b69 24bf 47f4 b83e
00000100: 8b64 20bf aa18 78bf a417 a2bf 1c2d 74bf
00000110: 71b8 d8bf 39ed 8ebe a8c2 1fbf 8f99 91bf
00000120: e048 e8be 3908 17bf 8140 d9be b76e 8cbf
00000130: e27f a4bf 8b85 16bf fa9d 0fbf 4870 e5be
00000140: 2484 edbe 30f4 c0be f051 7fbd 374e 08bf
00000150: 6522 1dbf ecbd 84bf a99a 0cbf db5f 13bf
00000160: 198a 44bf d622 10bf 8a49 51bf 6358 3cbf
00000170: 2de9 9bbf efa4 2bbf e315 57bf 01e0 21bf
00000180: 95a3 043e 82d5 3ebf e498 b6be 1da1 22bf
00000190: f45f 0fbf 4dda 99bf 1171 1abf 6d9d d1be
000001a0: 80b3 b1bf 2e71 3fbf a9f9 c3bf 277d fbbe
000001b0: 91fe 29bf 5962 a2be 444f 0bbf 8aa0 2abf
000001c0: 41b1 25bf 46b7 38bf 918a eabe 0d9d afbe
000001d0: c68d 0fbf 43f9 17bf e9b8 13bf a433 89bf
000001e0: d10f 25bf 69e8 dfbe d1ba 0fbf 3cd8 9abf
000001f0: 0305 86bf 0f6c 83bf 37a6 37bf 65b6 22bf
00000200: a56e b0bf b98a 28bf ca3f 23bf cc91 2dbf
00000210: bff4 9fbf ec7b dabe d506 ecbe b949 19bf
00000220: f77f 29bf 80e9 39bf 1381 27bf 7598 dbbf
00000230: c3ba 81bf 4178 ccbf 2a7b 7ebf ccfa 1dbf
00000240: 8dfc 0abf b6b5 943e aa9e 35be 5d9e b1be
00000250: c731 1cbf a7e0 20bf c194 ac3e bdee 0abf
00000260: 2439 53bf cd40 c9be f715 25bf edd6 26bf
00000270: a457 24bf b720 80bf d718 27bf 2006 d8bf
00000280: cc1f b4be a78a 6bbf 188c 86bf 2c4d ddbf
00000290: c7d2 27bf 6c8c d4be a993 a4bf 66f2 1dbf
000002a0: d936 3ebf 2f97 1abf aa9a 6bbf c8b9 1abf
000002b0: acf6 62bf 8e58 14bf 9743 4bbe 66f0 bcbf
000002c0: dc47 8dbf 17fa 15bf a2ab 29bf ce4f 01be
000002d0: d646 2bbf 2cab 10bf f3e5 13bf c342 e53d
000002e0: ca63 17bf 6422 4abf 8e64 2abf 3d21 27bf
000002f0: 9df6 2bbf 6245 97bf ce29 7cbd 3415 7e3d
00000300: 8fb6 23bf 3cb7 5abf d7de 2fbf c6eb 3bbf
00000310: 4c91 2abf d360 47bf 1d22 16bf 11e1 65be
00000320: 2032 26bf 64c9 19bf 9ccf 04bf 7cec 96bf
00000330: d8c6 19bf 643f 30bf ca0e 19bf f0d4 febe
00000340: 2ed6 85be e957 85bf 8bb7 74bf 4084 74bf
00000350: a960 23bf 17f6 3dbf 342b 42bf 2584 15bf
00000360: bd7e c9bf 5cd1 8bbf 97ec cabe 2b63 2bbf
00000370: c95e 34bf d5a4 a5bf af7a d5be eeae 75bf
00000380: b28d 91bf c72d bebf 08f1 27bf 933c 22bf
00000390: b615 7fbf 84c0 14bf 3d02 17bf d2d8 3bbf
000003a0: 2e8c 25bf efa2 2cbf 7a9d 0abf 3bb7 27bf
000003b0: 0e27 a4bf caee 07bf 01a0 1dbf 5c8d 46bf
000003c0: b3da 28bf ac91 2fbf dcbb 24bf 78f8 06bf
000003d0: aafb 15bf 1a5f 71bf cc1a 5dbf e878 21bf
000003e0: f069 34bf 4f1a 00c0 9f59 1cbf 5867 dfbe
000003f0: f226 b2bf 0a45 04bf 9bf1 59bf 8bf7 b2bd

weight f4 [256, 256]
0.32007504 0.22414964 0.27664357 -0.15101185 0.3738676 0.34118605 0.19343911 0.0873969
0.2031182 0.096123904 -0.015089682 -0.07148434 0.28202832 -0.16740997 0.022596821 0.06442538
0.047793 -0.09157973 0.15911804 -0.26953667 -0.057393365 0.3726847 0.3089606 -0.033759963
0.36521536 0.1553057 -0.0065719234 -0.44801107 0.124252245 -0.04715356 -0.020839412 0.36075884
0.002695744 -0.22850752 0.17531219 -0.047840632 -0.057695817 0.2609188 0.030419428 -0.035133835
-0.0061045657 0.033511084 0.3217085 0.37073907 0.00019517598 0.3292058 0.011528139 0.13418444
0.21573713 0.034135386 -0.004396993 -5.2728396e-05 0.11295308 0.34312308 -0.033167657 0.32604763
-0.007727507 0.06076318 0.3788467 0.26965332 0.2801228 -0.1354073 0.29311177 0.17767327
-0.004898141 0.1023323 -0.02819462 0.04221262 0.074727096 -0.10718936 -0.29413053 0.15595147
0.038857676 0.3517854 0.055649716 -0.018062962 0.028451718 0.08384048 0.32311386 0.12046852
-0.032306552 0.04684026 -0.101010844 0.2634326 -0.15500009 -0.09175312 0.29670203 0.24420767
-0.20255435 0.15171736 0.0673789 0.14000875 -0.021251254 0.31518006 -0.09365833 0.3140339
0.24250941 0.04249658 0.09458972 0.27849945 0.32040778 0.18015371 0.29306638 0.0566256
0.13372073 -0.025570307 0.01490687 -0.3754486 0.32715482 0.25441232 0.1056174 0.0180036
0.38424134 -0.10118162 0.15398079 0.032710817 0.0886235 -0.11296598 0.26457718 0.029054342
0.31932086 0.0028900965 0.083067045 -0.028643526 0.0742958 0.071061075 0.17458604 0.025226248
0.0010003614 0.20652308 0.38897255 -0.053199794 -0.21171907 0.014320183 -0.22269084 0.2813647
0.2956479 0.03921105 -0.048746154 0.122931615 0.14612179 0.106834754 -0.006415557 0.35492995
-0.021078998 -0.08607441 -0.12554316 0.10936111 0.26420304 0.32806113 -0.33278388 0.14628562
0.17651474 0.03365589 0.2925244 0.30381227 0.38297856 -0.059768595 0.07193508 0.11885065
0.09863974 0.19148353 0.20318115 0.08353955 0.037326083 0.08175833 0.039731134 0.26956272
0.13090225 0.30734512 0.21156646 0.38983667 -0.22821072 0.37617502 -0.08686473 -0.117247224
0.047654733 0.07037694 0.28407457 0.23399186 -0.0014582571 0.3115391 0.38423294 -0.22498521
0.23720504 -0.0855473 0.2970913 0.33654052 0.037750848 0.09259792 -0.20588043 -0.016443426
0.32601675 -0.026738776 0.07192177 0.16043623 0.109697334 0.13803054 0.16058835 0.07295634
0.3432834 0.29032984 0.15170926 -0.078071594 0.22220656 -0.20530164 0.34847775 0.0013246853
0.10396347 -0.016140647 -0.11634101 -0.057085965 -0.16735883 -0.2413665 0.04637494 0.26039612
0.38842294 -0.01447279 0.0070455517 0.3679469 0.005724457 0.064313285 -0.015148324 -0.019680649
0.04123219 -0.14890392 -0.3415805 0.3613481 -0.04386784 0.34948218 0.37697473 0.071939185
0.35605454 0.31056687 0.21590461 0.20610638 -0.010750002 0.1871941 0.37070024 0.04980044
-0.0031822785 -0.08152853 0.32621387 0.091904886 0.33952522 0.09354937 -0.41522163 0.2919421
0.0026966827 -0.011255353 0.33484462 0.08590366 0.14386752 0.1615651 0.031412765 0.06256878
00000000: e0e0 a33e 7c87 653e 3aa4 8d3e daa2 1abe
00000010: 936b bf3e f0af ae3e e714 463e 25fd b23d
00000020: 38fe 4f3e 9cdc c43d b73a 77bc 6266 92bd
00000030: 0466 903e 856d 2bbe f81c b93c 74f1 833d
00000040: 98c2 433d 278e bbbd d7ef 223e b600 8abe
00000050: 4e15 6bbd 87d0 be3e 1530 9e3e e347 0abd
00000060: 82fd ba3e 7508 1f3e 4a59 d7bb b561 e5be
00000070: f677 fe3d 1724 41bd 6ab7 aabc 62b5 b83e
00000080: 14ab 303b e0fd 69be 0a85 333e 8af4 43bd
00000090: 7352 6cbd 2697 853e 2a32 f93c 7fe8 0fbd
000000a0: cf08 c8bb eb42 093d fab6 a43e 83d1 bd3e
000000b0: 27a8 4c39 aa8d a83e 85e0 3c3c a567 093e
000000c0: 32ea 5c3e 8cd1 0b3d a714 90bb af28 5db8
000000d0: f253 e73d d4ad af3e cfda 07bd b7ef a63e
000000e0: 0737 fdbb d0e2 783d 32f8 c13e 0010 8a3e
000000f0: 416c 8f3e 36a8 0abe bf12 963e fbef 353e
00000100: 9680 a0bb 9993 d13d 67f8 e6bc 24e7 2c3d
00000110: 850a 993d 1886 dbbd 4798 96be beb1 1f3e
00000120: 3a29 1f3d 371d b43e f5f0 633d c7f8 93bc
00000130: 9413 e93c 8fb4 ab3d 2e6f a53e 33b8 f63d
00000140: e053 04bd 93db 3f3d c6de cebd a3e0 863e
00000150: 58b8 1ebe 0fe9 bbbd 54e9 973e 9311 7a3e
00000160: 686a 4fbe cc5b 1b3e f3fd 893d 745e 0f3e
00000170: 1c17 aebc 485f a13e f0cf bfbd 0dc9 a03e
00000180: 6354 783e e510 2e3d 41b8 c13d 7b97 8e3e
00000190: 7d0c a43e 377a 383e cc0c 963e 3ff0 673d
000001a0: 16ee 083e d278 d1bc f23b 743c cd3a c0be
000001b0: d680 a73e 5542 823e ef4d d83d 497c 933c
000001c0: 48bb c43e 4f38 cfbd 24ad 1d3e c7fb 053d
000001d0: 3d80 b53d b55a e7bd a976 873e 5f03 ee3c
000001e0: 067e a33e c667 3d3b 0e1f aa3d d4a5 eabc
000001f0: 6528 983d 7888 913d afc6 323e 47a7 ce3c
00000200: 8f1e 833a c97a 533e 6927 c73e 07e8 59bd
00000210: e2cc 58be 339f 6a3c 1109 64be 090f 903e
00000220: 295f 973e c49b 203d 0caa 47bd 92c3 fb3d
00000230: f3a0 153e 2ecc da3d 9839 d2bb 61b9 b53e
00000240: ddad acbc c847 b0bd 638e 00be b8f8 df3d
00000250: 9f45 873e a1f7 a73e a662 aabe e6cb 153e
00000260: 48c0 343e c2da 093d c2c5 953e 488d 9b3e
00000270: c415 c43e eacf 74bd b352 933d f867 f33d
00000280: a203 ca3d 4214 443e b80e 503e c916 ab3d
00000290: 3ce3 183d e970 a73d 1dbd 223d 2004 8a3e
000002a0: 3d0b 063e 575c 9d3e e1a4 583e ac98 c73e
000002b0: 12b0 69be 039a c03e 23e6 b1bd 501f f0bd
000002c0: 9c31 433d c921 903d 3972 913e 909b 6f3e
000002d0: fd22 bfba 0e82 9f3e 2eba c43e 8662 66be
000002e0: e1e5 723e 6c33 afbd 5a1c 983e 0a4f ac3e
000002f0: a2a0 1a3d faa3 bd3d 52d2 52be 5db4 86bc
00000300: abeb a63e 470b dbbc b94b 933d 6549 243e
00000310: ffa8 e03d e157 0d3e 4671 243e 226a 953d
00000320: d8c2 af3e 1da6 943e ac59 1b3e 00e4 9fbd
00000330: 1e8a 633e 983a 52be ad6b b23e 10a1 ad3a
00000340: cdea d43d 6439 84bc 3244 eebd f9d2 69bd
00000350: 1d60 2bbe c828 77be a6f3 3d3d a452 853e
00000360: 5fdf c63e 481f 6dbc 5fde e63b 8963 bc3e
00000370: 3a94 bb3b afb6 833d ad30 78bc 5039 a1bc
00000380: 16e3 283d 457a 18be a4e3 aebe 9e02 b93e
00000390: c4ae 33bd 54ef b23e d502 c13e da54 933d
000003a0: c84c b63e 9f02 9f3e 1916 5d3e 8d0d 533e
000003b0: c720 30bc cfaf 3f3e 6ccc bd3e 8cfb 4b3d
000003c0: c68d 50bb 6ef8 a6bd 8105 a73e a138 bc3d
000003d0: 40d6 ad3e d096 bf3d ee97 d4be 6f79 953e
000003e0: d4ba 303b 5f68 38bc c170 ab3e 42ee af3d
000003f0: 0252 133e 5271 253e acaa 003d 0f24 803d

bias f4 [256]
-0.31627452 -0.37276894 -0.18763345 -0.25722352 -0.6224981 -0.3307376 -0.49749362 -0.31911942
-0.18212007 -0.11950425 -0.35649574 -0.19780129 -0.43592054 -0.3934881 -0.5184902 -0.30979916
-0.1445575 -0.4070474 -0.82320434 -0.27200475 -0.46343482 -0.24607758 -0.19871798 -0.1837228
-0.4155162 -0.39721295 -0.21151124 -0.28134963 -0.4605127 -0.34594887 -0.42368662 -0.4117477
-0.19414575 -0.22607541 -0.4064228 -0.54597235 -0.14742753 -0.24664183 -0.24945714 -0.48619628
-0.22970182 -0.21035814 -0.5802055 -0.23442248 -0.15144736 -0.45559815 -0.25150064 -0.25842342
-0.662593 -0.25635275 -0.77608836 -0.25802553 -0.49612007 -0.24718301 -0.33937275 -0.53130794
-0.5574112 -0.2631061 -0.34170717 -0.41275346 -0.1436454 -0.23513249 -0.28839967 -0.38767508
-0.20070237 -0.16905725 -0.34562367 -0.14502694 -0.37466428 -0.18106398 -0.26989126 -0.125248
-0.1902028 -0.5866023 -0.10074708 -0.21124882 -0.24199799 -0.21980003 0.020107238 -0.15379696
-0.7065415 -0.15570585 -0.11959739 -0.28693834 -0.69360554 -0.3053528 -0.29982954 -0.20330642
-0.056131218 -0.42831838 -0.40111887 -0.31163082 -0.1843664 -0.39721644 -0.310214 -0.29583263
0.026223505 -0.35791382 -0.3985739 -0.40814993 -0.28822464 -0.03546771 -0.33225474 -0.35594139
-0.46275583 -0.25553337 -0.49098757 -0.23792496 -0.09547865 -0.26440006 -0.3966769 -0.25954646
-0.41355568 -0.48030853 -0.113968484 -0.14753099 -0.2572659 -0.31976575 -0.58611983 -0.18687423
-0.28949872 -0.28770804 -0.13549991 -0.15425096 -0.5389934 -0.17782292 -0.16910833 -0.33333823
-0.15061358 -0.33863696 -0.45842746 -0.41407147 -0.3312431 -0.1591636 -0.19616866 -0.28253922
-0.12962241 -0.20571032 -0.3112024 -0.3830391 -0.3510582 -0.21662931 -0.17955999 -0.47806495
-0.75352097 -0.24333267 -0.5379219 -0.40832743 -0.20499082 -0.40310937 -0.13941266 -0.23699278
-0.23909463 -0.18591999 -0.35934275 -0.2493628 -1.0814278 -0.9604186 -0.32460752 -0.087392725
-0.49300632 -0.3999316 -1.1728839 0.028468013 -0.59815943 -0.36691198 -0.21562287 -0.4927688
-0.15326528 -0.21026513 -0.22307482 -0.19671072 -0.3134954 -0.17912202 -0.3650266 -0.2755102
-0.12925792 -0.4274149 -0.3030516 -0.7289586 -0.1897176 -0.35297504 -0.7850471 -0.43892902
-0.3280136 -0.121453784 -0.1771493 -0.21049608 -0.45554575 -0.10970562 -0.3853559 -0.30194473
-0.16389947 -1.1556141 -0.23362714 -0.57354647 -0.35377026 -0.09854658 -0.32152453 -0.5665621
-0.106668144 -0.32025975 -0.10272849 -0.22710516 -0.05194815 -0.34873837 -0.18168187 -0.4083581
-0.6493236 -0.1746253 -0.12988758 -0.22729029 -0.38137197 -0.58728063 -0.10355292 -0.11498372
-0.8718138 -0.12189692 -0.2489331 -0.1243258 -0.11428096 -0.39920938 -0.051597834 -0.12375284
-0.37305534 -0.19986981 -0.23870571 -0.28905088 -0.322681 -0.049857594 -0.2334707 -0.18479179
-0.21162985 -0.7739901 -0.5244444 -0.26192635 -0.2486826 -0.87063986 -0.2793248 -0.4154792
-0.2450673 -0.4751396 -0.3963263 -0.11903746 -0.48855364 -0.62370306 -0.33073902 -0.5225344
-0.2221478 -0.2621568 -0.29704595 -0.17624107 -0.07350475 -0.2448696 -0.16477782 -0.19700794
00000000: bcee a1be 92db bebe fc22 40be cdb2 83be
00000010: 095c 1fbf 7056 a9be 7cb7 febe 9f63 a3be
00000020: af7d 3abe a5be f4bd 9c86 b6be 6c8c 4abe
00000030: fa30 dfbe 4677 c9be c6bb 04bf ff9d 9ebe
00000040: e206 14be 8468 d0be 85bd 52bf 3544 8bbe
00000050: 5447 edbe c3fb 7bbe ba7c 4bbe d421 3cbe
00000060: 8abe d4be 7f5f cbbe 6796 58be 0f0d 90be
00000070: 52c8 ebbe 3620 b1be 74ed d8be 98d0 d2be
00000080: 25ce 46be 5080 67be a616 d0be d8c4 0bbf
00000090: 3ef7 16be ad8f 7cbe b171 7fbe b8ee f8be
000000a0: f436 6bbe 2068 57be 5988 14bf 720c 70be
000000b0: 0415 1bbe 2944 e9be b1c4 80be 1350 84be
000000c0: b29f 29bf ab40 83be baad 46bf ec1b 84be
000000d0: 7303 febe 8b1d 7dbe 44c2 adbe cc03 08bf
000000e0: 80b2 0ebf d8b5 86be 3ef4 aebe 6c54 d3be
000000f0: c817 13be 92c6 70be 1fa9 93be 597d c6be
00000100: ec84 4dbe 581d 2dbe 96f5 b0be f181 14be
00000110: ffd3 bfbe d668 39be 302f 8abe 0341 00be
00000120: 86c4 42be 912b 16bf 7c54 cebd 9c51 58be
00000130: 52ce 77be 4213 61be efb7 a43c f37c 1dbe
00000140: e7df 34bf 5b71 1fbe 7aef f4bd 95e9 92be
00000150: 2290 31bf 3457 9cbe 4283 99be 8f2f 50be
00000160: d9e9 65bd 8c4c dbbe 745f cdbe 138e 9fbe
00000170: 8cca 3cbe f45f cbbe 5fd4 9ebe 6077 97be
00000180: add2 d63c 7b40 b7be e111 ccbe 07f9 d0be
00000190: 2e92 93be 9746 11bd 4b1d aabe f33d b6be
000001a0: 55ee ecbe 45d5 82be b962 fbbe 9aa2 73be
000001b0: 4f8a c3bd 725f 87be 3c19 cbbe 46e3 84be
000001c0: 92bd d3be 00eb f5be 4f68 e9bd 5d12 17be
000001d0: 5bb8 83be 56b8 a3be f30b 16bf f55b 3fbe
000001e0: 2d39 94be 784e 93be 7dc0 0abe f7f3 1dbe
000001f0: 79fb 09bf 3617 36be bc2a 2dbe 4fab aabe
00000200: 723a 1abe d361 adbe 01b7 eabe 2d01 d4be
00000210: b298 a9be c8fb 22be 70e0 48be fba8 90be
00000220: bdbb 04be baa5 52be ec55 9fbe b31d c4be
00000230: e6bd b3be 13d4 5dbe 93de 37be eec4 f4be
00000240: c0e6 40bf 332c 79be 40b5 09bf 4b10 d1be
00000250: 1de9 51be 5a64 cebe 31c2 0ebe 3cae 72be
00000260: 39d5 74be cf61 3ebe c6fb b7be f658 7fbe
00000270: 3a6c 8abf fedd 75bf f532 a6be f5fa b2bd
00000280: 536b fcbe d6c3 ccbe 0f21 96bf c035 e93c
00000290: fa20 19bf e3db bbbe 3ecc 5cbe 314c fcbe
000002a0: 93f1 1cbe be4f 57be ba6d 64be 896e 49be
000002b0: 7882 a0be c36b 37be c4e4 babe ac0f 8dbe
000002c0: 305c 04be 20d6 dabe 9429 9bbe 089d 3abf
000002d0: 5545 42be 25b9 b4be d9f8 48bf 4ebb e0be
000002e0: 66f1 a7be c3bc f8bd a066 35be 498c 57be
000002f0: 4b3d e9be 57ad e0bd 5e4d c5be 8098 9abe
00000300: 43d5 27be 2aeb 93bf f43b 6fbe f1d3 12bf
00000310: 6021 b5be cad2 c9bd dd9e a4be 370a 11bf
00000320: d474 dabd 16f9 a3be 5163 d2bd 418e 68be
00000330: 95c7 54bd d68d b2be d00a 3abe 5014 d1be
00000340: 123a 26bf fad0 32be 4001 05be c9be 68be
00000350: 3043 c3be 0658 16bf 8e13 d4bd 967c ebbd
00000360: 302f 5fbf 18a5 f9bd 52e8 7ebe 869e febd
00000370: 230c eabd 2c65 ccbe 4058 53bd 2172 fdbd
00000380: 1c01 bfbe acaa 4cbe 456f 74be 7afe 93be
00000390: 7236 a5be 7a37 4cbd f112 6fbe 0f3a 3dbe
000003a0: 7fb5 58be 3724 46bf fd41 06bf 361b 86be
000003b0: a7a6 7ebe 41e2 5ebf a903 8fbe b1b9 d4be
000003c0: ecf2 7abe 7f45 f3be 48eb cabe e9c9 f3bd
000003d0: b423 fabe 01ab 1fbf a056 a9be d0c4 05bf
000003e0: b67a 63be 6b39 86be 6816 98be 8a78 34be
000003f0: a989 96bd 19bf 7abe 84bb 28be 73bc 49be
