temp/net.pkl (torch_old, 4812 bytes, 5 tensors)

weight f4 [10, 1]
00000000: 3164 5fdf 3c4b 67bf 82eb 4dbf c026 52be
00000010: 08c4 6ebf ebb9 92cb 08d2 41bf 4852 b3de
00000020: 1003 99bd 5d6f 07dd
-1.6097045e+19 -0.90349174 -0.8043748 -0.20522594 -0.9326787 -1.9231702e+07 -0.7571111 -6.4607347e+18
-0.07471287 -6.099451e+17

bias f4 [10]
00000000: f6ac afda c888 10bf 50b6 333f 28a1 47bf
00000010: 5065 c93d f879 4bca 9c5c 8abe d904 0dda
00000020: 2001 31bf 5403 55d8
-2.4724147e+16 -0.5645871 0.7020006 -0.7798028 0.09833777 -3.333758e+06 -0.2702378 -9.923325e+15
-0.6914234 -9.368411e+14

weight f4 [10, 10]
00000000: b323 853e 629f 023e 2005 333c f428 0ebe
00000010: d6eb 87be 6699 92be d117 933e 924d 583e
00000020: 5fe0 27be 4e3d 403e 3f5c 25be 0086 0a3c
00000030: 26b4 86be 51dd 54be 04b0 a0be 8217 dfbd
00000040: 266f 643e 96d0 683e 5bda 01be c68e 683e
00000050: e6c3 5b3e 58cc c4bd 7e66 533e be5b 54be
00000060: d25d dbbd a246 563e 40aa 8bbd 71f1 883e
00000070: 0396 823e 204b e2bc c91d 89be 1816 703d
00000080: 6bc4 78be dbaf 923e 8772 93be ec71 d53d
00000090: 2023 5bbc eec3 7cbe fbdb 97be 92ca 793e
000000a0: bad8 5a3e c04c 6e3c a3eb 8d3e 1002 e03d
000000b0: 0a76 f3bd aaad 463e 4f80 9c3e 7138 863e
000000c0: 99fb 8e3e 982a 28be bae4 573e a842 f13d
000000d0: 600c 333e 607b d5bd 82f8 9ebe b997 9a3e
000000e0: 6401 27be 701d cb3c a8f5 32be c223 783e
000000f0: 6734 843e e8f3 3fbe 6071 803d 3202 093e
00000100: b644 c9bd d2f1 233e d276 31be 0659 533e
00000110: 2a0d 6a3e 2ad0 d2bd 6096 9a3c 16f5 303e
00000120: 6a9e 763e e246 4f3e 3aa2 1e3e fe2f 88bd
00000130: 7b05 89be fa07 8fbd 56df 4b3e c364 9e3e
00000140: f80e 0abd ffbe 9a3e 10ab 52bd a4bf 77be
00000150: 2bad 87be 00c7 2ebb 4e4b 10be b48d f73d
00000160: 266e 5f3e 2671 8abe ba40 d4bd 5501 85be
00000170: 4486 a5bd f037 8ebd a443 39be d837 bcbd
00000180: c2e2 723e fb4c 66be acdb a63d d280 583e
0.260038 0.12756112 0.010926515 -0.1388281 -0.26547116 -0.2863266 0.28729108 0.2112334
-0.16394185 0.18773386 -0.1614847 0.0084548 -0.26309317 -0.2078755 -0.3138429 -0.10893156
0.22308025 0.22735819 -0.12680952 0.22710714 0.21461448 -0.09609288 0.20644566 -0.20738122
-0.10711254 0.20925382 -0.06819582 0.26746705 0.25505075 -0.027623713 -0.26780537 0.05861482
-0.24293678 0.28649792 -0.28798315 0.104221195 -0.013375074 -0.24684116 -0.2966002 0.2439368
0.21371737 0.014544666 0.2771884 0.109378934 -0.118877485 0.19402185 0.30566642 0.26214936
0.2792633 -0.16422498 0.21083346 0.11780292 0.1748519 -0.104239225 -0.3104897 0.3019388
-0.16309124 0.02479431 -0.17476523 0.2423239 0.2582123 -0.18745387 0.062716246 0.13379744
-0.09827559 0.16010216 -0.17330483 0.20639428 0.22856584 -0.102936104 0.018870533 0.17280993
0.24083868 0.20241883 0.15491572 -0.06649779 -0.26761994 -0.06983943 0.19909415 0.3093625
-0.03370568 0.30223843 -0.05143267 -0.24194199 -0.26499304 -0.0026668906 -0.14091226 0.120875746
0.21819362 -0.2703945 -0.10363908 -0.2597758 -0.0808225 -0.06944263 -0.18092209 -0.09190339
0.23719314 -0.22490303 0.08147368 0.21142891

bias f4 [10]
00000000: 3075 fb3d 606f 0e3c 4ca8 203e b64a 063e
00000010: 00c0 3f3a 7c9d 74be 80c5 a03d 43ba 943e
00000020: 0031 9f3c 86ea 09be
0.12278211 0.008693546 0.156892 0.13114437 0.0007314682 -0.238882 0.0785017 0.29048356
0.019432545 -0.1346837

weight f4 [1, 10]
00000000: b9cb 4bde 0054 be3d 72ef 5c3e 1a15 93be
00000010: e0be 73bc f768 45ca 4c68 873d 1649 7fdc
00000020: 9ca1 e83d 6737 28de
-3.6712586e+18 0.092933655 0.21575716 -0.28727037 -0.014877051 -3.2343658e+06 0.0661169 -2.8742591e+17
0.113589495 -3.0303175e+18
